…
        min_scale: 0.3
        max_scale: 1
        min_aspect_ratio: 0.3
        max_aspect_ratio: 2
      }
      sample_constraint {
        min_jaccard_overlap: 0.9
      }
      max_sample: 1
      max_trials: 50
    }
    batch_sampler {
      sampler {
        min_scale: 0.3
        max_scale: 1
        min_aspect_ratio: 0.3
        max_aspect_ratio: 2
      }
      sample_constraint {
        max_jaccard_overlap: 1
      }
      max_sample: 1
      max_trials: 50
    }
    label_map_file: "/home/sweekar/SDN_main/services/SDN/labelmap_voc.prototxt"
  }
}
layer {
  name: "conv1_1"
  type: "Convolution"
  bottom: "data"
  top: "conv1_1"
  param {
    lr_mult: 0
    decay_mult: 0
  }
  param {
    lr_mult: 0
    decay_mult: 0
  }
  convolution_param {
    num_output: 64
    pad: 1
    kernel_size: 3
    weight_filler {
      type: "xavier"
    }
    bias_filler {
      type: "constant"
      value: 0
    }
  }
}
layer {
  name: "relu1_1"
  type: "ReLU"
  bottom: "conv1_1"
  top: "conv1_1"
}
layer {
  name: "conv1_2"
  type: "Convolution"
  bottom: "conv1_1"
  top: "conv1_2"
  param {
    lr_mult: 0
    decay_mult: 0
  }
  param {
    lr_mult: 0
    decay_mult: 0
  }
  convolution_param {
    num_output: 64
    pad: 1
    kernel_size: 3
    weight_filler {
      type: "xavier"
    }
    bias_filler {
      type: "constant"
      value: 0
    }
  }
}
layer {
  name: "relu1_2"
  type: "ReLU"
  bottom: "conv1_2"
  top: "conv1_2"
}
layer {
  name: "pool1"
  type: "Pooling"
  bottom: "conv1_2"
  top: "pool1"
  pooling_param {
    pool: MAX
    kernel_size: 2
    stride: 2
  }
}
layer {
  name: "conv2_1"
  type: "Convolution"
  bottom: "pool1"
  top: "conv2_1"
  param {
    lr_mult: 0
    decay_mult: 0
  }
  param {
    lr_mult: 0
    decay_mult: 0
  }
  convolution_param {
    num_output: 128
    pad: 1
    kernel_size: 3
    weight_filler {
      type: "xavier"
    }
    bias_filler {
      type: "constant"
      value: 0
    }
  }
}
layer {
  name: "relu2_1"
  type: "ReLU"
  bottom: "conv2_1"
  top: "conv2_1"
}
layer {
  name: "conv2_2"
  type: "Convolution"
  bottom: "conv2_1"
  top: "conv2_2"
  param {
    lr_mult: 0
    decay_mult: 0
  }
  param {
    lr_mult: 0
    decay_mult: 0
  }
  convolution_param {
    num_output: 128
    pad: 1
    kernel_size: 3
    weight_filler {
      type: "xavier"
    }
    bias_filler {
      type: "constant"
      value: 0
    }
  }
}
layer {
  name: "relu2_2"
  type: "ReLU"
  bottom: "conv2_2"
  top: "conv2_2"
}
layer {
  name: "pool2"
  type: "Pooling"
  bottom: "conv2_2"
  top: "pool2"
  pooling_param {
    pool: MAX
    kernel_size: 2
    stride: 2
  }
}
layer {
  name: "conv3_1"
  type: "Convolution"
  bottom: "pool2"
  top: "conv3_1"
  param {
    lr_mult: 1
    decay_mult: 1
  }
  param {
    lr_mult: 2
    decay_mult: 0
  }
  convolution_param {
    num_output: 256
    pad: 1
    kernel_size: 3
    weight_filler {
      type: "xavier"
    }
    bias_filler {
      type: "constant"
      value: 0
    }
  }
}
layer {
  name: "relu3_1"
  type: "ReLU"
  bottom: "conv3_1"
  top: "conv3_1"
}
layer {
  name: "conv3_2"
  type: "Convolution"
  bottom: "conv3_1"
  top: "conv3_2"
  param {
    lr_mult: 1
    decay_mult: 1
  }
  param {
    lr_mult: 2
    decay_mult: 0
  }
  convolution_param {
    num_output: 256
    pad: 1
    kernel_size: 3
    weight_filler {
      type: "xavier"
    }
    bias_filler {
      type: "constant"
      value: 0
    }
  }
}
layer {
  name: "relu3_2"
  type: "ReLU"
  bottom: "conv3_2"
  top: "conv3_2"
}
layer {
  name: "conv3_3"
  type: "Convolution"
  bottom: "conv3_2"
  top: "conv3_3"
  param {
    lr_mult: 1
    decay_mult: 1
  }
  param {
    lr_mult: 2
    decay_mult: 0
  }
  convolution_param {
    num_output: 256
    pad: 1
    kernel_size: 3
    weight_filler {
      type: "xavier"
    }
    bias_filler {
      type: "constant"
      value: 0
    }
  }
}
layer {
  name: "relu3_3"
  type: "ReLU"
  bottom: "conv3_3"
  top: "conv3_3"
}
layer {
  name: "pool3"
  type: "Pooling"
  bottom: "conv3_3"
  top: "pool3"
  pooling_param {
    pool: MAX
    kernel_size: 2
    stride: 2
  }
}
layer {
  name: "conv4_1"
  type: "Convolution"
  bottom: "pool3"
  top: "conv4_1"
  param {
    lr_mult: 1
    decay_mult: 1
  }
  param {
    lr_mult: 2
    decay_mult: 0
  }
  convolution_param {
    num_output: 512
    pad: 1
    kernel_size: 3
    weight_filler {
      type: "xavier"
    }
    bias_filler {
      type: "constant"
      value: 0
    }
  }
}
layer {
  name: "relu4_1"
  type: "ReLU"
  bottom: "conv4_1"
  top: "conv4_1"
}
layer {
  name: "conv4_2"
  type: "Convolution"
  bottom: "conv4_1"
  top: "conv4_2"
  param {
    lr_mult: 1
    decay_mult: 1
  }
  param {
    lr_mult: 2
    decay_mult: 0
  }
  convolution_param {
    num_output: 512
    pad: 1
    kernel_size: 3
    weight_filler {
      type: "xavier"
    }
    bias_filler {
      type: "constant"
      value: 0
    }
  }
}
layer {
  name: "relu4_2"
  type: "ReLU"
  bottom: "conv4_2"
  top: "conv4_2"
}
layer {
  name: "conv4_3"
  type: "Convolution"
  bottom: "conv4_2"
  top: "conv4_3"
  param {
    lr_mult: 1
    decay_mult: 1
  }
  param {
    lr_mult: 2
    decay_mult: 0
  }
  convolution_param {
    num_output: 512
    pad: 1
    kernel_size: 3
    weight_filler {
      type: "xavier"
    }
    bias_filler {
      type: "constant"
      value: 0
    }
  }
}
layer {
  name: "relu4_3"
  type: "ReLU"
  bottom: "conv4_3"
  top: "conv4_3"
}
layer {
  name: "pool4"
  type: "Pooling"
  bottom: "conv4_3"
  top: "pool4"
  pooling_param {
    pool: MAX
    kernel_size: 2
    stride: 2
  }
}
layer {
  name: "conv5_1"
  type: "Convolution"
  bottom: "pool4"
  top: "conv5_1"
  param {
    lr_mult: 1
    decay_mult: 1
  }
  param {
    lr_mult: 2
    decay_mult: 0
  }
  convolution_param {
    num_output: 512
    pad: 1
    kernel_size: 3
    weight_filler {
      type: "xavier"
    }
    bias_filler {
      type: "constant"
      value: 0
    }
  }
}
layer {
  name: "relu5_1"
  type: "ReLU"
  bottom: "conv5_1"
  top: "conv5_1"
}
layer {
  name: "conv5_2"
  type: "Convolution"
  bottom: "conv5_1"
  top: "conv5_2"
  param {
    lr_mult: 1
    decay_mult: 1
  }
  param {
    lr_mult: 2
    decay_mult: 0
  }
  convolution_param {
    num_output: 512
    pad: 1
    kernel_size: 3
    weight_filler {
      type: "xavier"
    }
    bias_filler {
      type: "constant"
      value: 0
    }
  }
}
layer {
  name: "relu5_2"
  type: "ReLU"
  bottom: "conv5_2"
  top: "conv5_2"
}
layer {
  name: "conv5_3"
  type: "Convolution"
  bottom: "conv5_2"
  top: "conv5_3"
  param {
    lr_mult: 1
    decay_mult: 1
  }
  param {
    lr_mult: 2
    decay_mult: 0
  }
  convolution_param {
    num_output: 512
    pad: 1
    kernel_size: 3
    weight_filler {
      type: "xavier"
    }
    bias_filler {
      type: "constant"
      value: 0
    }
  }
}
layer {
  name: "relu5_3"
  type: "ReLU"
  bottom: "conv5_3"
  top: "conv5_3"
}
layer {
  name: "pool5"
  type: "Pooling"
  bottom: "conv5_3"
  top: "pool5"
  pooling_param {
    pool: MAX
    kernel_size: 3
    stride: 1
    pad: 1
  }
}
layer {
  name: "fc6"
  type: "Convolution"
  bottom: "pool5"
  top: "fc6"
  param {
    lr_mult: 1
    decay_mult: 1
  }
  param {
    lr_mult: 2
    decay_mult: 0
  }
  convolution_param {
    num_output: 1024
    pad: 6
    kernel_size: 3
    weight_filler {
      type: "xavier"
    }
    bias_filler {
      type: "constant"
      value: 0
    }
    dilation: 6
  }
}
layer {
  name: "relu6"
  type: "ReLU"
  bottom: "fc6"
  top: "fc6"
}
layer {
  name: "fc7"
  type: "Convolution"
  bottom: "fc6"
  top: "fc7"
  param {
    lr_mult: 1
    decay_mult: 1
  }
  param {
    lr_mult: 2
    decay_mult: 0
  }
  convolution_param {
    num_output: 1024
    kernel_size: 1
    weight_filler {
      type: "xavier"
    }
    bias_filler {
      type: "constant"
      value: 0
    }
  }
}
layer {
  name: "relu7"
  type: "ReLU"
  bottom: "fc7"
  top: "fc7"
}
layer {
  name: "conv6_1"
  type: "Convolution"
  bottom: "fc7"
  top: "conv6_1"
  param {
    lr_mult: 1
    decay_mult: 1
  }
  convolution_param {
    num_output: 16
    bias_term: false
    pad: 0
    kernel_size: 3
    stride: 1
    weight_filler {
      type: "gaussian"
      std: 0.01
    }
  }
}
layer {
  name: "conv6_1_bn"
  type: "BatchNorm"
  bottom: "conv6_1"
  top: "conv6_1"
  param {
    lr_mult: 0
    decay_mult: 0
  }
  param {
    lr_mult: 0
    decay_mult: 0
  }
  param {
    lr_mult: 0
    decay_mult: 0
  }
  batch_norm_param {
    eps: 0.001
  }
}
layer {
  name: "conv6_1_scale"
  type: "Scale"
  bottom: "conv6_1"
  top: "conv6_1"
  param {
    lr_mult: 1
    decay_mult: 0
  }
  param {
    lr_mult: 1
    decay_mult: 0
  }
  scale_param {
    filler {
      type: "constant"
      value: 1
    }
    bias_term: true
    bias_filler {
      type: "constant"
      value: 0
    }
  }
}
layer {
  name: "conv6_1_relu"
  type: "ReLU"
  bottom: "conv6_1"
  top: "conv6_1"
}
layer {
  name: "pool6"
  type: "Pooling"
  bottom: "conv6_1"
  top: "pool6"
  pooling_param {
    pool: MAX
    kernel_size: 2
    stride: 1
  }
}
layer {
  name: "conv7_1"
  type: "Convolution"
  bottom: "pool6"
  top: "conv7_1"
  param {
    lr_mult: 1
    decay_mult: 1
  }
  convolution_param {
    num_output: 32
    bias_term: false
    pad: 0
    kernel_size: 3
    stride: 1
    weight_filler {
      type: "gaussian"
      std: 0.01
    }
  }
}
layer {
  name: "conv7_1_bn"
  type: "BatchNorm"
  bottom: "conv7_1"
  top: "conv7_1"
  param {
    lr_mult: 0
    decay_mult: 0
  }
  param {
    lr_mult: 0
    decay_mult: 0
  }
  param {
    lr_mult: 0
    decay_mult: 0
  }
  batch_norm_param {
    eps: 0.001
  }
}
layer {
  name: "conv7_1_scale"
  type: "Scale"
  bottom: "conv7_1"
  top: "conv7_1"
  param {
    lr_mult: 1
    decay_mult: 0
  }
  param {
    lr_mult: 1
    decay_mult: 0
  }
  scale_param {
    filler {
      type: "constant"
      value: 1
    }
    bias_term: true
    bias_filler {
      type: "constant"
      value: 0
    }
  }
}
layer {
  name: "conv7_1_relu"
  type: "ReLU"
  bottom: "conv7_1"
  top: "conv7_1"
}
layer {
  name: "pool7"
  type: "Pooling"
  bottom: "conv7_1"
  top: "pool7"
  pooling_param {
    pool: MAX
    kernel_size: 2
    stride: 1
  }
}
layer {
  name: "conv8_1"
  type: "Convolution"
  bottom: "pool7"
  top: "conv8_1"
  param {
    lr_mult: 1
    decay_mult: 1
  }
  convolution_param {
    num_output: 64
    bias_term: false
    pad: 0
    kernel_size: 3
    stride: 1
    weight_filler {
      type: "gaussian"
      std: 0.01
    }
  }
}
layer {
  name: "conv8_1_bn"
  type: "BatchNorm"
  bottom: "conv8_1"
  top: "conv8_1"
  param {
    lr_mult: 0
    decay_mult: 0
  }
  param {
    lr_mult: 0
    decay_mult: 0
  }
  param {
    lr_mult: 0
    decay_mult: 0
  }
  batch_norm_param {
    eps: 0.001
  }
}
layer {
  name: "conv8_1_scale"
  type: "Scale"
  bottom: "conv8_1"
  top: "conv8_1"
  param {
    lr_mult: 1
    decay_mult: 0
  }
  param {
    lr_mult: 1
    decay_mult: 0
  }
  scale_param {
    filler {
      type: "constant"
      value: 1
    }
    bias_term: true
    bias_filler {
      type: "constant"
      value: 0
    }
  }
}
layer {
  name: "conv8_1_relu"
  type: "ReLU"
  bottom: "conv8_1"
  top: "conv8_1"
}
layer {
  name: "pool8"
  type: "Pooling"
  bottom: "conv8_1"
  top: "pool8"
  pooling_param {
    pool: MAX
    kernel_size: 2
    stride: 1
  }
}
layer {
  name: "conv9_1"
  type: "Convolution"
  bottom: "pool8"
  top: "conv9_1"
  param {
    lr_mult: 1
    decay_mult: 1
  }
  convolution_param {
    num_output: 128
    bias_term: false
    pad: 0
    kernel_size: 3
    stride: 1
    weight_filler {
      type: "gaussian"
      std: 0.01
    }
  }
}
layer {
  name: "conv9_1_bn"
  type: "BatchNorm"
  bottom: "conv9_1"
  top: "conv9_1"
  param {
    lr_mult: 0
    decay_mult: 0
  }
  param {
    lr_mult: 0
    decay_mult: 0
  }
  param {
    lr_mult: 0
    decay_mult: 0
  }
  batch_norm_param {
    eps: 0.001
  }
}
layer {
  name: "conv9_1_scale"
  type: "Scale"
  bottom: "conv9_1"
  top: "conv9_1"
  param {
    lr_mult: 1
    decay_mult: 0
  }
  param {
    lr_mult: 1
    decay_mult: 0
  }
  scale_param {
    filler {
      type: "constant"
      value: 1
    }
    bias_term: true
    bias_filler {
      type: "constant"
      value: 0
    }
  }
}
layer {
  name: "conv9_1_relu"
  type: "ReLU"
  bottom: "conv9_1"
  top: "conv9_1"
}
layer {
  name: "pool9"
  type: "Pooling"
  bottom: "conv9_1"
  top: "pool9"
  pooling_param {
    pool: MAX
    kernel_size: 2
    stride: 1
  }
}
layer {
  name: "conv10_1"
  type: "Convolution"
  bottom: "pool9"
  top: "conv10_1"
  param {
    lr_mult: 1
    decay_mult: 1
  }
  convolution_param {
    num_output: 256
    bias_term: false
    pad: 0
    kernel_size: 3
    stride: 1
    weight_filler {
      type: "gaussian"
      std: 0.01
    }
  }
}
layer {
  name: "conv10_1_bn"
  type: "BatchNorm"
  bottom: "conv10_1"
  top: "conv10_1"
  param {
    lr_mult: 0
    decay_mult: 0
  }
  param {
    lr_mult: 0
    decay_mult: 0
  }
  param {
    lr_mult: 0
    decay_mult: 0
  }
  batch_norm_param {
    eps: 0.001
  }
}
layer {
  name: "conv10_1_scale"
  type: "Scale"
  bottom: "conv10_1"
  top: "conv10_1"
  param {
    lr_mult: 1
    decay_mult: 0
  }
  param {
    lr_mult: 1
    decay_mult: 0
  }
  scale_param {
    filler {
      type: "constant"
      value: 1
    }
    bias_term: true
    bias_filler {
      type: "constant"
      value: 0
    }
  }
}
layer {
  name: "conv10_1_relu"
  type: "ReLU"
  bottom: "conv10_1"
  top: "conv10_1"
}
layer {
  name: "pool10"
  type: "Pooling"
  bottom: "conv10_1"
  top: "pool10"
  pooling_param {
    pool: MAX
    kernel_size: 2
    stride: 1
  }
}
layer {
  name: "conv11_1"
  type: "Convolution"
  bottom: "pool10"
  top: "conv11_1"
  param {
    lr_mult: 1
    decay_mult: 1
  }
  convolution_param {
    num_output: 512
    bias_term: false
    pad: 0
    kernel_size: 3
    stride: 1
    weight_filler {
      type: "gaussian"
      std: 0.01
    }
  }
}
layer {
  name: "conv11_1_bn"
  type: "BatchNorm"
  bottom: "conv11_1"
  top: "conv11_1"
  param {
    lr_mult: 0
    decay_mult: 0
  }
  param {
    lr_mult: 0
    decay_mult: 0
  }
  param {
    lr_mult: 0
    decay_mult: 0
  }
  batch_norm_param {
    eps: 0.001
  }
}
layer {
  name: "conv11_1_scale"
  type: "Scale"
  bottom: "conv11_1"
  top: "conv11_1"
  param {
    lr_mult: 1
    decay_mult: 0
  }
  param {
    lr_mult: 1
    decay_mult: 0
  }
  scale_param {
    filler {
      type: "constant"
      value: 1
    }
    bias_term: true
    bias_filler {
      type: "constant"
      value: 0
    }
  }
}
layer {
  name: "conv11_1_relu"
  type: "ReLU"
  bottom: "conv11_1"
  top: "conv11_1"
}
layer {
  name: "pool11"
  type: "Pooling"
  bottom: "conv11_1"
  top: "pool11"
  pooling_param {
    pool: MAX
    kernel_size: 2
    stride: 1
  }
}
layer {
  name: "conv4_3_norm"
  type: "Normalize"
  bottom: "conv4_3"
  top: "conv4_3_norm"
  norm_param {
    across_spatial: false
    scale_filler {
      type: "constant"
      value: 20
    }
    channel_shared: false
  }
}
layer {
  name: "conv4_3_norm_mbox_loc"
  type: "Convolution"
  bottom: "conv4_3_norm"
  top: "conv4_3_norm_mbox_loc"
  param {
    lr_mult: 1
    decay_mult: 1
  }
  convolution_param {
    num_output: 48
    bias_term: false
    weight_filler {
      type: "gaussian"
      std: 0.01
    }
    pad_h: 0
    pad_w: 2
    kernel_h: 1
    kernel_w: 5
    stride_h: 1
    stride_w: 1
  }
}
layer {
  name: "conv4_3_norm_mbox_loc_bn"
  type: "BatchNorm"
  bottom: "conv4_3_norm_mbox_loc"
  top: "conv4_3_norm_mbox_loc"
  param {
    lr_mult: 0
    decay_mult: 0
  }
  param {
    lr_mult: 0
    decay_mult: 0
  }
  param {
    lr_mult: 0
    decay_mult: 0
  }
  batch_norm_param {
    eps: 0.001
  }
}
layer {
  name: "conv4_3_norm_mbox_loc_scale"
  type: "Scale"
  bottom: "conv4_3_norm_mbox_loc"
  top: "conv4_3_norm_mbox_loc"
  param {
    lr_mult: 1
    decay_mult: 0
  }
  param {
    lr_mult: 1
    decay_mult: 0
  }
  scale_param {
    filler {
      type: "constant"
      value: 1
    }
    bias_term: true
    bias_filler {
      type: "constant"
      value: 0
    }
  }
}
layer {
  name: "conv4_3_norm_mbox_loc_perm"
  type: "Permute"
  bottom: "conv4_3_norm_mbox_loc"
  top: "conv4_3_norm_mbox_loc_perm"
  permute_param {
    order: 0
    order: 2
    order: 3
    order: 1
  }
}
layer {
  name: "conv4_3_norm_mbox_loc_flat"
  type: "Flatten"
  bottom: "conv4_3_norm_mbox_loc_perm"
  top: "conv4_3_norm_mbox_loc_flat"
  flatten_param {
    axis: 1
  }
}
layer {
  name: "conv4_3_norm_mbox_conf"
  type: "Convolution"
  bottom: "conv4_3_norm"
  top: "conv4_3_norm_mbox_conf"
  param {
    lr_mult: 1
    decay_mult: 1
  }
  convolution_param {
    num_output: 24
    bias_term: false
    weight_filler {
      type: "gaussian"
      std: 0.01
    }
    pad_h: 0
    pad_w: 2
    kernel_h: 1
    kernel_w: 5
    stride_h: 1
    stride_w: 1
  }
}
layer {
  name: "conv4_3_norm_mbox_conf_bn"
  type: "BatchNorm"
  bottom: "conv4_3_norm_mbox_conf"
  top: "conv4_3_norm_mbox_conf"
  param {
    lr_mult: 0
    decay_mult: 0
  }
  param {
    lr_mult: 0
    decay_mult: 0
  }
  param {
    lr_mult: 0
    decay_mult: 0
  }
  batch_norm_param {
    eps: 0.001
  }
}
layer {
  name: "conv4_3_norm_mbox_conf_scale"
  type: "Scale"
  bottom: "conv4_3_norm_mbox_conf"
  top: "conv4_3_norm_mbox_conf"
  param {
    lr_mult: 1
    decay_mult: 0
  }
  param {
    lr_mult: 1
    decay_mult: 0
  }
  scale_param {
    filler {
      type: "constant"
      value: 1
    }
    bias_term: true
    bias_filler {
      type: "constant"
      value: 0
    }
  }
}
layer {
  name: "conv4_3_norm_mbox_conf_perm"
  type: "Permute"
  bottom: "conv4_3_norm_mbox_conf"
  top: "conv4_3_norm_mbox_conf_perm"
  permute_param {
    order: 0
    order: 2
    order: 3
    order: 1
  }
}
layer {
  name: "conv4_3_norm_mbox_conf_flat"
  type: "Flatten"
  bottom: "conv4_3_norm_mbox_conf_perm"
  top: "conv4_3_norm_mbox_conf_flat"
  flatten_param {
    axis: 1
  }
}
layer {
  name: "conv4_3_norm_mbox_priorbox"
  type: "PriorBox"
  bottom: "conv4_3_norm"
  bottom: "data"
  top: "conv4_3_norm_mbox_priorbox"
  prior_box_param {
    min_size: 30
    aspect_ratio: 2
    aspect_ratio: 3
    aspect_ratio: 5
    aspect_ratio: 7
    aspect_ratio: 10
    flip: false
    clip: true
    variance: 0.1
    variance: 0.1
    variance: 0.2
    variance: 0.2
  }
}
layer {
  name: "fc7_mbox_loc"
  type: "Convolution"
  bottom: "fc7"
  top: "fc7_mbox_loc"
  param {
    lr_mult: 1
    decay_mult: 1
  }
  convolution_param {
    num_output: 56
    bias_term: false
    weight_filler {
      type: "gaussian"
      std: 0.01
    }
    pad_h: 0
    pad_w: 2
    kernel_h: 1
    kernel_w: 5
    stride_h: 1
    stride_w: 1
  }
}
layer {
  name: "fc7_mbox_loc_bn"
  type: "BatchNorm"
  bottom: "fc7_mbox_loc"
  top: "fc7_mbox_loc"
  param {
    lr_mult: 0
    decay_mult: 0
  }
  param {
    lr_mult: 0
    decay_mult: 0
  }
  param {
    lr_mult: 0
    decay_mult: 0
  }
  batch_norm_param {
    eps: 0.001
  }
}
layer {
  name: "fc7_mbox_loc_scale"
  type: "Scale"
  bottom: "fc7_mbox_loc"
  top: "fc7_mbox_loc"
  param {
    lr_mult: 1
    decay_mult: 0
  }
  param {
    lr_mult: 1
    decay_mult: 0
  }
  scale_param {
    filler {
      type: "constant"
      value: 1
    }
    bias_term: true
    bias_filler {
      type: "constant"
      value: 0
    }
  }
}
layer {
  name: "fc7_mbox_loc_perm"
  type: "Permute"
  bottom: "fc7_mbox_loc"
  top: "fc7_mbox_loc_perm"
  permute_param {
    order: 0
    order: 2
    order: 3
    order: 1
  }
}
layer {
  name: "fc7_mbox_loc_flat"
  type: "Flatten"
  bottom: "fc7_mbox_loc_perm"
  top: "fc7_mbox_loc_flat"
  flatten_param {
    axis: 1
  }
}
layer {
  name: "fc7_mbox_conf"
  type: "Convolution"
  bottom: "fc7"
  top: "fc7_mbox_conf"
  param {
    lr_mult: 1
    decay_mult: 1
  }
  convolution_param {
    num_output: 28
    bias_term: false
    weight_filler {
      type: "gaussian"
      std: 0.01
    }
    pad_h: 0
    pad_w: 2
    kernel_h: 1
    kernel_w: 5
    stride_h: 1
    stride_w: 1
  }
}
layer {
  name: "fc7_mbox_conf_bn"
  type: "BatchNorm"
  bottom: "fc7_mbox_conf"
  top: "fc7_mbox_conf"
  param {
    lr_mult: 0
    decay_mult: 0
  }
  param {
    lr_mult: 0
    decay_mult: 0
  }
  param {
    lr_mult: 0
    decay_mult: 0
  }
  batch_norm_param {
    eps: 0.001
  }
}
layer {
  name: "fc7_mbox_conf_scale"
  type: "Scale"
  bottom: "fc7_mbox_conf"
  top: "fc7_mbox_conf"
  param {
    lr_mult: 1
    decay_mult: 0
  }
  param {
    lr_mult: 1
    decay_mult: 0
  }
  scale_param {
    filler {
      type: "constant"
      value: 1
    }
    bias_term: true
    bias_filler {
      type: "constant"
      value: 0
    }
  }
}
layer {
  name: "fc7_mbox_conf_perm"
  type: "Permute"
  bottom: "fc7_mbox_conf"
  top: "fc7_mbox_conf_perm"
  permute_param {
    order: 0
    order: 2
    order: 3
    order: 1
  }
}
layer {
  name: "fc7_mbox_conf_flat"
  type: "Flatten"
  bottom: "fc7_mbox_conf_perm"
  top: "fc7_mbox_conf_flat"
  flatten_param {
    axis: 1
  }
}
layer {
  name: "fc7_mbox_priorbox"
  type: "PriorBox"
  bottom: "fc7"
  bottom: "data"
  top: "fc7_mbox_priorbox"
  prior_box_param {
    min_size: 60
    max_size: 78
    aspect_ratio: 2
    aspect_ratio: 3
    aspect_ratio: 5
    aspect_ratio: 7
    aspect_ratio: 10
    flip: false
    clip: true
    variance: 0.1
    variance: 0.1
    variance: 0.2
    variance: 0.2
  }
}
layer {
  name: "conv6_1_mbox_loc"
  type: "Convolution"
  bottom: "conv6_1"
  top: "conv6_1_mbox_loc"
  param {
    lr_mult: 1
    decay_mult: 1
  }
  convolution_param {
    num_output: 56
    bias_term: false
    weight_filler {
      type: "gaussian"
      std: 0.01
    }
    pad_h: 0
    pad_w: 2
    kernel_h: 1
    kernel_w: 5
    stride_h: 1
    stride_w: 1
  }
}
layer {
  name: "conv6_1_mbox_loc_bn"
  type: "BatchNorm"
  bottom: "conv6_1_mbox_loc"
  top: "conv6_1_mbox_loc"
  param {
    lr_mult: 0
    decay_mult: 0
  }
  param {
    lr_mult: 0
    decay_mult: 0
  }
  param {
    lr_mult: 0
    decay_mult: 0
  }
  batch_norm_param {
    eps: 0.001
  }
}
layer {
  name: "conv6_1_mbox_loc_scale"
  type: "Scale"
  bottom: "conv6_1_mbox_loc"
  top: "conv6_1_mbox_loc"
  param {
    lr_mult: 1
    decay_mult: 0
  }
  param {
    lr_mult: 1
    decay_mult: 0
  }
  scale_param {
    filler {
      type: "constant"
      value: 1
    }
    bias_term: true
    bias_filler {
      type: "constant"
      value: 0
    }
  }
}
layer {
  name: "conv6_1_mbox_loc_perm"
  type: "Permute"
  bottom: "conv6_1_mbox_loc"
  top: "conv6_1_mbox_loc_perm"
  permute_param {
    order: 0
    order: 2
    order: 3
    order: 1
  }
}
layer {
  name: "conv6_1_mbox_loc_flat"
  type: "Flatten"
  bottom: "conv6_1_mbox_loc_perm"
  top: "conv6_1_mbox_loc_flat"
  flatten_param {
    axis: 1
  }
}
layer {
  name: "conv6_1_mbox_conf"
  type: "Convolution"
  bottom: "conv6_1"
  top: "conv6_1_mbox_conf"
  param {
    lr_mult: 1
    decay_mult: 1
  }
  convolution_param {
    num_output: 28
    bias_term: false
    weight_filler {
      type: "gaussian"
      std: 0.01
    }
    pad_h: 0
    pad_w: 2
    kernel_h: 1
    kernel_w: 5
    stride_h: 1
    stride_w: 1
  }
}
layer {
  name: "conv6_1_mbox_conf_bn"
  type: "BatchNorm"
  bottom: "conv6_1_mbox_conf"
  top: "conv6_1_mbox_conf"
  param {
    lr_mult: 0
    decay_mult: 0
  }
  param {
    lr_mult: 0
    decay_mult: 0
  }
  param {
    lr_mult: 0
    decay_mult: 0
  }
  batch_norm_param {
    eps: 0.001
  }
}
layer {
  name: "conv6_1_mbox_conf_scale"
  type: "Scale"
  bottom: "conv6_1_mbox_conf"
  top: "conv6_1_mbox_conf"
  param {
    lr_mult: 1
    decay_mult: 0
  }
  param {
    lr_mult: 1
    decay_mult: 0
  }
  scale_param {
    filler {
      type: "constant"
      value: 1
    }
    bias_term: true
    bias_filler {
      type: "constant"
      value: 0
    }
  }
}
layer {
  name: "conv6_1_mbox_conf_perm"
  type: "Permute"
  bottom: "conv6_1_mbox_conf"
  top: "conv6_1_mbox_conf_perm"
  permute_param {
    order: 0
    order: 2
    order: 3
    order: 1
  }
}
layer {
  name: "conv6_1_mbox_conf_flat"
  type: "Flatten"
  bottom: "conv6_1_mbox_conf_perm"
  top: "conv6_1_mbox_conf_flat"
  flatten_param {
    axis: 1
  }
}
layer {
  name: "conv6_1_mbox_priorbox"
  type: "PriorBox"
  bottom: "conv6_1"
  bottom: "data"
  top: "conv6_1_mbox_priorbox"
  prior_box_param {
    min_size: 78
    max_size: 96
    aspect_ratio: 2
    aspect_ratio: 3
    aspect_ratio: 5
    aspect_ratio: 7
    aspect_ratio: 10
    flip: false
    clip: true
    variance: 0.1
    variance: 0.1
    variance: 0.2
    variance: 0.2
  }
}
layer {
  name: "pool6_mbox_loc"
  type: "Convolution"
  bottom: "pool6"
  top: "pool6_mbox_loc"
  param {
    lr_mult: 1
    decay_mult: 1
  }
  convolution_param {
    num_output: 56
    bias_term: false
    weight_filler {
      type: "gaussian"
      std: 0.01
    }
    pad_h: 0
    pad_w: 2
    kernel_h: 1
    kernel_w: 5
    stride_h: 1
    stride_w: 1
  }
}
layer {
  name: "pool6_mbox_loc_bn"
  type: "BatchNorm"
  bottom: "pool6_mbox_loc"
  top: "pool6_mbox_loc"
  param {
    lr_mult: 0
    decay_mult: 0
  }
  param {
    lr_mult: 0
    decay_mult: 0
  }
  param {
    lr_mult: 0
    decay_mult: 0
  }
  batch_norm_param {
    eps: 0.001
  }
}
layer {
  name: "pool6_mbox_loc_scale"
  type: "Scale"
  bottom: "pool6_mbox_loc"
  top: "pool6_mbox_loc"
  param {
    lr_mult: 1
    decay_mult: 0
  }
  param {
    lr_mult: 1
    decay_mult: 0
  }
  scale_param {
    filler {
      type: "constant"
      value: 1
    }
    bias_term: true
    bias_filler {
      type: "constant"
      value: 0
    }
  }
}
layer {
  name: "pool6_mbox_loc_perm"
  type: "Permute"
  bottom: "pool6_mbox_loc"
  top: "pool6_mbox_loc_perm"
  permute_param {
    order: 0
    order: 2
    order: 3
    order: 1
  }
}
layer {
  name: "pool6_mbox_loc_flat"
  type: "Flatten"
  bottom: "pool6_mbox_loc_perm"
  top: "pool6_mbox_loc_flat"
  flatten_param {
    axis: 1
  }
}
layer {
  name: "pool6_mbox_conf"
  type: "Convolution"
  bottom: "pool6"
  top: "pool6_mbox_conf"
  param {
    lr_mult: 1
    decay_mult: 1
  }
  convolution_param {
    num_output: 28
    bias_term: false
    weight_filler {
      type: "gaussian"
      std: 0.01
    }
    pad_h: 0
    pad_w: 2
    kernel_h: 1
    kernel_w: 5
    stride_h: 1
    stride_w: 1
  }
}
layer {
  name: "pool6_mbox_conf_bn"
  type: "BatchNorm"
  bottom: "pool6_mbox_conf"
  top: "pool6_mbox_conf"
  param {
    lr_mult: 0
    decay_mult: 0
  }
  param {
    lr_mult: 0
    decay_mult: 0
  }
  param {
    lr_mult: 0
    decay_mult: 0
  }
  batch_norm_param {
    eps: 0.001
  }
}
layer {
  name: "pool6_mbox_conf_scale"
  type: "Scale"
  bottom: "pool6_mbox_conf"
  top: "pool6_mbox_conf"
  param {
    lr_mult: 1
    decay_mult: 0
  }
  param {
    lr_mult: 1
    decay_mult: 0
  }
  scale_param {
    filler {
      type: "constant"
      value: 1
    }
    bias_term: true
    bias_filler {
      type: "constant"
      value: 0
    }
  }
}
layer {
  name: "pool6_mbox_conf_perm"
  type: "Permute"
  bottom: "pool6_mbox_conf"
  top: "pool6_mbox_conf_perm"
  permute_param {
    order: 0
    order: 2
    order: 3
    order: 1
  }
}
layer {
  name: "pool6_mbox_conf_flat"
  type: "Flatten"
  bottom: "pool6_mbox_conf_perm"
  top: "pool6_mbox_conf_flat"
  flatten_param {
    axis: 1
  }
}
layer {
  name: "pool6_mbox_priorbox"
  type: "PriorBox"
  bottom: "pool6"
  bottom: "data"
  top: "pool6_mbox_priorbox"
  prior_box_param {
    min_size: 96
    max_size: 114
    aspect_ratio: 2
    aspect_ratio: 3
    aspect_ratio: 5
    aspect_ratio: 7
    aspect_ratio: 10
    flip: false
    clip: true
    variance: 0.1
    variance: 0.1
    variance: 0.2
    variance: 0.2
  }
}
layer {
  name: "conv7_1_mbox_loc"
  type: "Convolution"
  bottom: "conv7_1"
  top: "conv7_1_mbox_loc"
  param {
    lr_mult: 1
    decay_mult: 1
  }
  convolution_param {
    num_output: 56
    bias_term: false
    weight_filler {
      type: "gau
I0701 07:38:21.694051 11430 layer_factory.hpp:77] Creating layer data
I0701 07:38:21.694315 11430 net.cpp:100] Creating Layer data
I0701 07:38:21.694327 11430 net.cpp:408] data -> data
I0701 07:38:21.694427 11430 net.cpp:408] data -> label
I0701 07:38:21.695093 11443 db_lmdb.cpp:35] Opened lmdb /home/sweekar/SDN_main/data/lmdb/lmdb/text_train_lmdb
I0701 07:38:21.847359 11430 annotated_data_layer.cpp:52] output data size: 5,3,300,300
I0701 07:38:21.856386 11430 net.cpp:150] Setting up data
I0701 07:38:21.856402 11430 net.cpp:157] Top shape: 5 3 300 300 (1350000)
I0701 07:38:21.856412 11430 net.cpp:157] Top shape: 1 1 78 8 (624)
I0701 07:38:21.856417 11430 net.cpp:165] Memory required for data: 5402496
I0701 07:38:21.856426 11430 layer_factory.hpp:77] Creating layer data_data_0_split
I0701 07:38:21.856442 11430 net.cpp:100] Creating Layer data_data_0_split
I0701 07:38:21.856473 11430 net.cpp:434] data_data_0_split <- data
I0701 07:38:21.856510 11430 net.cpp:408] data_data_0_split -> data_data_0_split_0
I0701 07:38:21.856537 11430 net.cpp:408] data_data_0_split -> data_data_0_split_1
…
I0701 07:38:21.856607 11430 net.cpp:408] data_data_0_split -> data_data_0_split_9
I0701 07:38:21.856614 11430 net.cpp:408] data_data_0_split -> data_data_0_split_10
I0701 07:38:21.856621 11430 net.cpp:408] data_data_0_split -> data_data_0_split_11
I0701 07:38:21.856647 11430 net.cpp:408] data_data_0_split -> data_data_0_split_12
I0701 07:38:21.856674 11430 net.cpp:408] data_data_0_split -> data_data_0_split_13
I0701 07:38:21.856680 11430 net.cpp:408] data_data_0_split -> data_data_0_split_14
I0701 07:38:21.856896 11430 net.cpp:150] Setting up data_data_0_split
I0701 07:38:21.856906 11430 net.cpp:157] Top shape: 5 3 300 300 (1350000)
I0701 07:38:21.856913 11430 net.cpp:157] Top shape: 5 3 300 300 (1350000)
I0701 07:38:21.856918 11430 net.cpp:157] Top shape: 5 3 300 300 (1350000)
I0701 07:38:21.856923 11430 net.cpp:157] Top shape: 5 3 300 300 (1350000)
I0701 07:38:21.856928 11430 net.cpp:157] Top shape: 5 3 300 300 (1350000)
I0701 07:38:21.856932 11430 net.cpp:157] Top shape: 5 3 300 300 (1350000)
I0701 07:38:21.856937 11430 net.cpp:157] Top shape: 5 3 300 300 (1350000)
I0701 07:38:21.856942 11430 net.cpp:157] Top shape: 5 3 300 300 (1350000)
I0701 07:38:21.856947 11430 net.cpp:157] Top shape: 5 3 300 300 (1350000)
I0701 07:38:21.856952 11430 net.cpp:157] Top shape: 5 3 300 300 (1350000)
I0701 07:38:21.856956 11430 net.cpp:157] Top shape: 5 3 300 300 (1350000)
I0701 07:38:21.856961 11430 net.cpp:157] Top shape: 5 3 300 300 (1350000)
I0701 07:38:21.856966 11430 net.cpp:157] Top shape: 5 3 300 300 (1350000)
I0701 07:38:21.856971 11430 net.cpp:157] Top shape: 5 3 300 300 (1350000)
I0701 07:38:21.856976 11430 net.cpp:157] Top shape: 5 3 300 300 (1350000)
I0701 07:38:21.856981 11430 net.cpp:165] Memory required for data: 86402496
I0701 07:38:21.856985 11430 layer_factory.hpp:77] Creating layer conv1_1
I0701 07:38:21.857000 11430 net.cpp:100] Creating Layer conv1_1
I0701 07:38:21.857007 11430 net.cpp:434] conv1_1 <- data_data_0_split_0
I0701 07:38:21.857012 11430 net.cpp:408] conv1_1 -> conv1_1
I0701 07:38:21.857185 11430 net.cpp:150] Setting up conv1_1
I0701 07:38:21.857192 11430 net.cpp:157] Top shape: 5 64 300 300 (28800000)
I0701 07:38:21.857197 11430 net.cpp:165] Memory required for data: 201602496
I0701 07:38:21.857208 11430 layer_factory.hpp:77] Creating layer relu1_1
I0701 07:38:21.857213 11430 net.cpp:100] Creating Layer relu1_1
I0701 07:38:21.857218 11430 net.cpp:434] relu1_1 <- conv1_1
I0701 07:38:21.857223 11430 net.cpp:395] relu1_1 -> conv1_1 (in-place)
I0701 07:38:21.857230 11430 net.cpp:150] Setting up relu1_1
I0701 07:38:21.857234 11430 net.cpp:157] Top shape: 5 64 300 300 (28800000)
I0701 07:38:21.857239 11430 net.cpp:165] Memory required for data: 316802496
I0701 07:38:21.857244 11430 layer_factory.hpp:77] Creating layer conv1_2
I0701 07:38:21.857250 11430 net.cpp:100] Creating Layer conv1_2
I0701 07:38:21.857255 11430 net.cpp:434] conv1_2 <- conv1_1
I0701 07:38:21.857260 11430 net.cpp:408] conv1_2 -> conv1_2
I0701 07:38:21.857606 11430 net.cpp:150] Setting up conv1_2
I0701 07:38:21.857612 11430 net.cpp:157] Top shape: 5 64 300 300 (28800000)
I0701 07:38:21.857618 11430 net.cpp:165] Memory required for data: 432002496
I0701 07:38:21.857625 11430 layer_factory.hpp:77] Creating layer relu1_2
I0701 07:38:21.857630 11430 net.cpp:100] Creating Layer relu1_2
I0701 07:38:21.857635 11430 net.cpp:434] relu1_2 <- conv1_2
I0701 07:38:21.857640 11430 net.cpp:395] relu1_2 -> conv1_2 (in-place)
I0701 07:38:21.857645 11430 net.cpp:150] Setting up relu1_2
I0701 07:38:21.857650 11430 net.cpp:157] Top shape: 5 64 300 300 (28800000)
I0701 07:38:21.857654 11430 net.cpp:165] Memory required for data: 547202496
I0701 07:38:21.857661 11430 layer_factory.hpp:77] Creating layer pool1
I0701 07:38:21.857672 11430 net.cpp:100] Creating Layer pool1
I0701 07:38:21.857679 11430 net.cpp:434] pool1 <- conv1_2
I0701 07:38:21.857688 11430 net.cpp:408] pool1 -> pool1
I0701 07:38:21.857720 11430 net.cpp:150] Setting up pool1
I0701 07:38:21.857729 11430 net.cpp:157] Top shape: 5 64 150 150 (7200000)
I0701 07:38:21.857738 11430 net.cpp:165] Memory required for data: 576002496
I0701 07:38:21.857744 11430 layer_factory.hpp:77] Creating layer conv2_1
I0701 07:38:21.857753 11430 net.cpp:100] Creating Layer conv2_1
I0701 07:38:21.857760 11430 net.cpp:434] conv2_1 <- pool1
I0701 07:38:21.857808 11430 net.cpp:408] conv2_1 -> conv2_1
I0701 07:38:21.858860 11430 net.cpp:150] Setting up conv2_1
I0701 07:38:21.858867 11430 net.cpp:157] Top shape: 5 128 150 150 (14400000)
I0701 07:38:21.858875 11430 net.cpp:165] Memory required for data: 633602496
I0701 07:38:21.858881 11430 layer_factory.hpp:77] Creating layer relu2_1
I0701 07:38:21.858888 11430 net.cpp:100] Creating Layer relu2_1
I0701 07:38:21.858893 11430 net.cpp:434] relu2_1 <- conv2_1
I0701 07:38:21.858899 11430 net.cpp:395] relu2_1 -> conv2_1 (in-place)
I0701 07:38:21.858906 11430 net.cpp:150] Setting up relu2_1
I0701 07:38:21.858911 11430 net.cpp:157] Top shape: 5 128 150 150 (14400000)
I0701 07:38:21.858934 11430 net.cpp:165] Memory required for data: 691202496
I0701 07:38:21.858938 11430 layer_factory.hpp:77] Creating layer conv2_2
I0701 07:38:21.858963 11430 net.cpp:100] Creating Layer conv2_2
I0701 07:38:21.858974 11430 net.cpp:434] conv2_2 <- conv2_1
I0701 07:38:21.858985 11430 net.cpp:408] conv2_2 -> conv2_2
I0701 07:38:21.859804 11430 net.cpp:150] Setting up conv2_2
I0701 07:38:21.859812 11430 net.cpp:157] Top shape: 5 128 150 150 (14400000)
I0701 07:38:21.859817 11430 net.cpp:165] Memory required for data: 748802496
I0701 07:38:21.859822 11430 layer_factory.hpp:77] Creating layer relu2_2
I0701 07:38:21.859828 11430 net.cpp:100] Creating Layer relu2_2
I0701 07:38:21.859833 11430 net.cpp:434] relu2_2 <- conv2_2
I0701 07:38:21.859838 11430 net.cpp:395] relu2_2 -> conv2_2 (in-place)
I0701 07:38:21.859844 11430 net.cpp:150] Setting up relu2_2
I0701 07:38:21.859848 11430 net.cpp:157] Top shape: 5 128 150 150 (14400000)
I0701 07:38:21.859853 11430 net.cpp:165] Memory required for data: 806402496
I0701 07:38:21.859858 11430 layer_factory.hpp:77] Creating layer pool2
I0701 07:38:21.859863 11430 net.cpp:100] Creating Layer pool2
I0701 07:38:21.859867 11430 net.cpp:434] pool2 <- conv2_2
I0701 07:38:21.859874 11430 net.cpp:408] pool2 -> pool2
I0701 07:38:21.859890 11430 net.cpp:150] Setting up pool2
I0701 07:38:21.859895 11430 net.cpp:157] Top shape: 5 128 75 75 (3600000)
I0701 07:38:21.859900 11430 net.cpp:165] Memory required for data: 820802496
I0701 07:38:21.859905 11430 layer_factory.hpp:77] Creating layer conv3_1
I0701 07:38:21.859911 11430 net.cpp:100] Creating Layer conv3_1
I0701 07:38:21.859915 11430 net.cpp:434] conv3_1 <- pool2
I0701 07:38:21.859921 11430 net.cpp:408] conv3_1 -> conv3_1
I0701 07:38:21.861984 11430 net.cpp:150] Setting up conv3_1
I0701 07:38:21.861994 11430 net.cpp:157] Top shape: 5 256 75 75 (7200000)
I0701 07:38:21.861999 11430 net.cpp:165] Memory required for data: 849602496
I0701 07:38:21.862007 11430 layer_factory.hpp:77] Creating layer relu3_1
I0701 07:38:21.862013 11430 net.cpp:100] Creating Layer relu3_1
I0701 07:38:21.862018 11430 net.cpp:434] relu3_1 <- conv3_1
I0701 07:38:21.862025 11430 net.cpp:395] relu3_1 -> conv3_1 (in-place)
I0701 07:38:21.862030 11430 net.cpp:150] Setting up relu3_1
I0701 07:38:21.862037 11430 net.cpp:157] Top shape: 5 256 75 75 (7200000)
I0701 07:38:21.862042 11430 net.cpp:165] Memory required for data: 878402496
I0701 07:38:21.862046 11430 layer_factory.hpp:77] Creating layer conv3_2
I0701 07:38:21.862053 11430 net.cpp:100] Creating Layer conv3_2
I0701 07:38:21.862058 11430 net.cpp:434] conv3_2 <- conv3_1
I0701 07:38:21.862063 11430 net.cpp:408] conv3_2 -> conv3_2
I0701 07:38:21.866029 11430 net.cpp:150] Setting up conv3_2
I0701 07:38:21.866042 11430 net.cpp:157] Top shape: 5 256 75 75 (7200000)
I0701 07:38:21.866050 11430 net.cpp:165] Memory required for data: 907202496
I0701 07:38:21.866056 11430 layer_factory.hpp:77] Creating layer relu3_2
I0701 07:38:21.866063 11430 net.cpp:100] Creating Layer relu3_2
I0701 07:38:21.866070 11430 net.cpp:434] relu3_2 <- conv3_2
I0701 07:38:21.866075 11430 net.cpp:395] relu3_2 -> conv3_2 (in-place)
I0701 07:38:21.866083 11430 net.cpp:150] Setting up relu3_2
I0701 07:38:21.866087 11430 net.cpp:157] Top shape: 5 256 75 75 (7200000)
I0701 07:38:21.866092 11430 net.cpp:165] Memory required for data: 936002496
I0701 07:38:21.866096 11430 layer_factory.hpp:77] Creating layer conv3_3
I0701 07:38:21.866125 11430 net.cpp:100] Creating Layer conv3_3
I0701 07:38:21.866132 11430 net.cpp:434] conv3_3 <- conv3_2
I0701 07:38:21.866137 11430 net.cpp:408] conv3_3 -> conv3_3
I0701 07:38:21.870116 11430 net.cpp:150] Setting up conv3_3
I0701 07:38:21.870131 11430 net.cpp:157] Top shape: 5 256 75 75 (7200000)
I0701 07:38:21.870138 11430 net.cpp:165] Memory required for data: 964802496
I0701 07:38:21.870146 11430 layer_factory.hpp:77] Creating layer relu3_3
I0701 07:38:21.870153 11430 net.cpp:100] Creating Layer relu3_3
I0701 07:38:21.870158 11430 net.cpp:434] relu3_3 <- conv3_3
I0701 07:38:21.870164 11430 net.cpp:395] relu3_3 -> conv3_3 (in-place)
I0701 07:38:21.870172 11430 net.cpp:150] Setting up relu3_3
I0701 07:38:21.870178 11430 net.cpp:157] Top shape: 5 256 75 75 (7200000)
I0701 07:38:21.870183 11430 net.cpp:165] Memory required for data: 993602496
I0701 07:38:21.870188 11430 layer_factory.hpp:77] Creating layer pool3
I0701 07:38:21.870193 11430 net.cpp:100] Creating Layer pool3
I0701 07:38:21.870198 11430 net.cpp:434] pool3 <- conv3_3
I0701 07:38:21.870203 11430 net.cpp:408] pool3 -> pool3
I0701 07:38:21.870223 11430 net.cpp:150] Setting up pool3
I0701 07:38:21.870229 11430 net.cpp:157] Top shape: 5 256 38 38 (1848320)
I0701 07:38:21.870234 11430 net.cpp:165] Memory required for data: 1000995776
I0701 07:38:21.870239 11430 layer_factory.hpp:77] Creating layer conv4_1
I0701 07:38:21.870245 11430 net.cpp:100] Creating Layer conv4_1
I0701 07:38:21.870250 11430 net.cpp:434] conv4_1 <- pool3
I0701 07:38:21.870255 11430 net.cpp:408] conv4_1 -> conv4_1
I0701 07:38:21.878563 11430 net.cpp:150] Setting up conv4_1
I0701 07:38:21.878579 11430 net.cpp:157] Top shape: 5 512 38 38 (3696640)
I0701 07:38:21.878588 11430 net.cpp:165] Memory required for data: 1015782336
I0701 07:38:21.878595 11430 layer_factory.hpp:77] Creating layer relu4_1
I0701 07:38:21.878604 11430 net.cpp:100] Creating Layer relu4_1
I0701 07:38:21.878610 11430 net.cpp:434] relu4_1 <- conv4_1
I0701 07:38:21.878623 11430 net.cpp:395] relu4_1 -> conv4_1 (in-place)
I0701 07:38:21.878631 11430 net.cpp:150] Setting up relu4_1
I0701 07:38:21.878635 11430 net.cpp:157] Top shape: 5 512 38 38 (3696640)
I0701 07:38:21.878640 11430 net.cpp:165] Memory required for data: 1030568896
I0701 07:38:21.878645 11430 layer_factory.hpp:77] Creating layer conv4_2
I0701 07:38:21.878654 11430 net.cpp:100] Creating Layer conv4_2
I0701 07:38:21.878659 11430 net.cpp:434] conv4_2 <- conv4_1
I0701 07:38:21.878664 11430 net.cpp:408] conv4_2 -> conv4_2
I0701 07:38:21.894239 11430 net.cpp:150] Setting up conv4_2
I0701 07:38:21.894259 11430 net.cpp:157] Top shape: 5 512 38 38 (3696640)
I0701 07:38:21.894268 11430 net.cpp:165] Memory required for data: 1045355456
I0701 07:38:21.894279 11430 layer_factory.hpp:77] Creating layer relu4_2
I0701 07:38:21.894287 11430 net.cpp:100] Creating Layer relu4_2
I0701 07:38:21.894294 11430 net.cpp:434] relu4_2 <- conv4_2
I0701 07:38:21.894301 11430 net.cpp:395] relu4_2 -> conv4_2 (in-place)
I0701 07:38:21.894310 11430 net.cpp:150] Setting up relu4_2
I0701 07:38:21.894315 11430 net.cpp:157] Top shape: 5 512 38 38 (3696640)
I0701 07:38:21.894321 11430 net.cpp:165] Memory required for data: 1060142016
I0701 07:38:21.894326 11430 layer_factory.hpp:77] Creating layer conv4_3
I0701 07:38:21.894335 11430 net.cpp:100] Creating Layer conv4_3
I0701 07:38:21.894341 11430 net.cpp:434] conv4_3 <- conv4_2
I0701 07:38:21.894347 11430 net.cpp:408] conv4_3 -> conv4_3
I0701 07:38:21.916102 11430 net.cpp:150] Setting up conv4_3
I0701 07:38:21.916121 11430 net.cpp:157] Top shape: 5 512 38 38 (3696640)
I0701 07:38:21.916131 11430 net.cpp:165] Memory required for data: 1074928576
I0701 07:38:21.916139 11430 layer_factory.hpp:77] Creating layer relu4_3
I0701 07:38:21.916147 11430 net.cpp:100] Creating Layer relu4_3
I0701 07:38:21.916154 11430 net.cpp:434] relu4_3 <- conv4_3
I0701 07:38:21.916162 11430 net.cpp:395] relu4_3 -> conv4_3 (in-place)
I0701 07:38:21.916170 11430 net.cpp:150] Setting up relu4_3
I0701 07:38:21.916175 11430 net.cpp:157] Top shape: 5 512 38 38 (3696640)
I0701 07:38:21.916204 11430 net.cpp:165] Memory required for data: 1089715136
I0701 07:38:21.916209 11430 layer_factory.hpp:77] Creating layer conv4_3_relu4_3_0_split
I0701 07:38:21.916216 11430 net.cpp:100] Creating Layer conv4_3_relu4_3_0_split
I0701 07:38:21.916221 11430 net.cpp:434] conv4_3_relu4_3_0_split <- conv4_3
I0701 07:38:21.916227 11430 net.cpp:408] conv4_3_relu4_3_0_split -> conv4_3_relu4_3_0_split_0
I0701 07:38:21.916234 11430 net.cpp:408] conv4_3_relu4_3_0_split -> conv4_3_relu4_3_0_split_1
I0701 07:38:21.916261 11430 net.cpp:150] Setting up conv4_3_relu4_3_0_split
I0701 07:38:21.916266 11430 net.cpp:157] Top shape: 5 512 38 38 (3696640)
I0701 07:38:21.916272 11430 net.cpp:157] Top shape: 5 512 38 38 (3696640)
I0701 07:38:21.916280 11430 net.cpp:165] Memory required for data: 1119288256
I0701 07:38:21.916294 11430 layer_factory.hpp:77] Creating layer pool4
I0701 07:38:21.916306 11430 net.cpp:100] Creating Layer pool4
I0701 07:38:21.916316 11430 net.cpp:434] pool4 <- conv4_3_relu4_3_0_split_0
I0701 07:38:21.916327 11430 net.cpp:408] pool4 -> pool4
I0701 07:38:21.916358 11430 net.cpp:150] Setting up pool4
I0701 07:38:21.916366 11430 net.cpp:157] Top shape: 5 512 19 19 (924160)
I0701 07:38:21.916376 11430 net.cpp:165] Memory required for data: 1122984896
I0701 07:38:21.916384 11430 layer_factory.hpp:77] Creating layer conv5_1
I0701 07:38:21.916396 11430 net.cpp:100] Creating Layer conv5_1
I0701 07:38:21.916404 11430 net.cpp:434] conv5_1 <- pool4
I0701 07:38:21.916414 11430 net.cpp:408] conv5_1 -> conv5_1
I0701 07:38:21.933638 11430 net.cpp:150] Setting up conv5_1
I0701 07:38:21.933655 11430 net.cpp:157] Top shape: 5 512 19 19 (924160)
I0701 07:38:21.933665 11430 net.cpp:165] Memory required for data: 1126681536
I0701 07:38:21.933671 11430 layer_factory.hpp:77] Creating layer relu5_1
I0701 07:38:21.933681 11430 net.cpp:100] Creating Layer relu5_1
I0701 07:38:21.933686 11430 net.cpp:434] relu5_1 <- conv5_1
I0701 07:38:21.933693 11430 net.cpp:395] relu5_1 -> conv5_1 (in-place)
I0701 07:38:21.933702 11430 net.cpp:150] Setting up relu5_1
I0701 07:38:21.933707 11430 net.cpp:157] Top shape: 5 512 19 19 (924160)
I0701 07:38:21.933712 11430 net.cpp:165] Memory required for data: 1130378176
I0701 07:38:21.933717 11430 layer_factory.hpp:77] Creating layer conv5_2
I0701 07:38:21.933724 11430 net.cpp:100] Creating Layer conv5_2
I0701 07:38:21.933729 11430 net.cpp:434] conv5_2 <- conv5_1
I0701 07:38:21.933734 11430 net.cpp:408] conv5_2 -> conv5_2
I0701 07:38:21.951027 11430 net.cpp:150] Setting up conv5_2
I0701 07:38:21.951046 11430 net.cpp:157] Top shape: 5 512 19 19 (924160)
I0701 07:38:21.951069 11430 net.cpp:165] Memory required for data: 1134074816
I0701 07:38:21.951077 11430 layer_factory.hpp:77] Creating layer relu5_2
I0701 07:38:21.951086 11430 net.cpp:100] Creating Layer relu5_2
I0701 07:38:21.951092 11430 net.cpp:434] relu5_2 <- conv5_2
I0701 07:38:21.951099 11430 net.cpp:395] relu5_2 -> conv5_2 (in-place)
I0701 07:38:21.951108 11430 net.cpp:150] Setting up relu5_2
I0701 07:38:21.951113 11430 net.cpp:157] Top shape: 5 512 19 19 (924160)
I0701 07:38:21.951118 11430 net.cpp:165] Memory required for data: 1137771456
I0701 07:38:21.951122 11430 layer_factory.hpp:77] Creating layer conv5_3
I0701 07:38:21.951133 11430 net.cpp:100] Creating Layer conv5_3
I0701 07:38:21.951138 11430 net.cpp:434] conv5_3 <- conv5_2
I0701 07:38:21.951143 11430 net.cpp:408] conv5_3 -> conv5_3
I0701 07:38:21.969149 11430 net.cpp:150] Setting up conv5_3
I0701 07:38:21.969167 11430 net.cpp:157] Top shape: 5 512 19 19 (924160)
I0701 07:38:21.969177 11430 net.cpp:165] Memory required for data: 1141468096
I0701 07:38:21.969183 11430 layer_factory.hpp:77] Creating layer relu5_3
I0701 07:38:21.969193 11430 net.cpp:100] Creating Layer relu5_3
I0701 07:38:21.969199 11430 net.cpp:434] relu5_3 <- conv5_3
I0701 07:38:21.969206 11430 net.cpp:395] relu5_3 -> conv5_3 (in-place)
I0701 07:38:21.969215 11430 net.cpp:150] Setting up relu5_3
I0701 07:38:21.969219 11430 net.cpp:157] Top shape: 5 512 19 19 (924160)
I0701 07:38:21.969245 11430 net.cpp:165] Memory required for data: 1145164736
I0701 07:38:21.969271 11430 layer_factory.hpp:77] Creating layer pool5
I0701 07:38:21.969295 11430 net.cpp:100] Creating Layer pool5
I0701 07:38:21.969302 11430 net.cpp:434] pool5 <- conv5_3
I0701 07:38:21.969310 11430 net.cpp:408] pool5 -> pool5
I0701 07:38:21.969336 11430 net.cpp:150] Setting up pool5
I0701 07:38:21.969341 11430 net.cpp:157] Top shape: 5 512 19 19 (924160)
I0701 07:38:21.969347 11430 net.cpp:165] Memory required for data: 1148861376
I0701 07:38:21.969352 11430 layer_factory.hpp:77] Creating layer fc6
I0701 07:38:21.969360 11430 net.cpp:100] Creating Layer fc6
I0701 07:38:21.969381 11430 net.cpp:434] fc6 <- pool5
I0701 07:38:21.969388 11430 net.cpp:408] fc6 -> fc6
I0701 07:38:22.006382 11430 net.cpp:150] Setting up fc6
I0701 07:38:22.006400 11430 net.cpp:157] Top shape: 5 1024 19 19 (1848320)
I0701 07:38:22.006409 11430 net.cpp:165] Memory required for data: 1156254656
I0701 07:38:22.006418 11430 layer_factory.hpp:77] Creating layer relu6
I0701 07:38:22.006426 11430 net.cpp:100] Creating Layer relu6
I0701 07:38:22.006433 11430 net.cpp:434] relu6 <- fc6
I0701 07:38:22.006439 11430 net.cpp:395] relu6 -> fc6 (in-place)
I0701 07:38:22.006448 11430 net.cpp:150] Setting up relu6
I0701 07:38:22.006453 11430 net.cpp:157] Top shape: 5 1024 19 19 (1848320)
I0701 07:38:22.006458 11430 net.cpp:165] Memory required for data: 1163647936
I0701 07:38:22.006464 11430 layer_factory.hpp:77] Creating layer fc7
I0701 07:38:22.006471 11430 net.cpp:100] Creating Layer fc7
I0701 07:38:22.006476 11430 net.cpp:434] fc7 <- fc6
I0701 07:38:22.006482 11430 net.cpp:408] fc7 -> fc7
I0701 07:38:22.014359 11430 net.cpp:150] Setting up fc7
I0701 07:38:22.014376 11430 net.cpp:157] Top shape: 5 1024 19 19 (1848320)
I0701 07:38:22.014400 11430 net.cpp:165] Memory required for data: 1171041216
I0701 07:38:22.014407 11430 layer_factory.hpp:77] Creating layer relu7
I0701 07:38:22.014416 11430 net.cpp:100] Creating Layer relu7
I0701 07:38:22.014422 11430 net.cpp:434] relu7 <- fc7
I0701 07:38:22.014429 11430 net.cpp:395] relu7 -> fc7 (in-place)
I0701 07:38:22.014438 11430 net.cpp:150] Setting up relu7
I0701 07:38:22.014443 11430 net.cpp:157] Top shape: 5 1024 19 19 (1848320)
I0701 07:38:22.014448 11430 net.cpp:165] Memory required for data: 1178434496
I0701 07:38:22.014452 11430 layer_factory.hpp:77] Creating layer fc7_relu7_0_split
I0701 07:38:22.014459 11430 net.cpp:100] Creating Layer fc7_relu7_0_split
I0701 07:38:22.014463 11430 net.cpp:434] fc7_relu7_0_split <- fc7
I0701 07:38:22.014469 11430 net.cpp:408] fc7_relu7_0_split -> fc7_relu7_0_split_0
I0701 07:38:22.014477 11430 net.cpp:408] fc7_relu7_0_split -> fc7_relu7_0_split_1
I0701 07:38:22.014483 11430 net.cpp:408] fc7_relu7_0_split -> fc7_relu7_0_split_2
I0701 07:38:22.014489 11430 net.cpp:408] fc7_relu7_0_split -> fc7_relu7_0_split_3
I0701 07:38:22.014518 11430 net.cpp:150] Setting up fc7_relu7_0_split
I0701 07:38:22.014523 11430 net.cpp:157] Top shape: 5 1024 19 19 (1848320)
I0701 07:38:22.014529 11430 net.cpp:157] Top shape: 5 1024 19 19 (1848320)
I0701 07:38:22.014534 11430 net.cpp:157] Top shape: 5 1024 19 19 (1848320)
I0701 07:38:22.014539 11430 net.cpp:157] Top shape: 5 1024 19 19 (1848320)
I0701 07:38:22.014544 11430 net.cpp:165] Memory required for data: 1208007616
I0701 07:38:22.014549 11430 layer_factory.hpp:77] Creating layer conv6_1
I0701 07:38:22.014556 11430 net.cpp:100] Creating Layer conv6_1
I0701 07:38:22.014561 11430 net.cpp:434] conv6_1 <- fc7_relu7_0_split_0
I0701 07:38:22.014567 11430 net.cpp:408] conv6_1 -> conv6_1
I0701 07:38:22.015790 11430 net.cpp:150] Setting up conv6_1
I0701 07:38:22.015797 11430 net.cpp:157] Top shape: 5 16 17 17 (23120)
I0701 07:38:22.015802 11430 net.cpp:165] Memory required for data: 1208100096
I0701 07:38:22.015807 11430 layer_factory.hpp:77] Creating layer conv6_1_bn
I0701 07:38:22.015816 11430 net.cpp:100] Creating Layer conv6_1_bn
I0701 07:38:22.015821 11430 net.cpp:434] conv6_1_bn <- conv6_1
I0701 07:38:22.015827 11430 net.cpp:395] conv6_1_bn -> conv6_1 (in-place)
I0701 07:38:22.015939 11430 net.cpp:150] Setting up conv6_1_bn
I0701 07:38:22.015945 11430 net.cpp:157] Top shape: 5 16 17 17 (23120)
I0701 07:38:22.015950 11430 net.cpp:165] Memory required for data: 1208192576
I0701 07:38:22.015959 11430 layer_factory.hpp:77] Creating layer conv6_1_scale
I0701 07:38:22.015976 11430 net.cpp:100] Creating Layer conv6_1_scale
I0701 07:38:22.015981 11430 net.cpp:434] conv6_1_scale <- conv6_1
I0701 07:38:22.015987 11430 net.cpp:395] conv6_1_scale -> conv6_1 (in-place)
I0701 07:38:22.016012 11430 layer_factory.hpp:77] Creating layer conv6_1_scale
I0701 07:38:22.016063 11430 net.cpp:150] Setting up conv6_1_scale
I0701 07:38:22.016069 11430 net.cpp:157] Top shape: 5 16 17 17 (23120)
I0701 07:38:22.016074 11430 net.cpp:165] Memory required for data: 1208285056
I0701 07:38:22.016080 11430 layer_factory.hpp:77] Creating layer conv6_1_relu
I0701 07:38:22.016086 11430 net.cpp:100] Creating Layer conv6_1_relu
I0701 07:38:22.016090 11430 net.cpp:434] conv6_1_relu <- conv6_1
I0701 07:38:22.016095 11430 net.cpp:395] conv6_1_relu -> conv6_1 (in-place)
I0701 07:38:22.016100 11430 net.cpp:150] Setting up conv6_1_relu
I0701 07:38:22.016105 11430 net.cpp:157] Top shape: 5 16 17 17 (23120)
I0701 07:38:22.016110 11430 net.cpp:165] Memory required for data: 1208377536
I0701 07:38:22.016114 11430 layer_factory.hpp:77] Creating layer conv6_1_conv6_1_relu_0_split
I0701 07:38:22.016120 11430 net.cpp:100] Creating Layer conv6_1_conv6_1_relu_0_split
I0701 07:38:22.016124 11430 net.cpp:434] conv6_1_conv6_1_relu_0_split <- conv6_1
I0701 07:38:22.016130 11430 net.cpp:408] conv6_1_conv6_1_relu_0_split -> conv6_1_conv6_1_relu_0_split_0
I0701 07:38:22.016136 11430 net.cpp:408] conv6_1_conv6_1_relu_0_split -> conv6_1_conv6_1_relu_0_split_1
I0701 07:38:22.016142 11430 net.cpp:408] conv6_1_conv6_1_relu_0_split -> conv6_1_conv6_1_relu_0_split_2
I0701 07:38:22.016149 11430 net.cpp:408] conv6_1_conv6_1_relu_0_split -> conv6_1_conv6_1_relu_0_split_3
I0701 07:38:22.016173 11430 net.cpp:150] Setting up conv6_1_conv6_1_relu_0_split
I0701 07:38:22.016178 11430 net.cpp:157] Top shape: 5 16 17 17 (23120)
I0701 07:38:22.016183 11430 net.cpp:157] Top shape: 5 16 17 17 (23120)
I0701 07:38:22.016188 11430 net.cpp:157] Top shape: 5 16 17 17 (23120)
I0701 07:38:22.016193 11430 net.cpp:157] Top shape: 5 16 17 17 (23120)
I0701 07:38:22.016198 11430 net.cpp:165] Memory required for data: 1208747456
I0701 07:38:22.016202 11430 layer_factory.hpp:77] Creating layer pool6
I0701 07:38:22.016209 11430 net.cpp:100] Creating Layer pool6
I0701 07:38:22.016213 11430 net.cpp:434] pool6 <- conv6_1_conv6_1_relu_0_split_0
I0701 07:38:22.016219 11430 net.cpp:408] pool6 -> pool6
I0701 07:38:22.016237 11430 net.cpp:150] Setting up pool6
I0701 07:38:22.016242 11430 net.cpp:157] Top shape: 5 16 16 16 (20480)
I0701 07:38:22.016247 11430 net.cpp:165] Memory required for data: 1208829376
I0701 07:38:22.016250 11430 layer_factory.hpp:77] Creating layer pool6_pool6_0_split
I0701 07:38:22.016256 11430 net.cpp:100] Creating Layer pool6_pool6_0_split
I0701 07:38:22.016260 11430 net.cpp:434] pool6_pool6_0_split <- pool6
I0701 07:38:22.016266 11430 net.cpp:408] pool6_pool6_0_split -> pool6_pool6_0_split_0
I0701 07:38:22.016273 11430 net.cpp:408] pool6_pool6_0_split -> pool6_pool6_0_split_1
I0701 07:38:22.016278 11430 net.cpp:408] pool6_pool6_0_split -> pool6_pool6_0_split_2
I0701 07:38:22.016284 11430 net.cpp:408] pool6_pool6_0_split -> pool6_pool6_0_split_3
I0701 07:38:22.016306 11430 net.cpp:150] Setting up pool6_pool6_0_split
I0701 07:38:22.016311 11430 net.cpp:157] Top shape: 5 16 16 16 (20480)
I0701 07:38:22.016316 11430 net.cpp:157] Top shape: 5 16 16 16 (20480)
I0701 07:38:22.016321 11430 net.cpp:157] Top shape: 5 16 16 16 (20480)
I0701 07:38:22.016326 11430 net.cpp:157] Top shape: 5 16 16 16 (20480)
I0701 07:38:22.016331 11430 net.cpp:165] Memory required for data: 1209157056
I0701 07:38:22.016335 11430 layer_factory.hpp:77] Creating layer conv7_1
I0701 07:38:22.016343 11430 net.cpp:100] Creating Layer conv7_1
I0701 07:38:22.016348 11430 net.cpp:434] conv7_1 <- pool6_pool6_0_split_0
I0701 07:38:22.016369 11430 net.cpp:408] conv7_1 -> conv7_1
I0701 07:38:22.016533 11430 net.cpp:150] Setting up conv7_1
I0701 07:38:22.016541 11430 net.cpp:157] Top shape: 5 32 14 14 (31360)
I0701 07:38:22.016546 11430 net.cpp:165] Memory required for data: 1209282496
I0701 07:38:22.016551 11430 layer_factory.hpp:77] Creating layer conv7_1_bn
I0701 07:38:22.016558 11430 net.cpp:100] Creating Layer conv7_1_bn
I0701 07:38:22.016563 11430 net.cpp:434] conv7_1_bn <- conv7_1
I0701 07:38:22.016568 11430 net.cpp:395] conv7_1_bn -> conv7_1 (in-place)
I0701 07:38:22.016642 11430 net.cpp:150] Setting up conv7_1_bn
I0701 07:38:22.016649 11430 net.cpp:157] Top shape: 5 32 14 14 (31360)
I0701 07:38:22.016654 11430 net.cpp:165] Memory required for data: 1209407936
I0701 07:38:22.016659 11430 layer_factory.hpp:77] Creating layer conv7_1_scale
I0701 07:38:22.016665 11430 net.cpp:100] Creating Layer conv7_1_scale
I0701 07:38:22.016670 11430 net.cpp:434] conv7_1_scale <- conv7_1
I0701 07:38:22.016676 11430 net.cpp:395] conv7_1_scale -> conv7_1 (in-place)
I0701 07:38:22.016695 11430 layer_factory.hpp:77] Creating layer conv7_1_scale
I0701 07:38:22.016737 11430 net.cpp:150] Setting up conv7_1_scale
I0701 07:38:22.016744 11430 net.cpp:157] Top shape: 5 32 14 14 (31360)
I0701 07:38:22.016757 11430 net.cpp:165] Memory required for data: 1209533376
I0701 07:38:22.016767 11430 layer_factory.hpp:77] Creating layer conv7_1_relu
I0701 07:38:22.016777 11430 net.cpp:100] Creating Layer conv7_1_relu
I0701 07:38:22.016785 11430 net.cpp:434] conv7_1_relu <- conv7_1
I0701 07:38:22.016791 11430 net.cpp:395] conv7_1_relu -> conv7_1 (in-place)
I0701 07:38:22.016798 11430 net.cpp:150] Setting up conv7_1_relu
I0701 07:38:22.016803 11430 net.cpp:157] Top shape: 5 32 14 14 (31360)
I0701 07:38:22.016808 11430 net.cpp:165] Memory required for data: 1209658816
I0701 07:38:22.016811 11430 layer_factory.hpp:77] Creating layer conv7_1_conv7_1_relu_0_split
I0701 07:38:22.016816 11430 net.cpp:100] Creating Layer conv7_1_conv7_1_relu_0_split
I0701 07:38:22.016821 11430 net.cpp:434] conv7_1_conv7_1_relu_0_split <- conv7_1
I0701 07:38:22.016826 11430 net.cpp:408] conv7_1_conv7_1_relu_0_split -> conv7_1_conv7_1_relu_0_split_0
I0701 07:38:22.016834 11430 net.cpp:408] conv7_1_conv7_1_relu_0_split -> conv7_1_conv7_1_relu_0_split_1
I0701 07:38:22.016840 11430 net.cpp:408] conv7_1_conv7_1_relu_0_split -> conv7_1_conv7_1_relu_0_split_2
I0701 07:38:22.016846 11430 net.cpp:408] conv7_1_conv7_1_relu_0_split -> conv7_1_conv7_1_relu_0_split_3
I0701 07:38:22.016870 11430 net.cpp:150] Setting up conv7_1_conv7_1_relu_0_split
I0701 07:38:22.016876 11430 net.cpp:157] Top shape: 5 32 14 14 (31360)
I0701 07:38:22.016881 11430 net.cpp:157] Top shape: 5 32 14 14 (31360)
I0701 07:38:22.016885 11430 net.cpp:157] Top shape: 5 32 14 14 (31360)
I0701 07:38:22.016891 11430 net.cpp:157] Top shape: 5 32 14 14 (31360)
I0701 07:38:22.016896 11430 net.cpp:165] Memory required for data: 1210160576
I0701 07:38:22.016899 11430 layer_factory.hpp:77] Creating layer pool7
I0701 07:38:22.016906 11430 net.cpp:100] Creating Layer pool7
I0701 07:38:22.016911 11430 net.cpp:434] pool7 <- conv7_1_conv7_1_relu_0_split_0
I0701 07:38:22.016916 11430 net.cpp:408] pool7 -> pool7
I0701 07:38:22.016932 11430 net.cpp:150] Setting up pool7
I0701 07:38:22.016937 11430 net.cpp:157] Top shape: 5 32 13 13 (27040)
I0701 07:38:22.016942 11430 net.cpp:165] Memory required for data: 1210268736
I0701 07:38:22.016945 11430 layer_factory.hpp:77] Creating layer pool7_pool7_0_split
I0701 07:38:22.016952 11430 net.cpp:100] Creating Layer pool7_pool7_0_split
I0701 07:38:22.016955 11430 net.cpp:434] pool7_pool7_0_split <- pool7
I0701 07:38:22.016961 11430 net.cpp:408] pool7_pool7_0_split -> pool7_pool7_0_split_0
I0701 07:38:22.016968 11430 net.cpp:408] pool7_pool7_0_split -> pool7_pool7_0_split_1
I0701 07:38:22.016973 11430 net.cpp:408] pool7_pool7_0_split -> pool7_pool7_0_split_2
I0701 07:38:22.016978 11430 net.cpp:408] pool7_pool7_0_split -> pool7_pool7_0_split_3
I0701 07:38:22.017000 11430 net.cpp:150] Setting up pool7_pool7_0_split
I0701 07:38:22.017019 11430 net.cpp:157] Top shape: 5 32 13 13 (27040)
I0701 07:38:22.017025 11430 net.cpp:157] Top shape: 5 32 13 13 (27040)
I0701 07:38:22.017030 11430 net.cpp:157] Top shape: 5 32 13 13 (27040)
I0701 07:38:22.017035 11430 net.cpp:157] Top shape: 5 32 13 13 (27040)
I0701 07:38:22.017040 11430 net.cpp:165] Memory required for data: 1210701376
I0701 07:38:22.017045 11430 layer_factory.hpp:77] Creating layer conv8_1
I0701 07:38:22.017051 11430 net.cpp:100] Creating Layer conv8_1
I0701 07:38:22.017056 11430 net.cpp:434] conv8_1 <- pool7_pool7_0_split_0
I0701 07:38:22.017061 11430 net.cpp:408] conv8_1 -> conv8_1
I0701 07:38:22.017309 11430 net.cpp:150] Setting up conv8_1
I0701 07:38:22.017315 11430 net.cpp:157] Top shape: 5 64 11 11 (38720)
I0701 07:38:22.017321 11430 net.cpp:165] Memory required for data: 1210856256
I0701 07:38:22.017343 11430 layer_factory.hpp:77] Creating layer conv8_1_bn
I0701 07:38:22.017349 11430 net.cpp:100] Creating Layer conv8_1_bn
I0701 07:38:22.017354 11430 net.cpp:434] conv8_1_bn <- conv8_1
I0701 07:38:22.017359 11430 net.cpp:395] conv8_1_bn -> conv8_1 (in-place)
I0701 07:38:22.017429 11430 net.cpp:150] Setting up conv8_1_bn
I0701 07:38:22.017434 11430 net.cpp:157] Top shape: 5 64 11 11 (38720)
I0701 07:38:22.017441 11430 net.cpp:165] Memory required for data: 1211011136
I0701 07:38:22.017446 11430 layer_factory.hpp:77] Creating layer conv8_1_scale
I0701 07:38:22.017452 11430 net.cpp:100] Creating Layer conv8_1_scale
I0701 07:38:22.017457 11430 net.cpp:434] conv8_1_scale <- conv8_1
I0701 07:38:22.017462 11430 net.cpp:395] conv8_1_scale -> conv8_1 (in-place)
I0701 07:38:22.017480 11430 layer_factory.hpp:77] Creating layer conv8_1_scale
I0701 07:38:22.017530 11430 net.cpp:150] Setting up conv8_1_scale
I0701 07:38:22.017536 11430 net.cpp:157] Top shape: 5 64 11 11 (38720)
I0701 07:38:22.017542 11430 net.cpp:165] Memory required for data: 1211166016
I0701 07:38:22.017547 11430 layer_factory.hpp:77] Creating layer conv8_1_relu
I0701 07:38:22.017553 11430 net.cpp:100] Creating Layer conv8_1_relu
I0701 07:38:22.017557 11430 net.cpp:434] conv8_1_relu <- conv8_1
I0701 07:38:22.017563 11430 net.cpp:395] conv8_1_relu -> conv8_1 (in-place)
I0701 07:38:22.017568 11430 net.cpp:150] Setting up conv8_1_relu
I0701 07:38:22.017572 11430 net.cpp:157] Top shape: 5 64 11 11 (38720)
I0701 07:38:22.017577 11430 net.cpp:165] Memory required for data: 1211320896
I0701 07:38:22.017582 11430 layer_factory.hpp:77] Creating layer conv8_1_conv8_1_relu_0_split
I0701 07:38:22.017587 11430 net.cpp:100] Creating Layer conv8_1_conv8_1_relu_0_split
I0701 07:38:22.017591 11430 net.cpp:434] conv8_1_conv8_1_relu_0_split <- conv8_1
I0701 07:38:22.017597 11430 net.cpp:408] conv8_1_conv8_1_relu_0_split -> conv8_1_conv8_1_relu_0_split_0
I0701 07:38:22.017606 11430 net.cpp:408] conv8_1_conv8_1_relu_0_split -> conv8_1_conv8_1_relu_0_split_1
I0701 07:38:22.017612 11430 net.cpp:408] conv8_1_conv8_1_relu_0_split -> conv8_1_conv8_1_relu_0_split_2
I0701 07:38:22.017618 11430 net.cpp:408] conv8_1_conv8_1_relu_0_split -> conv8_1_conv8_1_relu_0_split_3
I0701 07:38:22.017643 11430 net.cpp:150] Setting up conv8_1_conv8_1_relu_0_split
I0701 07:38:22.017649 11430 net.cpp:157] Top shape: 5 64 11 11 (38720)
I0701 07:38:22.017654 11430 net.cpp:157] Top shape: 5 64 11 11 (38720)
I0701 07:38:22.017659 11430 net.cpp:157] Top shape: 5 64 11 11 (38720)
I0701 07:38:22.017664 11430 net.cpp:157] Top shape: 5 64 11 11 (38720)
I0701 07:38:22.017669 11430 net.cpp:165] Memory required for data: 1211940416
I0701 07:38:22.017673 11430 layer_factory.hpp:77] Creating layer pool8
I0701 07:38:22.017680 11430 net.cpp:100] Creating Layer pool8
I0701 07:38:22.017684 11430 net.cpp:434] pool8 <- conv8_1_conv8_1_relu_0_split_0
I0701 07:38:22.017690 11430 net.cpp:408] pool8 -> pool8
I0701 07:38:22.017706 11430 net.cpp:150] Setting up pool8
I0701 07:38:22.017711 11430 net.cpp:157] Top shape: 5 64 10 10 (32000)
I0701 07:38:22.017716 11430 net.cpp:165] Memory required for data: 1212068416
I0701 07:38:22.017720 11430 layer_factory.hpp:77] Creating layer pool8_pool8_0_split
I0701 07:38:22.017737 11430 net.cpp:100] Creating Layer pool8_pool8_0_split
I0701 07:38:22.017745 11430 net.cpp:434] pool8_pool8_0_split <- pool8
I0701 07:38:22.017750 11430 net.cpp:408] pool8_pool8_0_split -> pool8_pool8_0_split_0
I0701 07:38:22.017756 11430 net.cpp:408] pool8_pool8_0_split -> pool8_pool8_0_split_1
I0701 07:38:22.017762 11430 net.cpp:408] pool8_pool8_0_split -> pool8_pool8_0_split_2
I0701 07:38:22.017768 11430 net.cpp:408] pool8_pool8_0_split -> pool8_pool8_0_split_3
I0701 07:38:22.017791 11430 net.cpp:150] Setting up pool8_pool8_0_split
I0701 07:38:22.017796 11430 net.cpp:157] Top shape: 5 64 10 10 (32000)
I0701 07:38:22.017802 11430 net.cpp:157] Top shape: 5 64 10 10 (32000)
I0701 07:38:22.017807 11430 net.cpp:157] Top shape: 5 64 10 10 (32000)
I0701 07:38:22.017812 11430 net.cpp:157] Top shape: 5 64 10 10 (32000)
I0701 07:38:22.017817 11430 net.cpp:165] Memory required for data: 1212580416
I0701 07:38:22.017820 11430 layer_factory.hpp:77] Creating layer conv9_1
I0701 07:38:22.017827 11430 net.cpp:100] Creating Layer conv9_1
I0701 07:38:22.017832 11430 net.cpp:434] conv9_1 <- pool8_pool8_0_split_0
I0701 07:38:22.017838 11430 net.cpp:408] conv9_1 -> conv9_1
I0701 07:38:22.020251 11430 net.cpp:150] Setting up conv9_1
I0701 07:38:22.020272 11430 net.cpp:157] Top shape: 5 128 8 8 (40960)
I0701 07:38:22.020278 11430 net.cpp:165] Memory required for data: 1212744256
I0701 07:38:22.020284 11430 layer_factory.hpp:77] Creating layer conv9_1_bn
I0701 07:38:22.020292 11430 net.cpp:100] Creating Layer conv9_1_bn
I0701 07:38:22.020300 11430 net.cpp:434] conv9_1_bn <- conv9_1
I0701 07:38:22.020309 11430 net.cpp:395] conv9_1_bn -> conv9_1 (in-place)
I0701 07:38:22.020385 11430 net.cpp:150] Setting up conv9_1_bn
I0701 07:38:22.020391 11430 net.cpp:157] Top shape: 5 128 8 8 (40960)
I0701 07:38:22.020396 11430 net.cpp:165] Memory required for data: 1212908096
I0701 07:38:22.020402 11430 layer_factory.hpp:77] Creating layer conv9_1_scale
I0701 07:38:22.020409 11430 net.cpp:100] Creating Layer conv9_1_scale
I0701 07:38:22.020414 11430 net.cpp:434] conv9_1_scale <- conv9_1
I0701 07:38:22.020421 11430 net.cpp:395] conv9_1_scale -> conv9_1 (in-place)
I0701 07:38:22.020440 11430 layer_factory.hpp:77] Creating layer conv9_1_scale
I0701 07:38:22.020535 11430 net.cpp:150] Setting up conv9_1_scale
I0701 07:38:22.020542 11430 net.cpp:157] Top shape: 5 128 8 8 (40960)
I0701 07:38:22.020547 11430 net.cpp:165] Memory required for data: 1213071936
I0701 07:38:22.020553 11430 layer_factory.hpp:77] Creating layer conv9_1_relu
I0701 07:38:22.020560 11430 net.cpp:100] Creating Layer conv9_1_relu
I0701 07:38:22.020565 11430 net.cpp:434] conv9_1_relu <- conv9_1
I0701 07:38:22.020570 11430 net.cpp:395] conv9_1_relu -> conv9_1 (in-place)
I0701 07:38:22.020576 11430 net.cpp:150] Setting up conv9_1_relu
I0701 07:38:22.020581 11430 net.cpp:157] Top shape: 5 128 8 8 (40960)
I0701 07:38:22.020586 11430 net.cpp:165] Memory required for data: 1213235776
I0701 07:38:22.020589 11430 layer_factory.hpp:77] Creating layer conv9_1_conv9_1_relu_0_split
I0701 07:38:22.020612 11430 net.cpp:100] Creating Layer conv9_1_conv9_1_relu_0_split
I0701 07:38:22.020617 11430 net.cpp:434] conv9_1_conv9_1_relu_0_split <- conv9_1
I0701 07:38:22.020622 11430 net.cpp:408] conv9_1_conv9_1_relu_0_split -> conv9_1_conv9_1_relu_0_split_0
I0701 07:38:22.020629 11430 net.cpp:408] conv9_1_conv9_1_relu_0_split -> conv9_1_conv9_1_relu_0_split_1
I0701 07:38:22.020637 11430 net.cpp:408] conv9_1_conv9_1_relu_0_split -> conv9_1_conv9_1_relu_0_split_2
I0701 07:38:22.020644 11430 net.cpp:408] conv9_1_conv9_1_relu_0_split -> conv9_1_conv9_1_relu_0_split_3
I0701 07:38:22.020671 11430 net.cpp:150] Setting up conv9_1_conv9_1_relu_0_split
I0701 07:38:22.020676 11430 net.cpp:157] Top shape: 5 128 8 8 (40960)
I0701 07:38:22.020681 11430 net.cpp:157] Top shape: 5 128 8 8 (40960)
I0701 07:38:22.020686 11430 net.cpp:157] Top shape: 5 128 8 8 (40960)
I0701 07:38:22.020691 11430 net.cpp:157] Top shape: 5 128 8 8 (40960)
I0701 07:38:22.020696 11430 net.cpp:165] Memory required for data: 1213891136
I0701 07:38:22.020720 11430 layer_factory.hpp:77] Creating layer pool9
I0701 07:38:22.020726 11430 net.cpp:100] Creating Layer pool9
I0701 07:38:22.020731 11430 net.cpp:434] pool9 <- conv9_1_conv9_1_relu_0_split_0
I0701 07:38:22.020737 11430 net.cpp:408] pool9 -> pool9
I0701 07:38:22.020771 11430 net.cpp:150] Setting up pool9
I0701 07:38:22.020776 11430 net.cpp:157] Top shape: 5 128 7 7 (31360)
I0701 07:38:22.020781 11430 net.cpp:165] Memory required for data: 1214016576
I0701 07:38:22.020785 11430 layer_factory.hpp:77] Creating layer pool9_pool9_0_split
I0701 07:38:22.020792 11430 net.cpp:100] Creating Layer pool9_pool9_0_split
I0701 07:38:22.020795 11430 net.cpp:434] pool9_pool9_0_split <- pool9
I0701 07:38:22.020802 11430 net.cpp:408] pool9_pool9_0_split -> pool9_pool9_0_split_0
I0701 07:38:22.020807 11430 net.cpp:408] pool9_pool9_0_split -> pool9_pool9_0_split_1
I0701 07:38:22.020815 11430 net.cpp:408] pool9_pool9_0_split -> pool9_pool9_0_split_2
I0701 07:38:22.020821 11430 net.cpp:408] pool9_pool9_0_split -> pool9_pool9_0_split_3
I0701 07:38:22.020843 11430 net.cpp:150] Setting up pool9_pool9_0_split
I0701 07:38:22.020848 11430 net.cpp:157] Top shape: 5 128 7 7 (31360)
I0701 07:38:22.020853 11430 net.cpp:157] Top shape: 5 128 7 7 (31360)
I0701 07:38:22.020859 11430 net.cpp:157] Top shape: 5 128 7 7 (31360)
I0701 07:38:22.020864 11430 net.cpp:157] Top shape: 5 128 7 7 (31360)
I0701 07:38:22.020869 11430 net.cpp:165] Memory required for data: 1214518336
I0701 07:38:22.020872 11430 layer_factory.hpp:77] Creating layer conv10_1
I0701 07:38:22.020879 11430 net.cpp:100] Creating Layer conv10_1
I0701 07:38:22.020884 11430 net.cpp:434] conv10_1 <- pool9_pool9_0_split_0
I0701 07:38:22.020890 11430 net.cpp:408] conv10_1 -> conv10_1
I0701 07:38:22.023936 11430 net.cpp:150] Setting up conv10_1
I0701 07:38:22.023949 11430 net.cpp:157] Top shape: 5 256 5 5 (32000)
I0701 07:38:22.023955 11430 net.cpp:165] Memory required for data: 1214646336
I0701 07:38:22.023962 11430 layer_factory.hpp:77] Creating layer conv10_1_bn
I0701 07:38:22.023969 11430 net.cpp:100] Creating Layer conv10_1_bn
I0701 07:38:22.023975 11430 net.cpp:434] conv10_1_bn <- conv10_1
I0701 07:38:22.023981 11430 net.cpp:395] conv10_1_bn -> conv10_1 (in-place)
I0701 07:38:22.024060 11430 net.cpp:150] Setting up conv10_1_bn
I0701 07:38:22.024065 11430 net.cpp:157] Top shape: 5 256 5 5 (32000)
I0701 07:38:22.024071 11430 net.cpp:165] Memory required for data: 1214774336
I0701 07:38:22.024077 11430 layer_factory.hpp:77] Creating layer conv10_1_scale
I0701 07:38:22.024084 11430 net.cpp:100] Creating Layer conv10_1_scale
I0701 07:38:22.024088 11430 net.cpp:434] conv10_1_scale <- conv10_1
I0701 07:38:22.024094 11430 net.cpp:395] conv10_1_scale -> conv10_1 (in-place)
I0701 07:38:22.024113 11430 layer_factory.hpp:77] Creating layer conv10_1_scale
I0701 07:38:22.024155 11430 net.cpp:150] Setting up conv10_1_scale
I0701 07:38:22.024161 11430 net.cpp:157] Top shape: 5 256 5 5 (32000)
I0701 07:38:22.024166 11430 net.cpp:165] Memory required for data: 1214902336
I0701 07:38:22.024171 11430 layer_factory.hpp:77] Creating layer conv10_1_relu
I0701 07:38:22.024178 11430 net.cpp:100] Creating Layer conv10_1_relu
I0701 07:38:22.024181 11430 net.cpp:434] conv10_1_relu <- conv10_1
I0701 07:38:22.024186 11430 net.cpp:395] conv10_1_relu -> conv10_1 (in-place)
I0701 07:38:22.024194 11430 net.cpp:150] Setting up conv10_1_relu
I0701 07:38:22.024199 11430 net.cpp:157] Top shape: 5 256 5 5 (32000)
I0701 07:38:22.024204 11430 net.cpp:165] Memory required for data: 1215030336
I0701 07:38:22.024209 11430 layer_factory.hpp:77] Creating layer conv10_1_conv10_1_relu_0_split
I0701 07:38:22.024214 11430 net.cpp:100] Creating Layer conv10_1_conv10_1_relu_0_split
I0701 07:38:22.024219 11430 net.cpp:434] conv10_1_conv10_1_relu_0_split <- conv10_1
I0701 07:38:22.024223 11430 net.cpp:408] conv10_1_conv10_1_relu_0_split -> conv10_1_conv10_1_relu_0_split_0
I0701 07:38:22.024230 11430 net.cpp:408] conv10_1_conv10_1_relu_0_split -> conv10_1_conv10_1_relu_0_split_1
I0701 07:38:22.024255 11430 net.cpp:408] conv10_1_conv10_1_relu_0_split -> conv10_1_conv10_1_relu_0_split_2
I0701 07:38:22.024260 11430 net.cpp:408] conv10_1_conv10_1_relu_0_split -> conv10_1_conv10_1_relu_0_split_3
I0701 07:38:22.024286 11430 net.cpp:150] Setting up conv10_1_conv10_1_relu_0_split
I0701 07:38:22.024291 11430 net.cpp:157] Top shape: 5 256 5 5 (32000)
I0701 07:38:22.024296 11430 net.cpp:157] Top shape: 5 256 5 5 (32000)
I0701 07:38:22.024302 11430 net.cpp:157] Top shape: 5 256 5 5 (32000)
I0701 07:38:22.024307 11430 net.cpp:157] Top shape: 5 256 5 5 (32000)
I0701 07:38:22.024312 11430 net.cpp:165] Memory required for data: 1215542336
I0701 07:38:22.024315 11430 layer_factory.hpp:77] Creating layer pool10
I0701 07:38:22.024322 11430 net.cpp:100] Creating Layer pool10
I0701 07:38:22.024327 11430 net.cpp:434] pool10 <- conv10_1_conv10_1_relu_0_split_0
I0701 07:38:22.024333 11430 net.cpp:408] pool10 -> pool10
I0701 07:38:22.024348 11430 net.cpp:150] Setting up pool10
I0701 07:38:22.024353 11430 net.cpp:157] Top shape: 5 256 4 4 (20480)
I0701 07:38:22.024358 11430 net.cpp:165] Memory required for data: 1215624256
I0701 07:38:22.024363 11430 layer_factory.hpp:77] Creating layer pool10_pool10_0_split
I0701 07:38:22.024369 11430 net.cpp:100] Creating Layer pool10_pool10_0_split
I0701 07:38:22.024374 11430 net.cpp:434] pool10_pool10_0_split <- pool10
I0701 07:38:22.024379 11430 net.cpp:408] pool10_pool10_0_split -> pool10_pool10_0_split_0
I0701 07:38:22.024385 11430 net.cpp:408] pool10_pool10_0_split -> pool10_pool10_0_split_1
I0701 07:38:22.024391 11430 net.cpp:408] pool10_pool10_0_split -> pool10_pool10_0_split_2
I0701 07:38:22.024397 11430 net.cpp:408] pool10_pool10_0_split -> pool10_pool10_0_split_3
I0701 07:38:22.024420 11430 net.cpp:150] Setting up pool10_pool10_0_split
I0701 07:38:22.024425 11430 net.cpp:157] Top shape: 5 256 4 4 (20480)
I0701 07:38:22.024430 11430 net.cpp:157] Top shape: 5 256 4 4 (20480)
I0701 07:38:22.024434 11430 net.cpp:157] Top shape: 5 256 4 4 (20480)
I0701 07:38:22.024439 11430 net.cpp:157] Top shape: 5 256 4 4 (20480)
I0701 07:38:22.024443 11430 net.cpp:165] Memory required for data: 1215951936
I0701 07:38:22.024456 11430 layer_factory.hpp:77] Creating layer conv11_1
I0701 07:38:22.024488 11430 net.cpp:100] Creating Layer conv11_1
I0701 07:38:22.024493 11430 net.cpp:434] conv11_1 <- pool10_pool10_0_split_0
I0701 07:38:22.024516 11430 net.cpp:408] conv11_1 -> conv11_1
I0701 07:38:22.036113 11430 net.cpp:150] Setting up conv11_1
I0701 07:38:22.036129 11430 net.cpp:157] Top shape: 5 512 2 2 (10240)
I0701 07:38:22.036139 11430 net.cpp:165] Memory required for data: 1215992896
I0701 07:38:22.036144 11430 layer_factory.hpp:77] Creating layer conv11_1_bn
I0701 07:38:22.036155 11430 net.cpp:100] Creating Layer conv11_1_bn
I0701 07:38:22.036162 11430 net.cpp:434] conv11_1_bn <- conv11_1
I0701 07:38:22.036170 11430 net.cpp:395] conv11_1_bn -> conv11_1 (in-place)
I0701 07:38:22.036247 11430 net.cpp:150] Setting up conv11_1_bn
I0701 07:38:22.036252 11430 net.cpp:157] Top shape: 5 512 2 2 (10240)
I0701 07:38:22.036257 11430 net.cpp:165] Memory required for data: 1216033856
I0701 07:38:22.036263 11430 layer_factory.hpp:77] Creating layer conv11_1_scale
I0701 07:38:22.036271 11430 net.cpp:100] Creating Layer conv11_1_scale
I0701 07:38:22.036275 11430 net.cpp:434] conv11_1_scale <- conv11_1
I0701 07:38:22.036281 11430 net.cpp:395] conv11_1_scale -> conv11_1 (in-place)
I0701 07:38:22.036304 11430 layer_factory.hpp:77] Creating layer conv11_1_scale
I0701 07:38:22.036346 11430 net.cpp:150] Setting up conv11_1_scale
I0701 07:38:22.036351 11430 net.cpp:157] Top shape: 5 512 2 2 (10240)
I0701 07:38:22.036356 11430 net.cpp:165] Memory required for data: 1216074816
I0701 07:38:22.036373 11430 layer_factory.hpp:77] Creating layer conv11_1_relu
I0701 07:38:22.036379 11430 net.cpp:100] Creating Layer conv11_1_relu
I0701 07:38:22.036384 11430 net.cpp:434] conv11_1_relu <- conv11_1
I0701 07:38:22.036389 11430 net.cpp:395] conv11_1_relu -> conv11_1 (in-place)
I0701 07:38:22.036394 11430 net.cpp:150] Setting up conv11_1_relu
I0701 07:38:22.036419 11430 net.cpp:157] Top shape: 5 512 2 2 (10240)
I0701 07:38:22.036427 11430 net.cpp:165] Memory required for data: 1216115776
I0701 07:38:22.036432 11430 layer_factory.hpp:77] Creating layer conv11_1_conv11_1_relu_0_split
I0701 07:38:22.036437 11430 net.cpp:100] Creating Layer conv11_1_conv11_1_relu_0_split
I0701 07:38:22.036442 11430 net.cpp:434] conv11_1_conv11_1_relu_0_split <- conv11_1
I0701 07:38:22.036454 11430 net.cpp:408] conv11_1_conv11_1_relu_0_split -> conv11_1_conv11_1_relu_0_split_0
I0701 07:38:22.036487 11430 net.cpp:408] conv11_1_conv11_1_relu_0_split -> conv11_1_conv11_1_relu_0_split_1
I0701 07:38:22.036494 11430 net.cpp:408] conv11_1_conv11_1_relu_0_split -> conv11_1_conv11_1_relu_0_split_2
I0701 07:38:22.036501 11430 net.cpp:408] conv11_1_conv11_1_relu_0_split -> conv11_1_conv11_1_relu_0_split_3
I0701 07:38:22.036562 11430 net.cpp:150] Setting up conv11_1_conv11_1_relu_0_split
I0701 07:38:22.036567 11430 net.cpp:157] Top shape: 5 512 2 2 (10240)
I0701 07:38:22.036573 11430 net.cpp:157] Top shape: 5 512 2 2 (10240)
I0701 07:38:22.036578 11430 net.cpp:157] Top shape: 5 512 2 2 (10240)
I0701 07:38:22.036582 11430 net.cpp:157] Top shape: 5 512 2 2 (10240)
I0701 07:38:22.036587 11430 net.cpp:165] Memory required for data: 1216279616
I0701 07:38:22.036592 11430 layer_factory.hpp:77] Creating layer pool11
I0701 07:38:22.036598 11430 net.cpp:100] Creating Layer pool11
I0701 07:38:22.036603 11430 net.cpp:434] pool11 <- conv11_1_conv11_1_relu_0_split_0
I0701 07:38:22.036609 11430 net.cpp:408] pool11 -> pool11
I0701 07:38:22.036628 11430 net.cpp:150] Setting up pool11
I0701 07:38:22.036633 11430 net.cpp:157] Top shape: 5 512 1 1 (2560)
I0701 07:38:22.036638 11430 net.cpp:165] Memory required for data: 1216289856
I0701 07:38:22.036643 11430 layer_factory.hpp:77] Creating layer pool11_pool11_0_split
I0701 07:38:22.036648 11430 net.cpp:100] Creating Layer pool11_pool11_0_split
I0701 07:38:22.036653 11430 net.cpp:434] pool11_pool11_0_split <- pool11
I0701 07:38:22.036659 11430 net.cpp:408] pool11_pool11_0_split -> pool11_pool11_0_split_0
I0701 07:38:22.036664 11430 net.cpp:408] pool11_pool11_0_split -> pool11_pool11_0_split_1
I0701 07:38:22.036671 11430 net.cpp:408] pool11_pool11_0_split -> pool11_pool11_0_split_2
I0701 07:38:22.036690 11430 net.cpp:150] Setting up pool11_pool11_0_split
I0701 07:38:22.036695 11430 net.cpp:157] Top shape: 5 512 1 1 (2560)
I0701 07:38:22.036700 11430 net.cpp:157] Top shape: 5 512 1 1 (2560)
I0701 07:38:22.036705 11430 net.cpp:157] Top shape: 5 512 1 1 (2560)
I0701 07:38:22.036710 11430 net.cpp:165] Memory required for data: 1216320576
I0701 07:38:22.036715 11430 layer_factory.hpp:77] Creating layer conv4_3_norm
I0701 07:38:22.036723 11430 net.cpp:100] Creating Layer conv4_3_norm
I0701 07:38:22.036729 11430 net.cpp:434] conv4_3_norm <- conv4_3_relu4_3_0_split_1
I0701 07:38:22.036736 11430 net.cpp:408] conv4_3_norm -> conv4_3_norm
I0701 07:38:22.036792 11430 net.cpp:150] Setting up conv4_3_norm
I0701 07:38:22.036796 11430 net.cpp:157] Top shape: 5 512 38 38 (3696640)
I0701 07:38:22.036803 11430 net.cpp:165] Memory required for data: 1231107136
I0701 07:38:22.036808 11430 layer_factory.hpp:77] Creating layer conv4_3_norm_conv4_3_norm_0_split
I0701 07:38:22.036813 11430 net.cpp:100] Creating Layer conv4_3_norm_conv4_3_norm_0_split
I0701 07:38:22.036818 11430 net.cpp:434] conv4_3_norm_conv4_3_norm_0_split <- conv4_3_norm
I0701 07:38:22.036823 11430 net.cpp:408] conv4_3_norm_conv4_3_norm_0_split -> conv4_3_norm_conv4_3_norm_0_split_0
I0701 07:38:22.036829 11430 net.cpp:408] conv4_3_norm_conv4_3_norm_0_split -> conv4_3_norm_conv4_3_norm_0_split_1
I0701 07:38:22.036835 11430 net.cpp:408] conv4_3_norm_conv4_3_norm_0_split -> conv4_3_norm_conv4_3_norm_0_split_2
I0701 07:38:22.036854 11430 net.cpp:150] Setting up conv4_3_norm_conv4_3_norm_0_split
I0701 07:38:22.036859 11430 net.cpp:157] Top shape: 5 512 38 38 (3696640)
I0701 07:38:22.036865 11430 net.cpp:157] Top shape: 5 512 38 38 (3696640)
I0701 07:38:22.036870 11430 net.cpp:157] Top shape: 5 512 38 38 (3696640)
I0701 07:38:22.036887 11430 net.cpp:165] Memory required for data: 1275466816
I0701 07:38:22.036892 11430 layer_factory.hpp:77] Creating layer conv4_3_norm_mbox_loc
I0701 07:38:22.036899 11430 net.cpp:100] Creating Layer conv4_3_norm_mbox_loc
I0701 07:38:22.036904 11430 net.cpp:434] conv4_3_norm_mbox_loc <- conv4_3_norm_conv4_3_norm_0_split_0
I0701 07:38:22.036911 11430 net.cpp:408] conv4_3_norm_mbox_loc -> conv4_3_norm_mbox_loc
I0701 07:38:22.037999 11430 net.cpp:150] Setting up conv4_3_norm_mbox_loc
I0701 07:38:22.038005 11430 net.cpp:157] Top shape: 5 48 38 38 (346560)
I0701 07:38:22.038012 11430 net.cpp:165] Memory required for data: 1276853056
I0701 07:38:22.038017 11430 layer_factory.hpp:77] Creating layer conv4_3_norm_mbox_loc_bn
I0701 07:38:22.038022 11430 net.cpp:100] Creating Layer conv4_3_norm_mbox_loc_bn
I0701 07:38:22.038028 11430 net.cpp:434] conv4_3_norm_mbox_loc_bn <- conv4_3_norm_mbox_loc
I0701 07:38:22.038033 11430 net.cpp:395] conv4_3_norm_mbox_loc_bn -> conv4_3_norm_mbox_loc (in-place)
I0701 07:38:22.038110 11430 net.cpp:150] Setting up conv4_3_norm_mbox_loc_bn
I0701 07:38:22.038115 11430 net.cpp:157] Top shape: 5 48 38 38 (346560)
I0701 07:38:22.038120 11430 net.cpp:165] Memory required for data: 1278239296
I0701 07:38:22.038125 11430 layer_factory.hpp:77] Creating layer conv4_3_norm_mbox_loc_scale
I0701 07:38:22.038132 11430 net.cpp:100] Creating Layer conv4_3_norm_mbox_loc_scale
I0701 07:38:22.038136 11430 net.cpp:434] conv4_3_norm_mbox_loc_scale <- conv4_3_norm_mbox_loc
I0701 07:38:22.038142 11430 net.cpp:395] conv4_3_norm_mbox_loc_scale -> conv4_3_norm_mbox_loc (in-place)
I0701 07:38:22.038161 11430 layer_factory.hpp:77] Creating layer conv4_3_norm_mbox_loc_scale
I0701 07:38:22.038210 11430 net.cpp:150] Setting up conv4_3_norm_mbox_loc_scale
I0701 07:38:22.038215 11430 net.cpp:157] Top shape: 5 48 38 38 (346560)
I0701 07:38:22.038220 11430 net.cpp:165] Memory required for data: 1279625536
I0701 07:38:22.038226 11430 layer_factory.hpp:77] Creating layer conv4_3_norm_mbox_loc_perm
I0701 07:38:22.038233 11430 net.cpp:100] Creating Layer conv4_3_norm_mbox_loc_perm
I0701 07:38:22.038239 11430 net.cpp:434] conv4_3_norm_mbox_loc_perm <- conv4_3_norm_mbox_loc
I0701 07:38:22.038244 11430 net.cpp:408] conv4_3_norm_mbox_loc_perm -> conv4_3_norm_mbox_loc_perm
I0701 07:38:22.038285 11430 net.cpp:150] Setting up conv4_3_norm_mbox_loc_perm
I0701 07:38:22.038290 11430 net.cpp:157] Top shape: 5 38 38 48 (346560)
I0701 07:38:22.038295 11430 net.cpp:165] Memory required for data: 1281011776
I0701 07:38:22.038300 11430 layer_factory.hpp:77] Creating layer conv4_3_norm_mbox_loc_flat
I0701 07:38:22.038305 11430 net.cpp:100] Creating Layer conv4_3_norm_mbox_loc_flat
I0701 07:38:22.038311 11430 net.cpp:434] conv4_3_norm_mbox_loc_flat <- conv4_3_norm_mbox_loc_perm
I0701 07:38:22.038316 11430 net.cpp:408] conv4_3_norm_mbox_loc_flat -> conv4_3_norm_mbox_loc_flat
I0701 07:38:22.038329 11430 net.cpp:150] Setting up conv4_3_norm_mbox_loc_flat
I0701 07:38:22.038334 11430 net.cpp:157] Top shape: 5 69312 (346560)
I0701 07:38:22.038339 11430 net.cpp:165] Memory required for data: 1282398016
I0701 07:38:22.038343 11430 layer_factory.hpp:77] Creating layer conv4_3_norm_mbox_conf
I0701 07:38:22.038350 11430 net.cpp:100] Creating Layer conv4_3_norm_mbox_conf
I0701 07:38:22.038355 11430 net.cpp:434] conv4_3_norm_mbox_conf <- conv4_3_norm_conv4_3_norm_0_split_1
I0701 07:38:22.038362 11430 net.cpp:408] conv4_3_norm_mbox_conf -> conv4_3_norm_mbox_conf
I0701 07:38:22.038908 11430 net.cpp:150] Setting up conv4_3_norm_mbox_conf
I0701 07:38:22.038913 11430 net.cpp:157] Top shape: 5 24 38 38 (173280)
I0701 07:38:22.038918 11430 net.cpp:165] Memory required for data: 1283091136
I0701 07:38:22.038923 11430 layer_factory.hpp:77] Creating layer conv4_3_norm_mbox_conf_bn
I0701 07:38:22.038930 11430 net.cpp:100] Creating Layer conv4_3_norm_mbox_conf_bn
I0701 07:38:22.038935 11430 net.cpp:434] conv4_3_norm_mbox_conf_bn <- conv4_3_norm_mbox_conf
I0701 07:38:22.038941 11430 net.cpp:395] conv4_3_norm_mbox_conf_bn -> conv4_3_norm_mbox_conf (in-place)
I0701 07:38:22.039032 11430 net.cpp:150] Setting up conv4_3_norm_mbox_conf_bn
I0701 07:38:22.039038 11430 net.cpp:157] Top shape: 5 24 38 38 (173280)
I0701 07:38:22.039043 11430 net.cpp:165] Memory required for data: 1283784256
I0701 07:38:22.039049 11430 layer_factory.hpp:77] Creating layer conv4_3_norm_mbox_conf_scale
I0701 07:38:22.039057 11430 net.cpp:100] Creating Layer conv4_3_norm_mbox_conf_scale
I0701 07:38:22.039060 11430 net.cpp:434] conv4_3_norm_mbox_conf_scale <- conv4_3_norm_mbox_conf
I0701 07:38:22.039067 11430 net.cpp:395] conv4_3_norm_mbox_conf_scale -> conv4_3_norm_mbox_conf (in-place)
I0701 07:38:22.039086 11430 layer_factory.hpp:77] Creating layer conv4_3_norm_mbox_conf_scale
I0701 07:38:22.039134 11430 net.cpp:150] Setting up conv4_3_norm_mbox_conf_scale
I0701 07:38:22.039139 11430 net.cpp:157] Top shape: 5 24 38 38 (173280)
I0701 07:38:22.039144 11430 net.cpp:165] Memory required for data: 1284477376
I0701 07:38:22.039150 11430 layer_factory.hpp:77] Creating layer conv4_3_norm_mbox_conf_perm
I0701 07:38:22.039155 11430 net.cpp:100] Creating Layer conv4_3_norm_mbox_conf_perm
I0701 07:38:22.039160 11430 net.cpp:434] conv4_3_norm_mbox_conf_perm <- conv4_3_norm_mbox_conf
I0701 07:38:22.039166 11430 net.cpp:408] conv4_3_norm_mbox_conf_perm -> conv4_3_norm_mbox_conf_perm
I0701 07:38:22.039203 11430 net.cpp:150] Setting up conv4_3_norm_mbox_conf_perm
I0701 07:38:22.039209 11430 net.cpp:157] Top shape: 5 38 38 24 (173280)
I0701 07:38:22.039214 11430 net.cpp:165] Memory required for data: 1285170496
I0701 07:38:22.039218 11430 layer_factory.hpp:77] Creating layer conv4_3_norm_mbox_conf_flat
I0701 07:38:22.039224 11430 net.cpp:100] Creating Layer conv4_3_norm_mbox_conf_flat
I0701 07:38:22.039228 11430 net.cpp:434] conv4_3_norm_mbox_conf_flat <- conv4_3_norm_mbox_conf_perm
I0701 07:38:22.039234 11430 net.cpp:408] conv4_3_norm_mbox_conf_flat -> conv4_3_norm_mbox_conf_flat
I0701 07:38:22.039247 11430 net.cpp:150] Setting up conv4_3_norm_mbox_conf_flat
I0701 07:38:22.039252 11430 net.cpp:157] Top shape: 5 34656 (173280)
I0701 07:38:22.039256 11430 net.cpp:165] Memory required for data: 1285863616
I0701 07:38:22.039260 11430 layer_factory.hpp:77] Creating layer conv4_3_norm_mbox_priorbox
I0701 07:38:22.039275 11430 net.cpp:100] Creating Layer conv4_3_norm_mbox_priorbox
I0701 07:38:22.039280 11430 net.cpp:434] conv4_3_norm_mbox_priorbox <- conv4_3_norm_conv4_3_norm_0_split_2
I0701 07:38:22.039286 11430 net.cpp:434] conv4_3_norm_mbox_priorbox <- data_data_0_split_1
I0701 07:38:22.039292 11430 net.cpp:408] conv4_3_norm_mbox_priorbox -> conv4_3_norm_mbox_priorbox
I0701 07:38:22.039309 11430 net.cpp:150] Setting up conv4_3_norm_mbox_priorbox
I0701 07:38:22.039314 11430 net.cpp:157] Top shape: 1 2 69312 (138624)
I0701 07:38:22.039319 11430 net.cpp:165] Memory required for data: 1286418112
I0701 07:38:22.039323 11430 layer_factory.hpp:77] Creating layer fc7_mbox_loc
I0701 07:38:22.039330 11430 net.cpp:100] Creating Layer fc7_mbox_loc
I0701 07:38:22.039335 11430 net.cpp:434] fc7_mbox_loc <- fc7_relu7_0_split_1
I0701 07:38:22.039341 11430 net.cpp:408] fc7_mbox_loc -> fc7_mbox_loc
I0701 07:38:22.042315 11430 net.cpp:150] Setting up fc7_mbox_loc
I0701 07:38:22.042332 11430 net.cpp:157] Top shape: 5 56 19 19 (101080)
I0701 07:38:22.042338 11430 net.cpp:165] Memory required for data: 1286822432
I0701 07:38:22.042344 11430 layer_factory.hpp:77] Creating layer fc7_mbox_loc_bn
I0701 07:38:22.042353 11430 net.cpp:100] Creating Layer fc7_mbox_loc_bn
I0701 07:38:22.042358 11430 net.cpp:434] fc7_mbox_loc_bn <- fc7_mbox_loc
I0701 07:38:22.042364 11430 net.cpp:395] fc7_mbox_loc_bn -> fc7_mbox_loc (in-place)
I0701 07:38:22.042445 11430 net.cpp:150] Setting up fc7_mbox_loc_bn
I0701 07:38:22.042450 11430 net.cpp:157] Top shape: 5 56 19 19 (101080)
I0701 07:38:22.042456 11430 net.cpp:165] Memory required for data: 1287226752
I0701 07:38:22.042462 11430 layer_factory.hpp:77] Creating layer fc7_mbox_loc_scale
I0701 07:38:22.042469 11430 net.cpp:100] Creating Layer fc7_mbox_loc_scale
I0701 07:38:22.042474 11430 net.cpp:434] fc7_mbox_loc_scale <- fc7_mbox_loc
I0701 07:38:22.042495 11430 net.cpp:395] fc7_mbox_loc_scale -> fc7_mbox_loc (in-place)
I0701 07:38:22.042517 11430 layer_factory.hpp:77] Creating layer fc7_mbox_loc_scale
I0701 07:38:22.043171 11430 net.cpp:150] Setting up fc7_mbox_loc_scale
I0701 07:38:22.043179 11430 net.cpp:157] Top shape: 5 56 19 19 (101080)
I0701 07:38:22.043185 11430 net.cpp:165] Memory required for data: 1287631072
I0701 07:38:22.043192 11430 layer_factory.hpp:77] Creating layer fc7_mbox_loc_perm
I0701 07:38:22.043200 11430 net.cpp:100] Creating Layer fc7_mbox_loc_perm
I0701 07:38:22.043205 11430 net.cpp:434] fc7_mbox_loc_perm <- fc7_mbox_loc
I0701 07:38:22.043212 11430 net.cpp:408] fc7_mbox_loc_perm -> fc7_mbox_loc_perm
I0701 07:38:22.043256 11430 net.cpp:150] Setting up fc7_mbox_loc_perm
I0701 07:38:22.043262 11430 net.cpp:157] Top shape: 5 19 19 56 (101080)
I0701 07:38:22.043268 11430 net.cpp:165] Memory required for data: 1288035392
I0701 07:38:22.043272 11430 layer_factory.hpp:77] Creating layer fc7_mbox_loc_flat
I0701 07:38:22.043279 11430 net.cpp:100] Creating Layer fc7_mbox_loc_flat
I0701 07:38:22.043283 11430 net.cpp:434] fc7_mbox_loc_flat <- fc7_mbox_loc_perm
I0701 07:38:22.043289 11430 net.cpp:408] fc7_mbox_loc_flat -> fc7_mbox_loc_flat
I0701 07:38:22.043306 11430 net.cpp:150] Setting up fc7_mbox_loc_flat
I0701 07:38:22.043311 11430 net.cpp:157] Top shape: 5 20216 (101080)
I0701 07:38:22.043318 11430 net.cpp:165] Memory required for data: 1288439712
I0701 07:38:22.043321 11430 layer_factory.hpp:77] Creating layer fc7_mbox_conf
I0701 07:38:22.043329 11430 net.cpp:100] Creating Layer fc7_mbox_conf
I0701 07:38:22.043334 11430 net.cpp:434] fc7_mbox_conf <- fc7_relu7_0_split_2
I0701 07:38:22.043339 11430 net.cpp:408] fc7_mbox_conf -> fc7_mbox_conf
I0701 07:38:22.045521 11430 net.cpp:150] Setting up fc7_mbox_conf
I0701 07:38:22.045534 11430 net.cpp:157] Top shape: 5 28 19 19 (50540)
I0701 07:38:22.045563 11430 net.cpp:165] Memory required for data: 1288641872
I0701 07:38:22.045588 11430 layer_factory.hpp:77] Creating layer fc7_mbox_conf_bn
I0701 07:38:22.045598 11430 net.cpp:100] Creating Layer fc7_mbox_conf_bn
I0701 07:38:22.045603 11430 net.cpp:434] fc7_mbox_conf_bn <- fc7_mbox_conf
I0701 07:38:22.045610 11430 net.cpp:395] fc7_mbox_conf_bn -> fc7_mbox_conf (in-place)
I0701 07:38:22.045740 11430 net.cpp:150] Setting up fc7_mbox_conf_bn
I0701 07:38:22.045758 11430 net.cpp:157] Top shape: 5 28 19 19 (50540)
I0701 07:38:22.045763 11430 net.cpp:165] Memory required for data: 1288844032
I0701 07:38:22.045791 11430 layer_factory.hpp:77] Creating layer fc7_mbox_conf_scale
I0701 07:38:22.045816 11430 net.cpp:100] Creating Layer fc7_mbox_conf_scale
I0701 07:38:22.045822 11430 net.cpp:434] fc7_mbox_conf_scale <- fc7_mbox_conf
I0701 07:38:22.045828 11430 net.cpp:395] fc7_mbox_conf_scale -> fc7_mbox_conf (in-place)
I0701 07:38:22.045876 11430 layer_factory.hpp:77] Creating layer fc7_mbox_conf_scale
I0701 07:38:22.045928 11430 net.cpp:150] Setting up fc7_mbox_conf_scale
I0701 07:38:22.045949 11430 net.cpp:157] Top shape: 5 28 19 19 (50540)
I0701 07:38:22.045954 11430 net.cpp:165] Memory required for data: 1289046192
I0701 07:38:22.045960 11430 layer_factory.hpp:77] Creating layer fc7_mbox_conf_perm
I0701 07:38:22.045967 11430 net.cpp:100] Creating Layer fc7_mbox_conf_perm
I0701 07:38:22.045974 11430 net.cpp:434] fc7_mbox_conf_perm <- fc7_mbox_conf
I0701 07:38:22.045979 11430 net.cpp:408] fc7_mbox_conf_perm -> fc7_mbox_conf_perm
I0701 07:38:22.046032 11430 net.cpp:150] Setting up fc7_mbox_conf_perm
I0701 07:38:22.046043 11430 net.cpp:157] Top shape: 5 19 19 28 (50540)
I0701 07:38:22.046051 11430 net.cpp:165] Memory required for data: 1289248352
I0701 07:38:22.046058 11430 layer_factory.hpp:77] Creating layer fc7_mbox_conf_flat
I0701 07:38:22.046069 11430 net.cpp:100] Creating Layer fc7_mbox_conf_flat
I0701 07:38:22.046099 11430 net.cpp:434] fc7_mbox_conf_flat <- fc7_mbox_conf_perm
I0701 07:38:22.046110 11430 net.cpp:408] fc7_mbox_conf_flat -> fc7_mbox_conf_flat
I0701 07:38:22.046137 11430 net.cpp:150] Setting up fc7_mbox_conf_flat
I0701 07:38:22.046165 11430 net.cpp:157] Top shape: 5 10108 (50540)
I0701 07:38:22.046226 11430 net.cpp:165] Memory required for data: 1289450512
I0701 07:38:22.046252 11430 layer_factory.hpp:77] Creating layer fc7_mbox_priorbox
I0701 07:38:22.046265 11430 net.cpp:100] Creating Layer fc7_mbox_priorbox
I0701 07:38:22.046273 11430 net.cpp:434] fc7_mbox_priorbox <- fc7_relu7_0_split_3
I0701 07:38:22.046281 11430 net.cpp:434] fc7_mbox_priorbox <- data_data_0_split_2
I0701 07:38:22.046290 11430 net.cpp:408] fc7_mbox_priorbox -> fc7_mbox_priorbox
I0701 07:38:22.046319 11430 net.cpp:150] Setting up fc7_mbox_priorbox
I0701 07:38:22.046326 11430 net.cpp:157] Top shape: 1 2 20216 (40432)
I0701 07:38:22.046332 11430 net.cpp:165] Memory required for data: 1289612240
I0701 07:38:22.046336 11430 layer_factory.hpp:77] Creating layer conv6_1_mbox_loc
I0701 07:38:22.046345 11430 net.cpp:100] Creating Layer conv6_1_mbox_loc
I0701 07:38:22.046351 11430 net.cpp:434] conv6_1_mbox_loc <- conv6_1_conv6_1_relu_0_split_1
I0701 07:38:22.046358 11430 net.cpp:408] conv6_1_mbox_loc -> conv6_1_mbox_loc
I0701 07:38:22.046530 11430 net.cpp:150] Setting up conv6_1_mbox_loc
I0701 07:38:22.046537 11430 net.cpp:157] Top shape: 5 56 17 17 (80920)
I0701 07:38:22.046543 11430 net.cpp:165] Memory required for data: 1289935920
I0701 07:38:22.046550 11430 layer_factory.hpp:77] Creating layer conv6_1_mbox_loc_bn
I0701 07:38:22.046556 11430 net.cpp:100] Creating Layer conv6_1_mbox_loc_bn
I0701 07:38:22.046562 11430 net.cpp:434] conv6_1_mbox_loc_bn <- conv6_1_mbox_loc
I0701 07:38:22.046568 11430 net.cpp:395] conv6_1_mbox_loc_bn -> conv6_1_mbox_loc (in-place)
I0701 07:38:22.046645 11430 net.cpp:150] Setting up conv6_1_mbox_loc_bn
I0701 07:38:22.046650 11430 net.cpp:157] Top shape: 5 56 17 17 (80920)
I0701 07:38:22.046656 11430 net.cpp:165] Memory required for data: 1290259600
I0701 07:38:22.046662 11430 layer_factory.hpp:77] Creating layer conv6_1_mbox_loc_scale
I0701 07:38:22.046669 11430 net.cpp:100] Creating Layer conv6_1_mbox_loc_scale
I0701 07:38:22.046674 11430 net.cpp:434] conv6_1_mbox_loc_scale <- conv6_1_mbox_loc
I0701 07:38:22.046680 11430 net.cpp:395] conv6_1_mbox_loc_scale -> conv6_1_mbox_loc (in-place)
I0701 07:38:22.046700 11430 layer_factory.hpp:77] Creating layer conv6_1_mbox_loc_scale
I0701 07:38:22.046748 11430 net.cpp:150] Setting up conv6_1_mbox_loc_scale
I0701 07:38:22.046753 11430 net.cpp:157] Top shape: 5 56 17 17 (80920)
I0701 07:38:22.046758 11430 net.cpp:165] Memory required for data: 1290583280
I0701 07:38:22.046764 11430 layer_factory.hpp:77] Creating layer conv6_1_mbox_loc_perm
I0701 07:38:22.046770 11430 net.cpp:100] Creating Layer conv6_1_mbox_loc_perm
I0701 07:38:22.046775 11430 net.cpp:434] conv6_1_mbox_loc_perm <- conv6_1_mbox_loc
I0701 07:38:22.046782 11430 net.cpp:408] conv6_1_mbox_loc_perm -> conv6_1_mbox_loc_perm
I0701 07:38:22.046820 11430 net.cpp:150] Setting up conv6_1_mbox_loc_perm
I0701 07:38:22.046825 11430 net.cpp:157] Top shape: 5 17 17 56 (80920)
I0701 07:38:22.046831 11430 net.cpp:165] Memory required for data: 1290906960
I0701 07:38:22.046835 11430 layer_factory.hpp:77] Creating layer conv6_1_mbox_loc_flat
I0701 07:38:22.046841 11430 net.cpp:100] Creating Layer conv6_1_mbox_loc_flat
I0701 07:38:22.046845 11430 net.cpp:434] conv6_1_mbox_loc_flat <- conv6_1_mbox_loc_perm
I0701 07:38:22.046851 11430 net.cpp:408] conv6_1_mbox_loc_flat -> conv6_1_mbox_loc_flat
I0701 07:38:22.046864 11430 net.cpp:150] Setting up conv6_1_mbox_loc_flat
I0701 07:38:22.046869 11430 net.cpp:157] Top shape: 5 16184 (80920)
I0701 07:38:22.046873 11430 net.cpp:165] Memory required for data: 1291230640
I0701 07:38:22.046877 11430 layer_factory.hpp:77] Creating layer conv6_1_mbox_conf
I0701 07:38:22.046885 11430 net.cpp:100] Creating Layer conv6_1_mbox_conf
I0701 07:38:22.046890 11430 net.cpp:434] conv6_1_mbox_conf <- conv6_1_conv6_1_relu_0_split_2
I0701 07:38:22.046895 11430 net.cpp:408] conv6_1_mbox_conf -> conv6_1_mbox_conf
I0701 07:38:22.047025 11430 net.cpp:150] Setting up conv6_1_mbox_conf
I0701 07:38:22.047031 11430 net.cpp:157] Top shape: 5 28 17 17 (40460)
I0701 07:38:22.047052 11430 net.cpp:165] Memory required for data: 1291392480
I0701 07:38:22.047058 11430 layer_factory.hpp:77] Creating layer conv6_1_mbox_conf_bn
I0701 07:38:22.047065 11430 net.cpp:100] Creating Layer conv6_1_mbox_conf_bn
I0701 07:38:22.047070 11430 net.cpp:434] conv6_1_mbox_conf_bn <- conv6_1_mbox_conf
I0701 07:38:22.047076 11430 net.cpp:395] conv6_1_mbox_conf_bn -> conv6_1_mbox_conf (in-place)
I0701 07:38:22.047155 11430 net.cpp:150] Setting up conv6_1_mbox_conf_bn
I0701 07:38:22.047160 11430 net.cpp:157] Top shape: 5 28 17 17 (40460)
I0701 07:38:22.047166 11430 net.cpp:165] Memory required for data: 1291554320
I0701 07:38:22.047173 11430 layer_factory.hpp:77] Creating layer conv6_1_mbox_conf_scale
I0701 07:38:22.047180 11430 net.cpp:100] Creating Layer conv6_1_mbox_conf_scale
I0701 07:38:22.047186 11430 net.cpp:434] conv6_1_mbox_conf_scale <- conv6_1_mbox_conf
I0701 07:38:22.047209 11430 net.cpp:395] conv6_1_mbox_conf_scale -> conv6_1_mbox_conf (in-place)
I0701 07:38:22.047228 11430 layer_factory.hpp:77] Creating layer conv6_1_mbox_conf_scale
I0701 07:38:22.047272 11430 net.cpp:150] Setting up conv6_1_mbox_conf_scale
I0701 07:38:22.047278 11430 net.cpp:157] Top shape: 5 28 17 17 (40460)
I0701 07:38:22.047283 11430 net.cpp:165] Memory required for data: 1291716160
I0701 07:38:22.047289 11430 layer_factory.hpp:77] Creating layer conv6_1_mbox_conf_perm
I0701 07:38:22.047294 11430 net.cpp:100] Creating Layer conv6_1_mbox_conf_perm
I0701 07:38:22.047300 11430 net.cpp:434] conv6_1_mbox_conf_perm <- conv6_1_mbox_conf
I0701 07:38:22.047305 11430 net.cpp:408] conv6_1_mbox_conf_perm -> conv6_1_mbox_conf_perm
I0701 07:38:22.047343 11430 net.cpp:150] Setting up conv6_1_mbox_conf_perm
I0701 07:38:22.047348 11430 net.cpp:157] Top shape: 5 17 17 28 (40460)
I0701 07:38:22.047354 11430 net.cpp:165] Memory required for data: 1291878000
I0701 07:38:22.047358 11430 layer_factory.hpp:77] Creating layer conv6_1_mbox_conf_flat
I0701 07:38:22.047364 11430 net.cpp:100] Creating Layer conv6_1_mbox_conf_flat
I0701 07:38:22.047369 11430 net.cpp:434] conv6_1_mbox_conf_flat <- conv6_1_mbox_conf_perm
I0701 07:38:22.047374 11430 net.cpp:408] conv6_1_mbox_conf_flat -> conv6_1_mbox_conf_flat
I0701 07:38:22.047385 11430 net.cpp:150] Setting up conv6_1_mbox_conf_flat
I0701 07:38:22.047390 11430 net.cpp:157] Top shape: 5 8092 (40460)
I0701 07:38:22.047396 11430 net.cpp:165] Memory required for data: 1292039840
I0701 07:38:22.047400 11430 layer_factory.hpp:77] Creating layer conv6_1_mbox_priorbox
I0701 07:38:22.047408 11430 net.cpp:100] Creating Layer conv6_1_mbox_priorbox
I0701 07:38:22.047416 11430 net.cpp:434] conv6_1_mbox_priorbox <- conv6_1_conv6_1_relu_0_split_3
I0701 07:38:22.047422 11430 net.cpp:434] conv6_1_mbox_priorbox <- data_data_0_split_3
I0701 07:38:22.047428 11430 net.cpp:408] conv6_1_mbox_priorbox -> conv6_1_mbox_priorbox
I0701 07:38:22.047442 11430 net.cpp:150] Setting up conv6_1_mbox_priorbox
I0701 07:38:22.047447 11430 net.cpp:157] Top shape: 1 2 16184 (32368)
I0701 07:38:22.047452 11430 net.cpp:165] Memory required for data: 1292169312
I0701 07:38:22.047457 11430 layer_factory.hpp:77] Creating layer pool6_mbox_loc
I0701 07:38:22.047464 11430 net.cpp:100] Creating Layer pool6_mbox_loc
I0701 07:38:22.047470 11430 net.cpp:434] pool6_mbox_loc <- pool6_pool6_0_split_1
I0701 07:38:22.047477 11430 net.cpp:408] pool6_mbox_loc -> pool6_mbox_loc
I0701 07:38:22.047580 11430 net.cpp:150] Setting up pool6_mbox_loc
I0701 07:38:22.047586 11430 net.cpp:157] Top shape: 5 56 16 16 (71680)
I0701 07:38:22.047591 11430 net.cpp:165] Memory required for data: 1292456032
I0701 07:38:22.047597 11430 layer_factory.hpp:77] Creating layer pool6_mbox_loc_bn
I0701 07:38:22.047603 11430 net.cpp:100] Creating Layer pool6_mbox_loc_bn
I0701 07:38:22.047608 11430 net.cpp:434] pool6_mbox_loc_bn <- pool6_mbox_loc
I0701 07:38:22.047614 11430 net.cpp:395] pool6_mbox_loc_bn -> pool6_mbox_loc (in-place)
I0701 07:38:22.047684 11430 net.cpp:150] Setting up pool6_mbox_loc_bn
I0701 07:38:22.047689 11430 net.cpp:157] Top shape: 5 56 16 16 (71680)
I0701 07:38:22.047694 11430 net.cpp:165] Memory required for data: 1292742752
I0701 07:38:22.047715 11430 layer_factory.hpp:77] Creating layer pool6_mbox_loc_scale
I0701 07:38:22.047722 11430 net.cpp:100] Creating Layer pool6_mbox_loc_scale
I0701 07:38:22.047727 11430 net.cpp:434] pool6_mbox_loc_scale <- pool6_mbox_loc
I0701 07:38:22.047734 11430 net.cpp:395] pool6_mbox_loc_scale -> pool6_mbox_loc (in-place)
I0701 07:38:22.047753 11430 layer_factory.hpp:77] Creating layer pool6_mbox_loc_scale
I0701 07:38:22.047797 11430 net.cpp:150] Setting up pool6_mbox_loc_scale
I0701 07:38:22.047803 11430 net.cpp:157] Top shape: 5 56 16 16 (71680)
I0701 07:38:22.047808 11430 net.cpp:165] Memory required for data: 1293029472
I0701 07:38:22.047814 11430 layer_factory.hpp:77] Creating layer pool6_mbox_loc_perm
I0701 07:38:22.047820 11430 net.cpp:100] Creating Layer pool6_mbox_loc_perm
I0701 07:38:22.047825 11430 net.cpp:434] pool6_mbox_loc_perm <- pool6_mbox_loc
I0701 07:38:22.047830 11430 net.cpp:408] pool6_mbox_loc_perm -> pool6_mbox_loc_perm
I0701 07:38:22.047875 11430 net.cpp:150] Setting up pool6_mbox_loc_perm
I0701 07:38:22.047881 11430 net.cpp:157] Top shape: 5 16 16 56 (71680)
I0701 07:38:22.047886 11430 net.cpp:165] Memory required for data: 1293316192
I0701 07:38:22.047891 11430 layer_factory.hpp:77] Creating layer pool6_mbox_loc_flat
I0701 07:38:22.047896 11430 net.cpp:100] Creating Layer pool6_mbox_loc_flat
I0701 07:38:22.047901 11430 net.cpp:434] pool6_mbox_loc_flat <- pool6_mbox_loc_perm
I0701 07:38:22.047906 11430 net.cpp:408] pool6_mbox_loc_flat -> pool6_mbox_loc_flat
I0701 07:38:22.047919 11430 net.cpp:150] Setting up pool6_mbox_loc_flat
I0701 07:38:22.047924 11430 net.cpp:157] Top shape: 5 14336 (71680)
I0701 07:38:22.047928 11430 net.cpp:165] Memory required for data: 1293602912
I0701 07:38:22.047933 11430 layer_factory.hpp:77] Creating layer pool6_mbox_conf
I0701 07:38:22.047940 11430 net.cpp:100] Creating Layer pool6_mbox_conf
I0701 07:38:22.047945 11430 net.cpp:434] pool6_mbox_conf <- pool6_pool6_0_split_2
I0701 07:38:22.047950 11430 net.cpp:408] pool6_mbox_conf -> pool6_mbox_conf
I0701 07:38:22.048125 11430 net.cpp:150] Setting up pool6_mbox_conf
I0701 07:38:22.048135 11430 net.cpp:157] Top shape: 5 28 16 16 (35840)
I0701 07:38:22.048144 11430 net.cpp:165] Memory required for data: 1293746272
I0701 07:38:22.048154 11430 layer_factory.hpp:77] Creating layer pool6_mbox_conf_bn
I0701 07:38:22.048182 11430 net.cpp:100] Creating Layer pool6_mbox_conf_bn
I0701 07:38:22.048193 11430 net.cpp:434] pool6_mbox_conf_bn <- pool6_mbox_conf
I0701 07:38:22.048204 11430 net.cpp:395] pool6_mbox_conf_bn -> pool6_mbox_conf (in-place)
I0701 07:38:22.048336 11430 net.cpp:150] Setting up pool6_mbox_conf_bn
I0701 07:38:22.048344 11430 net.cpp:157] Top shape: 5 28 16 16 (35840)
I0701 07:38:22.048355 11430 net.cpp:165] Memory required for data: 1293889632
I0701 07:38:22.048385 11430 layer_factory.hpp:77] Creating layer pool6_mbox_conf_scale
I0701 07:38:22.048395 11430 net.cpp:100] Creating Layer pool6_mbox_conf_scale
I0701 07:38:22.048404 11430 net.cpp:434] pool6_mbox_conf_scale <- pool6_mbox_conf
I0701 07:38:22.048414 11430 net.cpp:395] pool6_mbox_conf_scale -> pool6_mbox_conf (in-place)
I0701 07:38:22.048446 11430 layer_factory.hpp:77] Creating layer pool6_mbox_conf_scale
I0701 07:38:22.048532 11430 net.cpp:150] Setting up pool6_mbox_conf_scale
I0701 07:38:22.048564 11430 net.cpp:157] Top shape: 5 28 16 16 (35840)
I0701 07:38:22.048591 11430 net.cpp:165] Memory required for data: 1294032992
I0701 07:38:22.048597 11430 layer_factory.hpp:77] Creating layer pool6_mbox_conf_perm
I0701 07:38:22.048604 11430 net.cpp:100] Creating Layer pool6_mbox_conf_perm
I0701 07:38:22.048609 11430 net.cpp:434] pool6_mbox_conf_perm <- pool6_mbox_conf
I0701 07:38:22.048615 11430 net.cpp:408] pool6_mbox_conf_perm -> pool6_mbox_conf_perm
I0701 07:38:22.048656 11430 net.cpp:150] Setting up pool6_mbox_conf_perm
I0701 07:38:22.048678 11430 net.cpp:157] Top shape: 5 16 16 28 (35840)
I0701 07:38:22.048684 11430 net.cpp:165] Memory required for data: 1294176352
I0701 07:38:22.048689 11430 layer_factory.hpp:77] Creating layer pool6_mbox_conf_flat
I0701 07:38:22.048709 11430 net.cpp:100] Creating Layer pool6_mbox_conf_flat
I0701 07:38:22.048714 11430 net.cpp:434] pool6_mbox_conf_flat <- pool6_mbox_conf_perm
I0701 07:38:22.048720 11430 net.cpp:408] pool6_mbox_conf_flat -> pool6_mbox_conf_flat
I0701 07:38:22.048734 11430 net.cpp:150] Setting up pool6_mbox_conf_flat
I0701 07:38:22.048739 11430 net.cpp:157] Top shape: 5 7168 (35840)
I0701 07:38:22.048745 11430 net.cpp:165] Memory required for data: 1294319712
I0701 07:38:22.048749 11430 layer_factory.hpp:77] Creating layer pool6_mbox_priorbox
I0701 07:38:22.048755 11430 net.cpp:100] Creating Layer pool6_mbox_priorbox
I0701 07:38:22.048760 11430 net.cpp:434] pool6_mbox_priorbox <- pool6_pool6_0_split_3
I0701 07:38:22.048765 11430 net.cpp:434] pool6_mbox_priorbox <- data_data_0_split_4
I0701 07:38:22.048772 11430 net.cpp:408] pool6_mbox_priorbox -> pool6_mbox_priorbox
I0701 07:38:22.048785 11430 net.cpp:150] Setting up pool6_mbox_priorbox
I0701 07:38:22.048790 11430 net.cpp:157] Top shape: 1 2 14336 (28672)
I0701 07:38:22.048796 11430 net.cpp:165] Memory required for data: 1294434400
I0701 07:38:22.048800 11430 layer_factory.hpp:77] Creating layer conv7_1_mbox_loc
I0701 07:38:22.048807 11430 net.cpp:100] Creating Layer conv7_1_mbox_loc
I0701 07:38:22.048812 11430 net.cpp:434] conv7_1_mbox_loc <- conv7_1_conv7_1_relu_0_split_1
I0701 07:38:22.048818 11430 net.cpp:408] conv7_1_mbox_loc -> conv7_1_mbox_loc
I0701 07:38:22.048957 11430 net.cpp:150] Setting up conv7_1_mbox_loc
I0701 07:38:22.048964 11430 net.cpp:157] Top shape: 5 56 14 14 (54880)
I0701 07:38:22.048969 11430 net.cpp:165] Memory required for data: 1294653920
I0701 07:38:22.048974 11430 layer_factory.hpp:77] Creating layer conv7_1_mbox_loc_bn
I0701 07:38:22.048982 11430 net.cpp:100] Creating Layer conv7_1_mbox_loc_bn
I0701 07:38:22.048987 11430 net.cpp:434] conv7_1_mbox_loc_bn <- conv7_1_mbox_loc
I0701 07:38:22.048993 11430 net.cpp:395] conv7_1_mbox_loc_bn -> conv7_1_mbox_loc (in-place)
I0701 07:38:22.049070 11430 net.cpp:150] Setting up conv7_1_mbox_loc_bn
I0701 07:38:22.049077 11430 net.cpp:157] Top shape: 5 56 14 14 (54880)
I0701 07:38:22.049082 11430 net.cpp:165] Memory required for data: 1294873440
I0701 07:38:22.049088 11430 layer_factory.hpp:77] Creating layer conv7_1_mbox_loc_scale
I0701 07:38:22.049095 11430 net.cpp:100] Creating Layer conv7_1_mbox_loc_scale
I0701 07:38:22.049100 11430 net.cpp:434] conv7_1_mbox_loc_scale <- conv7_1_mbox_loc
I0701 07:38:22.049105 11430 net.cpp:395] conv7_1_mbox_loc_scale -> conv7_1_mbox_loc (in-place)
I0701 07:38:22.049125 11430 layer_factory.hpp:77] Creating layer conv7_1_mbox_loc_scale
I0701 07:38:22.049171 11430 net.cpp:150] Setting up conv7_1_mbox_loc_scale
I0701 07:38:22.049177 11430 net.cpp:157] Top shape: 5 56 14 14 (54880)
I0701 07:38:22.049182 11430 net.cpp:165] Memory required for data: 1295092960
I0701 07:38:22.049188 11430 layer_factory.hpp:77] Creating layer conv7_1_mbox_loc_perm
I0701 07:38:22.049194 11430 net.cpp:100] Creating Layer conv7_1_mbox_loc_perm
I0701 07:38:22.049199 11430 net.cpp:434] conv7_1_mbox_loc_perm <- conv7_1_mbox_loc
I0701 07:38:22.049206 11430 net.cpp:408] conv7_1_mbox_loc_perm -> conv7_1_mbox_loc_perm
I0701 07:38:22.049244 11430 net.cpp:150] Setting up conv7_1_mbox_loc_perm
I0701 07:38:22.049249 11430 net.cpp:157] Top shape: 5 14 14 56 (54880)
I0701 07:38:22.049254 11430 net.cpp:165] Memory required for data: 1295312480
I0701 07:38:22.049259 11430 layer_factory.hpp:77] Creating layer conv7_1_mbox_loc_flat
I0701 07:38:22.049264 11430 net.cpp:100] Creating Layer conv7_1_mbox_loc_flat
I0701 07:38:22.049269 11430 net.cpp:434] conv7_1_mbox_loc_flat <- conv7_1_mbox_loc_perm
I0701 07:38:22.049274 11430 net.cpp:408] conv7_1_mbox_loc_flat -> conv7_1_mbox_loc_flat
I0701 07:38:22.049286 11430 net.cpp:150] Setting up conv7_1_mbox_loc_flat
I0701 07:38:22.049291 11430 net.cpp:157] Top shape: 5 10976 (54880)
I0701 07:38:22.049296 11430 net.cpp:165] Memory required for data: 1295532000
I0701 07:38:22.049301 11430 layer_factory.hpp:77] Creating layer conv7_1_mbox_conf
I0701 07:38:22.049319 11430 net.cpp:100] Creating Layer conv7_1_mbox_conf
I0701 07:38:22.049324 11430 net.cpp:434] conv7_1_mbox_conf <- conv7_1_conv7_1_relu_0_split_2
I0701 07:38:22.049331 11430 net.cpp:408] conv7_1_mbox_conf -> conv7_1_mbox_conf
I0701 07:38:22.049471 11430 net.cpp:150] Setting up conv7_1_mbox_conf
I0701 07:38:22.049477 11430 net.cpp:157] Top shape: 5 28 14 14 (27440)
I0701 07:38:22.049484 11430 net.cpp:165] Memory required for data: 1295641760
I0701 07:38:22.049489 11430 layer_factory.hpp:77] Creating layer conv7_1_mbox_conf_bn
I0701 07:38:22.049496 11430 net.cpp:100] Creating Layer conv7_1_mbox_conf_bn
I0701 07:38:22.049501 11430 net.cpp:434] conv7_1_mbox_conf_bn <- conv7_1_mbox_conf
I0701 07:38:22.049507 11430 net.cpp:395] conv7_1_mbox_conf_bn -> conv7_1_mbox_conf (in-place)
I0701 07:38:22.049595 11430 net.cpp:150] Setting up conv7_1_mbox_conf_bn
I0701 07:38:22.049600 11430 net.cpp:157] Top shape: 5 28 14 14 (27440)
I0701 07:38:22.049607 11430 net.cpp:165] Memory required for data: 1295751520
I0701 07:38:22.049612 11430 layer_factory.hpp:77] Creating layer conv7_1_mbox_conf_scale
I0701 07:38:22.049619 11430 net.cpp:100] Creating Layer conv7_1_mbox_conf_scale
I0701 07:38:22.049624 11430 net.cpp:434] conv7_1_mbox_conf_scale <- conv7_1_mbox_conf
I0701 07:38:22.049630 11430 net.cpp:395] conv7_1_mbox_conf_scale -> conv7_1_mbox_conf (in-place)
I0701 07:38:22.049649 11430 layer_factory.hpp:77] Creating layer conv7_1_mbox_conf_scale
I0701 07:38:22.049696 11430 net.cpp:150] Setting up conv7_1_mbox_conf_scale
I0701 07:38:22.049701 11430 net.cpp:157] Top shape: 5 28 14 14 (27440)
I0701 07:38:22.049707 11430 net.cpp:165] Memory required for data: 1295861280
I0701 07:38:22.049712 11430 layer_factory.hpp:77] Creating layer conv7_1_mbox_conf_perm
I0701 07:38:22.049718 11430 net.cpp:100] Creating Layer conv7_1_mbox_conf_perm
I0701 07:38:22.049724 11430 net.cpp:434] conv7_1_mbox_conf_perm <- conv7_1_mbox_conf
I0701 07:38:22.049729 11430 net.cpp:408] conv7_1_mbox_conf_perm -> conv7_1_mbox_conf_perm
I0701 07:38:22.049767 11430 net.cpp:150] Setting up conv7_1_mbox_conf_perm
I0701 07:38:22.049772 11430 net.cpp:157] Top shape: 5 14 14 28 (27440)
I0701 07:38:22.049777 11430 net.cpp:165] Memory required for data: 1295971040
I0701 07:38:22.049782 11430 layer_factory.hpp:77] Creating layer conv7_1_mbox_conf_flat
I0701 07:38:22.049788 11430 net.cpp:100] Creating Layer conv7_1_mbox_conf_flat
I0701 07:38:22.049793 11430 net.cpp:434] conv7_1_mbox_conf_flat <- conv7_1_mbox_conf_perm
I0701 07:38:22.049798 11430 net.cpp:408] conv7_1_mbox_conf_flat -> conv7_1_mbox_conf_flat
I0701 07:38:22.049810 11430 net.cpp:150] Setting up conv7_1_mbox_conf_flat
I0701 07:38:22.049815 11430 net.cpp:157] Top shape: 5 5488 (27440)
I0701 07:38:22.049820 11430 net.cpp:165] Memory required for data: 1296080800
I0701 07:38:22.049825 11430 layer_factory.hpp:77] Creating layer conv7_1_mbox_priorbox
I0701 07:38:22.049830 11430 net.cpp:100] Creating Layer conv7_1_mbox_priorbox
I0701 07:38:22.049835 11430 net.cpp:434] conv7_1_mbox_priorbox <- conv7_1_conv7_1_relu_0_split_3
I0701 07:38:22.049840 11430 net.cpp:434] conv7_1_mbox_priorbox <- data_data_0_split_5
I0701 07:38:22.049846 11430 net.cpp:408] conv7_1_mbox_priorbox -> conv7_1_mbox_priorbox
I0701 07:38:22.049860 11430 net.cpp:150] Setting up conv7_1_mbox_priorbox
I0701 07:38:22.049865 11430 net.cpp:157] Top shape: 1 2 10976 (21952)
I0701 07:38:22.049870 11430 net.cpp:165] Memory required for data: 1296168608
I0701 07:38:22.049875 11430 layer_factory.hpp:77] Creating layer pool7_mbox_loc
I0701 07:38:22.049880 11430 net.cpp:100] Creating Layer pool7_mbox_loc
I0701 07:38:22.049885 11430 net.cpp:434] pool7_mbox_loc <- pool7_pool7_0_split_1
I0701 07:38:22.049891 11430 net.cpp:408] pool7_mbox_loc -> pool7_mbox_loc
I0701 07:38:22.050029 11430 net.cpp:150] Setting up pool7_mbox_loc
I0701 07:38:22.050034 11430 net.cpp:157] Top shape: 5 56 13 13 (47320)
I0701 07:38:22.050040 11430 net.cpp:165] Memory required for data: 1296357888
I0701 07:38:22.050045 11430 layer_factory.hpp:77] Creating layer pool7_mbox_loc_bn
I0701 07:38:22.050063 11430 net.cpp:100] Creating Layer pool7_mbox_loc_bn
I0701 07:38:22.050068 11430 net.cpp:434] pool7_mbox_loc_bn <- pool7_mbox_loc
I0701 07:38:22.050076 11430 net.cpp:395] pool7_mbox_loc_bn -> pool7_mbox_loc (in-place)
I0701 07:38:22.050155 11430 net.cpp:150] Setting up pool7_mbox_loc_bn
I0701 07:38:22.050160 11430 net.cpp:157] Top shape: 5 56 13 13 (47320)
I0701 07:38:22.050166 11430 net.cpp:165] Memory required for data: 1296547168
I0701 07:38:22.050176 11430 layer_factory.hpp:77] Creating layer pool7_mbox_loc_scale
I0701 07:38:22.050184 11430 net.cpp:100] Creating Layer pool7_mbox_loc_scale
I0701 07:38:22.050189 11430 net.cpp:434] pool7_mbox_loc_scale <- pool7_mbox_loc
I0701 07:38:22.050194 11430 net.cpp:395] pool7_mbox_loc_scale -> pool7_mbox_loc (in-place)
I0701 07:38:22.050213 11430 layer_factory.hpp:77] Creating layer pool7_mbox_loc_scale
I0701 07:38:22.050258 11430 net.cpp:150] Setting up pool7_mbox_loc_scale
I0701 07:38:22.050263 11430 net.cpp:157] Top shape: 5 56 13 13 (47320)
I0701 07:38:22.050269 11430 net.cpp:165] Memory required for data: 1296736448
I0701 07:38:22.050274 11430 layer_factory.hpp:77] Creating layer pool7_mbox_loc_perm
I0701 07:38:22.050282 11430 net.cpp:100] Creating Layer pool7_mbox_loc_perm
I0701 07:38:22.050287 11430 net.cpp:434] pool7_mbox_loc_perm <- pool7_mbox_loc
I0701 07:38:22.050292 11430 net.cpp:408] pool7_mbox_loc_perm -> pool7_mbox_loc_perm
I0701 07:38:22.050329 11430 net.cpp:150] Setting up pool7_mbox_loc_perm
I0701 07:38:22.050335 11430 net.cpp:157] Top shape: 5 13 13 56 (47320)
I0701 07:38:22.050340 11430 net.cpp:165] Memory required for data: 1296925728
I0701 07:38:22.050345 11430 layer_factory.hpp:77] Creating layer pool7_mbox_loc_flat
I0701 07:38:22.050350 11430 net.cpp:100] Creating Layer pool7_mbox_loc_flat
I0701 07:38:22.050355 11430 net.cpp:434] pool7_mbox_loc_flat <- pool7_mbox_loc_perm
I0701 07:38:22.050361 11430 net.cpp:408] pool7_mbox_loc_flat -> pool7_mbox_loc_flat
I0701 07:38:22.050374 11430 net.cpp:150] Setting up pool7_mbox_loc_flat
I0701 07:38:22.050379 11430 net.cpp:157] Top shape: 5 9464 (47320)
I0701 07:38:22.050383 11430 net.cpp:165] Memory required for data: 1297115008
I0701 07:38:22.050388 11430 layer_factory.hpp:77] Creating layer pool7_mbox_conf
I0701 07:38:22.050395 11430 net.cpp:100] Creating Layer pool7_mbox_conf
I0701 07:38:22.050400 11430 net.cpp:434] pool7_mbox_conf <- pool7_pool7_0_split_2
I0701 07:38:22.050405 11430 net.cpp:408] pool7_mbox_conf -> pool7_mbox_conf
I0701 07:38:22.050508 11430 net.cpp:150] Setting up pool7_mbox_conf
I0701 07:38:22.050513 11430 net.cpp:157] Top shape: 5 28 13 13 (23660)
I0701 07:38:22.050519 11430 net.cpp:165] Memory required for data: 1297209648
I0701 07:38:22.050524 11430 layer_factory.hpp:77] Creating layer pool7_mbox_conf_bn
I0701 07:38:22.050530 11430 net.cpp:100] Creating Layer pool7_mbox_conf_bn
I0701 07:38:22.050535 11430 net.cpp:434] pool7_mbox_conf_bn <- pool7_mbox_conf
I0701 07:38:22.050541 11430 net.cpp:395] pool7_mbox_conf_bn -> pool7_mbox_conf (in-place)
I0701 07:38:22.050632 11430 net.cpp:150] Setting up pool7_mbox_conf_bn
I0701 07:38:22.050638 11430 net.cpp:157] Top shape: 5 28 13 13 (23660)
I0701 07:38:22.050658 11430 net.cpp:165] Memory required for data: 1297304288
I0701 07:38:22.050665 11430 layer_factory.hpp:77] Creating layer pool7_mbox_conf_scale
I0701 07:38:22.050673 11430 net.cpp:100] Creating Layer pool7_mbox_conf_scale
I0701 07:38:22.050678 11430 net.cpp:434] pool7_mbox_conf_scale <- pool7_mbox_conf
I0701 07:38:22.050683 11430 net.cpp:395] pool7_mbox_conf_scale -> pool7_mbox_conf (in-place)
I0701 07:38:22.050702 11430 layer_factory.hpp:77] Creating layer pool7_mbox_conf_scale
I0701 07:38:22.050748 11430 net.cpp:150] Setting up pool7_mbox_conf_scale
I0701 07:38:22.050755 11430 net.cpp:157] Top shape: 5 28 13 13 (23660)
I0701 07:38:22.050760 11430 net.cpp:165] Memory required for data: 1297398928
I0701 07:38:22.050765 11430 layer_factory.hpp:77] Creating layer pool7_mbox_conf_perm
I0701 07:38:22.050771 11430 net.cpp:100] Creating Layer pool7_mbox_conf_perm
I0701 07:38:22.050788 11430 net.cpp:434] pool7_mbox_conf_perm <- pool7_mbox_conf
I0701 07:38:22.050796 11430 net.cpp:408] pool7_mbox_conf_perm -> pool7_mbox_conf_perm
I0701 07:38:22.050853 11430 net.cpp:150] Setting up pool7_mbox_conf_perm
I0701 07:38:22.050875 11430 net.cpp:157] Top shape: 5 13 13 28 (23660)
I0701 07:38:22.050884 11430 net.cpp:165] Memory required for data: 1297493568
I0701 07:38:22.050890 11430 layer_factory.hpp:77] Creating layer pool7_mbox_conf_flat
I0701 07:38:22.050899 11430 net.cpp:100] Creating Layer pool7_mbox_conf_flat
I0701 07:38:22.050906 11430 net.cpp:434] pool7_mbox_conf_flat <- pool7_mbox_conf_perm
I0701 07:38:22.050915 11430 net.cpp:408] pool7_mbox_conf_flat -> pool7_mbox_conf_flat
I0701 07:38:22.050933 11430 net.cpp:150] Setting up pool7_mbox_conf_flat
I0701 07:38:22.050940 11430 net.cpp:157] Top shape: 5 4732 (23660)
I0701 07:38:22.050948 11430 net.cpp:165] Memory required for data: 1297588208
I0701 07:38:22.050956 11430 layer_factory.hpp:77] Creating layer pool7_mbox_priorbox
I0701 07:38:22.050964 11430 net.cpp:100] Creating Layer pool7_mbox_priorbox
I0701 07:38:22.050971 11430 net.cpp:434] pool7_mbox_priorbox <- pool7_pool7_0_split_3
I0701 07:38:22.050976 11430 net.cpp:434] pool7_mbox_priorbox <- data_data_0_split_6
I0701 07:38:22.050981 11430 net.cpp:408] pool7_mbox_priorbox -> pool7_mbox_priorbox
I0701 07:38:22.050997 11430 net.cpp:150] Setting up pool7_mbox_priorbox
I0701 07:38:22.051002 11430 net.cpp:157] Top shape: 1 2 9464 (18928)
I0701 07:38:22.051007 11430 net.cpp:165] Memory required for data: 1297663920
I0701 07:38:22.051012 11430 layer_factory.hpp:77] Creating layer conv8_1_mbox_loc
I0701 07:38:22.051018 11430 net.cpp:100] Creating Layer conv8_1_mbox_loc
I0701 07:38:22.051024 11430 net.cpp:434] conv8_1_mbox_loc <- conv8_1_conv8_1_relu_0_split_1
I0701 07:38:22.051030 11430 net.cpp:408] conv8_1_mbox_loc -> conv8_1_mbox_loc
I0701 07:38:22.051820 11430 net.cpp:150] Setting up conv8_1_mbox_loc
I0701 07:38:22.051829 11430 net.cpp:157] Top shape: 5 56 11 11 (33880)
I0701 07:38:22.051836 11430 net.cpp:165] Memory required for data: 1297799440
I0701 07:38:22.051841 11430 layer_factory.hpp:77] Creating layer conv8_1_mbox_loc_bn
I0701 07:38:22.051849 11430 net.cpp:100] Creating Layer conv8_1_mbox_loc_bn
I0701 07:38:22.051856 11430 net.cpp:434] conv8_1_mbox_loc_bn <- conv8_1_mbox_loc
I0701 07:38:22.051863 11430 net.cpp:395] conv8_1_mbox_loc_bn -> conv8_1_mbox_loc (in-place)
I0701 07:38:22.051993 11430 net.cpp:150] Setting up conv8_1_mbox_loc_bn
I0701 07:38:22.051999 11430 net.cpp:157] Top shape: 5 56 11 11 (33880)
I0701 07:38:22.052006 11430 net.cpp:165] Memory required for data: 1297934960
I0701 07:38:22.052012 11430 layer_factory.hpp:77] Creating layer conv8_1_mbox_loc_scale
I0701 07:38:22.052019 11430 net.cpp:100] Creating Layer conv8_1_mbox_loc_scale
I0701 07:38:22.052024 11430 net.cpp:434] conv8_1_mbox_loc_scale <- conv8_1_mbox_loc
I0701 07:38:22.052029 11430 net.cpp:395] conv8_1_mbox_loc_scale -> conv8_1_mbox_loc (in-place)
I0701 07:38:22.052052 11430 layer_factory.hpp:77] Creating layer conv8_1_mbox_loc_scale
I0701 07:38:22.052099 11430 net.cpp:150] Setting up conv8_1_mbox_loc_scale
I0701 07:38:22.052105 11430 net.cpp:157] Top shape: 5 56 11 11 (33880)
I0701 07:38:22.052110 11430 net.cpp:165] Memory required for data: 1298070480
I0701 07:38:22.052116 11430 layer_factory.hpp:77] Creating layer conv8_1_mbox_loc_perm
I0701 07:38:22.052122 11430 net.cpp:100] Creating Layer conv8_1_mbox_loc_perm
I0701 07:38:22.052127 11430 net.cpp:434] conv8_1_mbox_loc_perm <- conv8_1_mbox_loc
I0701 07:38:22.052134 11430 net.cpp:408] conv8_1_mbox_loc_perm -> conv8_1_mbox_loc_perm
I0701 07:38:22.052174 11430 net.cpp:150] Setting up conv8_1_mbox_loc_perm
I0701 07:38:22.052179 11430 net.cpp:157] Top shape: 5 11 11 56 (33880)
I0701 07:38:22.052186 11430 net.cpp:165] Memory required for data: 1298206000
I0701 07:38:22.052189 11430 layer_factory.hpp:77] Creating layer conv8_1_mbox_loc_flat
I0701 07:38:22.052196 11430 net.cpp:100] Creating Layer conv8_1_mbox_loc_flat
I0701 07:38:22.052201 11430 net.cpp:434] conv8_1_mbox_loc_flat <- conv8_1_mbox_loc_perm
I0701 07:38:22.052276 11430 net.cpp:408] conv8_1_mbox_loc_flat -> conv8_1_mbox_loc_flat
I0701 07:38:22.052291 11430 net.cpp:150] Setting up conv8_1_mbox_loc_flat
I0701 07:38:22.052296 11430 net.cpp:157] Top shape: 5 6776 (33880)
I0701 07:38:22.052302 11430 net.cpp:165] Memory required for data: 1298341520
I0701 07:38:22.052306 11430 layer_factory.hpp:77] Creating layer conv8_1_mbox_conf
I0701 07:38:22.052313 11430 net.cpp:100] Creating Layer conv8_1_mbox_conf
I0701 07:38:22.052318 11430 net.cpp:434] conv8_1_mbox_conf <- conv8_1_conv8_1_relu_0_split_2
I0701 07:38:22.052325 11430 net.cpp:408] conv8_1_mbox_conf -> conv8_1_mbox_conf
I0701 07:38:22.052558 11430 net.cpp:150] Setting up conv8_1_mbox_conf
I0701 07:38:22.052565 11430 net.cpp:157] Top shape: 5 28 11 11 (16940)
I0701 07:38:22.052584 11430 net.cpp:165] Memory required for data: 1298409280
I0701 07:38:22.052604 11430 layer_factory.hpp:77] Creating layer conv8_1_mbox_conf_bn
I0701 07:38:22.052625 11430 net.cpp:100] Creating Layer conv8_1_mbox_conf_bn
I0701 07:38:22.052630 11430 net.cpp:434] conv8_1_mbox_conf_bn <- conv8_1_mbox_conf
I0701 07:38:22.052635 11430 net.cpp:395] conv8_1_mbox_conf_bn -> conv8_1_mbox_conf (in-place)
I0701 07:38:22.052727 11430 net.cpp:150] Setting up conv8_1_mbox_conf_bn
I0701 07:38:22.052732 11430 net.cpp:157] Top shape: 5 28 11 11 (16940)
I0701 07:38:22.052752 11430 net.cpp:165] Memory required for data: 1298477040
I0701 07:38:22.052758 11430 layer_factory.hpp:77] Creating layer conv8_1_mbox_conf_scale
I0701 07:38:22.052764 11430 net.cpp:100] Creating Layer conv8_1_mbox_conf_scale
I0701 07:38:22.052769 11430 net.cpp:434] conv8_1_mbox_conf_scale <- conv8_1_mbox_conf
I0701 07:38:22.052775 11430 net.cpp:395] conv8_1_mbox_conf_scale -> conv8_1_mbox_conf (in-place)
I0701 07:38:22.052794 11430 layer_factory.hpp:77] Creating layer conv8_1_mbox_conf_scale
I0701 07:38:22.052870 11430 net.cpp:150] Setting up conv8_1_mbox_conf_scale
I0701 07:38:22.052875 11430 net.cpp:157] Top shape: 5 28 11 11 (16940)
I0701 07:38:22.052881 11430 net.cpp:165] Memory required for data: 1298544800
I0701 07:38:22.052901 11430 layer_factory.hpp:77] Creating layer conv8_1_mbox_conf_perm
I0701 07:38:22.052906 11430 net.cpp:100] Creating Layer conv8_1_mbox_conf_perm
I0701 07:38:22.052911 11430 net.cpp:434] conv8_1_mbox_conf_perm <- conv8_1_mbox_conf
I0701 07:38:22.052917 11430 net.cpp:408] conv8_1_mbox_conf_perm -> conv8_1_mbox_conf_perm
I0701 07:38:22.052955 11430 net.cpp:150] Setting up conv8_1_mbox_conf_perm
I0701 07:38:22.052960 11430 net.cpp:157] Top shape: 5 11 11 28 (16940)
I0701 07:38:22.052965 11430 net.cpp:165] Memory required for data: 1298612560
I0701 07:38:22.052970 11430 layer_factory.hpp:77] Creating layer conv8_1_mbox_conf_flat
I0701 07:38:22.052995 11430 net.cpp:100] Creating Layer conv8_1_mbox_conf_flat
I0701 07:38:22.052999 11430 net.cpp:434] conv8_1_mbox_conf_flat <- conv8_1_mbox_conf_perm
I0701 07:38:22.053005 11430 net.cpp:408] conv8_1_mbox_conf_flat -> conv8_1_mbox_conf_flat
I0701 07:38:22.053018 11430 net.cpp:150] Setting up conv8_1_mbox_conf_flat
I0701 07:38:22.053037 11430 net.cpp:157] Top shape: 5 3388 (16940)
I0701 07:38:22.053042 11430 net.cpp:165] Memory required for data: 1298680320
I0701 07:38:22.053047 11430 layer_factory.hpp:77] Creating layer conv8_1_mbox_priorbox
I0701 07:38:22.053053 11430 net.cpp:100] Creating Layer conv8_1_mbox_priorbox
I0701 07:38:22.053058 11430 net.cpp:434] conv8_1_mbox_priorbox <- conv8_1_conv8_1_relu_0_split_3
I0701 07:38:22.053063 11430 net.cpp:434] conv8_1_mbox_priorbox <- data_data_0_split_7
I0701 07:38:22.053071 11430 net.cpp:408] conv8_1_mbox_priorbox -> conv8_1_mbox_priorbox
I0701 07:38:22.053083 11430 net.cpp:150] Setting up conv8_1_mbox_priorbox
I0701 07:38:22.053089 11430 net.cpp:157] Top shape: 1 2 6776 (13552)
I0701 07:38:22.053094 11430 net.cpp:165] Memory required for data: 1298734528
I0701 07:38:22.053099 11430 layer_factory.hpp:77] Creating layer pool8_mbox_loc
I0701 07:38:22.053107 11430 net.cpp:100] Creating Layer pool8_mbox_loc
I0701 07:38:22.053112 11430 net.cpp:434] pool8_mbox_loc <- pool8_pool8_0_split_1
I0701 07:38:22.053133 11430 net.cpp:408] pool8_mbox_loc -> pool8_mbox_loc
I0701 07:38:22.053359 11430 net.cpp:150] Setting up pool8_mbox_loc
I0701 07:38:22.053364 11430 net.cpp:157] Top shape: 5 56 10 10 (28000)
I0701 07:38:22.053370 11430 net.cpp:165] Memory required for data: 1298846528
I0701 07:38:22.053375 11430 layer_factory.hpp:77] Creating layer pool8_mbox_loc_bn
I0701 07:38:22.053381 11430 net.cpp:100] Creating Layer pool8_mbox_loc_bn
I0701 07:38:22.053387 11430 net.cpp:434] pool8_mbox_loc_bn <- pool8_mbox_loc
I0701 07:38:22.053393 11430 net.cpp:395] pool8_mbox_loc_bn -> pool8_mbox_loc (in-place)
I0701 07:38:22.053467 11430 net.cpp:150] Setting up pool8_mbox_loc_bn
I0701 07:38:22.053472 11430 net.cpp:157] Top shape: 5 56 10 10 (28000)
I0701 07:38:22.053478 11430 net.cpp:165] Memory required for data: 1298958528
I0701 07:38:22.053483 11430 layer_factory.hpp:77] Creating layer pool8_mbox_loc_scale
I0701 07:38:22.053490 11430 net.cpp:100] Creating Layer pool8_mbox_loc_scale
I0701 07:38:22.053495 11430 net.cpp:434] pool8_mbox_loc_scale <- pool8_mbox_loc
I0701 07:38:22.053501 11430 net.cpp:395] pool8_mbox_loc_scale -> pool8_mbox_loc (in-place)
I0701 07:38:22.053519 11430 layer_factory.hpp:77] Creating layer pool8_mbox_loc_scale
I0701 07:38:22.053565 11430 net.cpp:150] Setting up pool8_mbox_loc_scale
I0701 07:38:22.053570 11430 net.cpp:157] Top shape: 5 56 10 10 (28000)
I0701 07:38:22.053575 11430 net.cpp:165] Memory required for data: 1299070528
I0701 07:38:22.053582 11430 layer_factory.hpp:77] Creating layer pool8_mbox_loc_perm
I0701 07:38:22.053588 11430 net.cpp:100] Creating Layer pool8_mbox_loc_perm
I0701 07:38:22.053593 11430 net.cpp:434] pool8_mbox_loc_perm <- pool8_mbox_loc
I0701 07:38:22.053599 11430 net.cpp:408] pool8_mbox_loc_perm -> pool8_mbox_loc_perm
I0701 07:38:22.053637 11430 net.cpp:150] Setting up pool8_mbox_loc_perm
I0701 07:38:22.053642 11430 net.cpp:157] Top shape: 5 10 10 56 (28000)
I0701 07:38:22.053647 11430 net.cpp:165] Memory required for data: 1299182528
I0701 07:38:22.053653 11430 layer_factory.hpp:77] Creating layer pool8_mbox_loc_flat
I0701 07:38:22.053658 11430 net.cpp:100] Creating Layer pool8_mbox_loc_flat
I0701 07:38:22.053663 11430 net.cpp:434] pool8_mbox_loc_flat <- pool8_mbox_loc_perm
I0701 07:38:22.053668 11430 net.cpp:408] pool8_mbox_loc_flat -> pool8_mbox_loc_flat
I0701 07:38:22.053679 11430 net.cpp:150] Setting up pool8_mbox_loc_flat
I0701 07:38:22.053684 11430 net.cpp:157] Top shape: 5 5600 (28000)
I0701 07:38:22.053689 11430 net.cpp:165] Memory required for data: 1299294528
I0701 07:38:22.053694 11430 layer_factory.hpp:77] Creating layer pool8_mbox_conf
I0701 07:38:22.053700 11430 net.cpp:100] Creating Layer pool8_mbox_conf
I0701 07:38:22.053705 11430 net.cpp:434] pool8_mbox_conf <- pool8_pool8_0_split_2
I0701 07:38:22.053711 11430 net.cpp:408] pool8_mbox_conf -> pool8_mbox_conf
I0701 07:38:22.053849 11430 net.cpp:150] Setting up pool8_mbox_conf
I0701 07:38:22.053854 11430 net.cpp:157] Top shape: 5 28 10 10 (14000)
I0701 07:38:22.053860 11430 net.cpp:165] Memory required for data: 1299350528
I0701 07:38:22.053865 11430 layer_factory.hpp:77] Creating layer pool8_mbox_conf_bn
I0701 07:38:22.053871 11430 net.cpp:100] Creating Layer pool8_mbox_conf_bn
I0701 07:38:22.053876 11430 net.cpp:434] pool8_mbox_conf_bn <- pool8_mbox_conf
I0701 07:38:22.053882 11430 net.cpp:395] pool8_mbox_conf_bn -> pool8_mbox_conf (in-place)
I0701 07:38:22.053966 11430 net.cpp:150] Setting up pool8_mbox_conf_bn
I0701 07:38:22.053972 11430 net.cpp:157] Top shape: 5 28 10 10 (14000)
I0701 07:38:22.053995 11430 net.cpp:165] Memory required for data: 1299406528
I0701 07:38:22.054001 11430 layer_factory.hpp:77] Creating layer pool8_mbox_conf_scale
I0701 07:38:22.054008 11430 net.cpp:100] Creating Layer pool8_mbox_conf_scale
I0701 07:38:22.054013 11430 net.cpp:434] pool8_mbox_conf_scale <- pool8_mbox_conf
I0701 07:38:22.054018 11430 net.cpp:395] pool8_mbox_conf_scale -> pool8_mbox_conf (in-place)
I0701 07:38:22.054036 11430 layer_factory.hpp:77] Creating layer pool8_mbox_conf_scale
I0701 07:38:22.054097 11430 net.cpp:150] Setting up pool8_mbox_conf_scale
I0701 07:38:22.054103 11430 net.cpp:157] Top shape: 5 28 10 10 (14000)
I0701 07:38:22.054109 11430 net.cpp:165] Memory required for data: 1299462528
I0701 07:38:22.054116 11430 layer_factory.hpp:77] Creating layer pool8_mbox_conf_perm
I0701 07:38:22.054134 11430 net.cpp:100] Creating Layer pool8_mbox_conf_perm
I0701 07:38:22.054139 11430 net.cpp:434] pool8_mbox_conf_perm <- pool8_mbox_conf
I0701 07:38:22.054145 11430 net.cpp:408] pool8_mbox_conf_perm -> pool8_mbox_conf_perm
I0701 07:38:22.054183 11430 net.cpp:150] Setting up pool8_mbox_conf_perm
I0701 07:38:22.054203 11430 net.cpp:157] Top shape: 5 10 10 28 (14000)
I0701 07:38:22.054226 11430 net.cpp:165] Memory required for data: 1299518528
I0701 07:38:22.054231 11430 layer_factory.hpp:77] Creating layer pool8_mbox_conf_flat
I0701 07:38:22.054236 11430 net.cpp:100] Creating Layer pool8_mbox_conf_flat
I0701 07:38:22.054241 11430 net.cpp:434] pool8_mbox_conf_flat <- pool8_mbox_conf_perm
I0701 07:38:22.054247 11430 net.cpp:408] pool8_mbox_conf_flat -> pool8_mbox_conf_flat
I0701 07:38:22.054273 11430 net.cpp:150] Setting up pool8_mbox_conf_flat
I0701 07:38:22.054280 11430 net.cpp:157] Top shape: 5 2800 (14000)
I0701 07:38:22.054284 11430 net.cpp:165] Memory required for data: 1299574528
I0701 07:38:22.054289 11430 layer_factory.hpp:77] Creating layer pool8_mbox_priorbox
I0701 07:38:22.054296 11430 net.cpp:100] Creating Layer pool8_mbox_priorbox
I0701 07:38:22.054301 11430 net.cpp:434] pool8_mbox_priorbox <- pool8_pool8_0_split_3
I0701 07:38:22.054306 11430 net.cpp:434] pool8_mbox_priorbox <- data_data_0_split_8
I0701 07:38:22.054311 11430 net.cpp:408] pool8_mbox_priorbox -> pool8_mbox_priorbox
I0701 07:38:22.054325 11430 net.cpp:150] Setting up pool8_mbox_priorbox
I0701 07:38:22.054330 11430 net.cpp:157] Top shape: 1 2 5600 (11200)
I0701 07:38:22.054350 11430 net.cpp:165] Memory required for data: 1299619328
I0701 07:38:22.054354 11430 layer_factory.hpp:77] Creating layer conv9_1_mbox_loc
I0701 07:38:22.054363 11430 net.cpp:100] Creating Layer conv9_1_mbox_loc
I0701 07:38:22.054368 11430 net.cpp:434] conv9_1_mbox_loc <- conv9_1_conv9_1_relu_0_split_1
I0701 07:38:22.054374 11430 net.cpp:408] conv9_1_mbox_loc -> conv9_1_mbox_loc
I0701 07:38:22.054893 11430 net.cpp:150] Setting up conv9_1_mbox_loc
I0701 07:38:22.054905 11430 net.cpp:157] Top shape: 5 56 8 8 (17920)
I0701 07:38:22.054914 11430 net.cpp:165] Memory required for data: 1299691008
I0701 07:38:22.054921 11430 layer_factory.hpp:77] Creating layer conv9_1_mbox_loc_bn
I0701 07:38:22.054932 11430 net.cpp:100] Creating Layer conv9_1_mbox_loc_bn
I0701 07:38:22.054939 11430 net.cpp:434] conv9_1_mbox_loc_bn <- conv9_1_mbox_loc
I0701 07:38:22.054948 11430 net.cpp:395] conv9_1_mbox_loc_bn -> conv9_1_mbox_loc (in-place)
I0701 07:38:22.055061 11430 net.cpp:150] Setting up conv9_1_mbox_loc_bn
I0701 07:38:22.055069 11430 net.cpp:157] Top shape: 5 56 8 8 (17920)
I0701 07:38:22.055075 11430 net.cpp:165] Memory required for data: 1299762688
I0701 07:38:22.055083 11430 layer_factory.hpp:77] Creating layer conv9_1_mbox_loc_scale
I0701 07:38:22.055090 11430 net.cpp:100] Creating Layer conv9_1_mbox_loc_scale
I0701 07:38:22.055099 11430 net.cpp:434] conv9_1_mbox_loc_scale <- conv9_1_mbox_loc
I0701 07:38:22.055130 11430 net.cpp:395] conv9_1_mbox_loc_scale -> conv9_1_mbox_loc (in-place)
I0701 07:38:22.055168 11430 layer_factory.hpp:77] Creating layer conv9_1_mbox_loc_scale
I0701 07:38:22.055234 11430 net.cpp:150] Setting up conv9_1_mbox_loc_scale
I0701 07:38:22.055239 11430 net.cpp:157] Top shape: 5 56 8 8 (17920)
I0701 07:38:22.055245 11430 net.cpp:165] Memory required for data: 1299834368
I0701 07:38:22.055251 11430 layer_factory.hpp:77] Creating layer conv9_1_mbox_loc_perm
I0701 07:38:22.055258 11430 net.cpp:100] Creating Layer conv9_1_mbox_loc_perm
I0701 07:38:22.055263 11430 net.cpp:434] conv9_1_mbox_loc_perm <- conv9_1_mbox_loc
I0701 07:38:22.055269 11430 net.cpp:408] conv9_1_mbox_loc_perm -> conv9_1_mbox_loc_perm
I0701 07:38:22.055326 11430 net.cpp:150] Setting up conv9_1_mbox_loc_perm
I0701 07:38:22.055332 11430 net.cpp:157] Top shape: 5 8 8 56 (17920)
I0701 07:38:22.055338 11430 net.cpp:165] Memory required for data: 1299906048
I0701 07:38:22.055342 11430 layer_factory.hpp:77] Creating layer conv9_1_mbox_loc_flat
I0701 07:38:22.055348 11430 net.cpp:100] Creating Layer conv9_1_mbox_loc_flat
I0701 07:38:22.055353 11430 net.cpp:434] conv9_1_mbox_loc_flat <- conv9_1_mbox_loc_perm
I0701 07:38:22.055359 11430 net.cpp:408] conv9_1_mbox_loc_flat -> conv9_1_mbox_loc_flat
I0701 07:38:22.055371 11430 net.cpp:150] Setting up conv9_1_mbox_loc_flat
I0701 07:38:22.055377 11430 net.cpp:157] Top shape: 5 3584 (17920)
I0701 07:38:22.055382 11430 net.cpp:165] Memory required for data: 1299977728
I0701 07:38:22.055387 11430 layer_factory.hpp:77] Creating layer conv9_1_mbox_conf
I0701 07:38:22.055393 11430 net.cpp:100] Creating Layer conv9_1_mbox_conf
I0701 07:38:22.055398 11430 net.cpp:434] conv9_1_mbox_conf <- conv9_1_conv9_1_relu_0_split_2
I0701 07:38:22.055404 11430 net.cpp:408] conv9_1_mbox_conf -> conv9_1_mbox_conf
I0701 07:38:22.055665 11430 net.cpp:150] Setting up conv9_1_mbox_conf
I0701 07:38:22.055670 11430 net.cpp:157] Top shape: 5 28 8 8 (8960)
I0701 07:38:22.055676 11430 net.cpp:165] Memory required for data: 1300013568
I0701 07:38:22.055681 11430 layer_factory.hpp:77] Creating layer conv9_1_mbox_conf_bn
I0701 07:38:22.055688 11430 net.cpp:100] Creating Layer conv9_1_mbox_conf_bn
I0701 07:38:22.055693 11430 net.cpp:434] conv9_1_mbox_conf_bn <- conv9_1_mbox_conf
I0701 07:38:22.055699 11430 net.cpp:395] conv9_1_mbox_conf_bn -> conv9_1_mbox_conf (in-place)
I0701 07:38:22.055778 11430 net.cpp:150] Setting up conv9_1_mbox_conf_bn
I0701 07:38:22.055783 11430 net.cpp:157] Top shape: 5 28 8 8 (8960)
I0701 07:38:22.055788 11430 net.cpp:165] Memory required for data: 1300049408
I0701 07:38:22.055794 11430 layer_factory.hpp:77] Creating layer conv9_1_mbox_conf_scale
I0701 07:38:22.055800 11430 net.cpp:100] Creating Layer conv9_1_mbox_conf_scale
I0701 07:38:22.055805 11430 net.cpp:434] conv9_1_mbox_conf_scale <- conv9_1_mbox_conf
I0701 07:38:22.055811 11430 net.cpp:395] conv9_1_mbox_conf_scale -> conv9_1_mbox_conf (in-place)
I0701 07:38:22.055830 11430 layer_factory.hpp:77] Creating layer conv9_1_mbox_conf_scale
I0701 07:38:22.055876 11430 net.cpp:150] Setting up conv9_1_mbox_conf_scale
I0701 07:38:22.055881 11430 net.cpp:157] Top shape: 5 28 8 8 (8960)
I0701 07:38:22.055886 11430 net.cpp:165] Memory required for data: 1300085248
I0701 07:38:22.055891 11430 layer_factory.hpp:77] Creating layer conv9_1_mbox_conf_perm
I0701 07:38:22.055897 11430 net.cpp:100] Creating Layer conv9_1_mbox_conf_perm
I0701 07:38:22.055903 11430 net.cpp:434] conv9_1_mbox_conf_perm <- conv9_1_mbox_conf
I0701 07:38:22.055908 11430 net.cpp:408] conv9_1_mbox_conf_perm -> conv9_1_mbox_conf_perm
I0701 07:38:22.055946 11430 net.cpp:150] Setting up conv9_1_mbox_conf_perm
I0701 07:38:22.055951 11430 net.cpp:157] Top shape: 5 8 8 28 (8960)
I0701 07:38:22.055956 11430 net.cpp:165] Memory required for data: 1300121088
I0701 07:38:22.055961 11430 layer_factory.hpp:77] Creating layer conv9_1_mbox_conf_flat
I0701 07:38:22.055967 11430 net.cpp:100] Creating Layer conv9_1_mbox_conf_flat
I0701 07:38:22.055971 11430 net.cpp:434] conv9_1_mbox_conf_flat <- conv9_1_mbox_conf_perm
I0701 07:38:22.055977 11430 net.cpp:408] conv9_1_mbox_conf_flat -> conv9_1_mbox_conf_flat
I0701 07:38:22.055989 11430 net.cpp:150] Setting up conv9_1_mbox_conf_flat
I0701 07:38:22.055994 11430 net.cpp:157] Top shape: 5 1792 (8960)
I0701 07:38:22.055999 11430 net.cpp:165] Memory required for data: 1300156928
I0701 07:38:22.056003 11430 layer_factory.hpp:77] Creating layer conv9_1_mbox_priorbox
I0701 07:38:22.056010 11430 net.cpp:100] Creating Layer conv9_1_mbox_priorbox
I0701 07:38:22.056015 11430 net.cpp:434] conv9_1_mbox_priorbox <- conv9_1_conv9_1_relu_0_split_3
I0701 07:38:22.056020 11430 net.cpp:434] conv9_1_mbox_priorbox <- data_data_0_split_9
I0701 07:38:22.056025 11430 net.cpp:408] conv9_1_mbox_priorbox -> conv9_1_mbox_priorbox
I0701 07:38:22.056054 11430 net.cpp:150] Setting up conv9_1_mbox_priorbox
I0701 07:38:22.056059 11430 net.cpp:157] Top shape: 1 2 3584 (7168)
I0701 07:38:22.056064 11430 net.cpp:165] Memory required for data: 1300185600
I0701 07:38:22.056069 11430 layer_factory.hpp:77] Creating layer pool9_mbox_loc
I0701 07:38:22.056077 11430 net.cpp:100] Creating Layer pool9_mbox_loc
I0701 07:38:22.056082 11430 net.cpp:434] pool9_mbox_loc <- pool9_pool9_0_split_1
I0701 07:38:22.056088 11430 net.cpp:408] pool9_mbox_loc -> pool9_mbox_loc
I0701 07:38:22.056439 11430 net.cpp:150] Setting up pool9_mbox_loc
I0701 07:38:22.056445 11430 net.cpp:157] Top shape: 5 56 7 7 (13720)
I0701 07:38:22.056485 11430 net.cpp:165] Memory required for data: 1300240480
I0701 07:38:22.056499 11430 layer_factory.hpp:77] Creating layer pool9_mbox_loc_bn
I0701 07:38:22.056509 11430 net.cpp:100] Creating Layer pool9_mbox_loc_bn
I0701 07:38:22.056515 11430 net.cpp:434] pool9_mbox_loc_bn <- pool9_mbox_loc
I0701 07:38:22.056521 11430 net.cpp:395] pool9_mbox_loc_bn -> pool9_mbox_loc (in-place)
I0701 07:38:22.056604 11430 net.cpp:150] Setting up pool9_mbox_loc_bn
I0701 07:38:22.056610 11430 net.cpp:157] Top shape: 5 56 7 7 (13720)
I0701 07:38:22.056617 11430 net.cpp:165] Memory required for data: 1300295360
I0701 07:38:22.056623 11430 layer_factory.hpp:77] Creating layer pool9_mbox_loc_scale
I0701 07:38:22.056630 11430 net.cpp:100] Creating Layer pool9_mbox_loc_scale
I0701 07:38:22.056635 11430 net.cpp:434] pool9_mbox_loc_scale <- pool9_mbox_loc
I0701 07:38:22.056641 11430 net.cpp:395] pool9_mbox_loc_scale -> pool9_mbox_loc (in-place)
I0701 07:38:22.056661 11430 layer_factory.hpp:77] Creating layer pool9_mbox_loc_scale
I0701 07:38:22.056740 11430 net.cpp:150] Setting up pool9_mbox_loc_scale
I0701 07:38:22.056751 11430 net.cpp:157] Top shape: 5 56 7 7 (13720)
I0701 07:38:22.056766 11430 net.cpp:165] Memory required for data: 1300350240
I0701 07:38:22.056780 11430 layer_factory.hpp:77] Creating layer pool9_mbox_loc_perm
I0701 07:38:22.056789 11430 net.cpp:100] Creating Layer pool9_mbox_loc_perm
I0701 07:38:22.056797 11430 net.cpp:434] pool9_mbox_loc_perm <- pool9_mbox_loc
I0701 07:38:22.056825 11430 net.cpp:408] pool9_mbox_loc_perm -> pool9_mbox_loc_perm
I0701 07:38:22.056880 11430 net.cpp:150] Setting up pool9_mbox_loc_perm
I0701 07:38:22.056887 11430 net.cpp:157] Top shape: 5 7 7 56 (13720)
I0701 07:38:22.056893 11430 net.cpp:165] Memory required for data: 1300405120
I0701 07:38:22.056898 11430 layer_factory.hpp:77] Creating layer pool9_mbox_loc_flat
I0701 07:38:22.056905 11430 net.cpp:100] Creating Layer pool9_mbox_loc_flat
I0701 07:38:22.056910 11430 net.cpp:434] pool9_mbox_loc_flat <- pool9_mbox_loc_perm
I0701 07:38:22.056915 11430 net.cpp:408] pool9_mbox_loc_flat -> pool9_mbox_loc_flat
I0701 07:38:22.056928 11430 net.cpp:150] Setting up pool9_mbox_loc_flat
I0701 07:38:22.056934 11430 net.cpp:157] Top shape: 5 2744 (13720)
I0701 07:38:22.056939 11430 net.cpp:165] Memory required for data: 1300460000
I0701 07:38:22.056943 11430 layer_factory.hpp:77] Creating layer pool9_mbox_conf
I0701 07:38:22.056950 11430 net.cpp:100] Creating Layer pool9_mbox_conf
I0701 07:38:22.056955 11430 net.cpp:434] pool9_mbox_conf <- pool9_pool9_0_split_2
I0701 07:38:22.056962 11430 net.cpp:408] pool9_mbox_conf -> pool9_mbox_conf
I0701 07:38:22.057183 11430 net.cpp:150] Setting up pool9_mbox_conf
I0701 07:38:22.057188 11430 net.cpp:157] Top shape: 5 28 7 7 (6860)
I0701 07:38:22.057214 11430 net.cpp:165] Memory required for data: 1300487440
I0701 07:38:22.057219 11430 layer_factory.hpp:77] Creating layer pool9_mbox_conf_bn
I0701 07:38:22.057226 11430 net.cpp:100] Creating Layer pool9_mbox_conf_bn
I0701 07:38:22.057231 11430 net.cpp:434] pool9_mbox_conf_bn <- pool9_mbox_conf
I0701 07:38:22.057236 11430 net.cpp:395] pool9_mbox_conf_bn -> pool9_mbox_conf (in-place)
I0701 07:38:22.057332 11430 net.cpp:150] Setting up pool9_mbox_conf_bn
I0701 07:38:22.057338 11430 net.cpp:157] Top shape: 5 28 7 7 (6860)
I0701 07:38:22.057364 11430 net.cpp:165] Memory required for data: 1300514880
I0701 07:38:22.057386 11430 layer_factory.hpp:77] Creating layer pool9_mbox_conf_scale
I0701 07:38:22.057394 11430 net.cpp:100] Creating Layer pool9_mbox_conf_scale
I0701 07:38:22.057399 11430 net.cpp:434] pool9_mbox_conf_scale <- pool9_mbox_conf
I0701 07:38:22.057404 11430 net.cpp:395] pool9_mbox_conf_scale -> pool9_mbox_conf (in-place)
I0701 07:38:22.057442 11430 layer_factory.hpp:77] Creating layer pool9_mbox_conf_scale
I0701 07:38:22.057487 11430 net.cpp:150] Setting up pool9_mbox_conf_scale
I0701 07:38:22.057493 11430 net.cpp:157] Top shape: 5 28 7 7 (6860)
I0701 07:38:22.057498 11430 net.cpp:165] Memory required for data: 1300542320
I0701 07:38:22.057504 11430 layer_factory.hpp:77] Creating layer pool9_mbox_conf_perm
I0701 07:38:22.057512 11430 net.cpp:100] Creating Layer pool9_mbox_conf_perm
I0701 07:38:22.057518 11430 net.cpp:434] pool9_mbox_conf_perm <- pool9_mbox_conf
I0701 07:38:22.057523 11430 net.cpp:408] pool9_mbox_conf_perm -> pool9_mbox_conf_perm
I0701 07:38:22.057561 11430 net.cpp:150] Setting up pool9_mbox_conf_perm
I0701 07:38:22.057566 11430 net.cpp:157] Top shape: 5 7 7 28 (6860)
I0701 07:38:22.057572 11430 net.cpp:165] Memory required for data: 1300569760
I0701 07:38:22.057576 11430 layer_factory.hpp:77] Creating layer pool9_mbox_conf_flat
I0701 07:38:22.057582 11430 net.cpp:100] Creating Layer pool9_mbox_conf_flat
I0701 07:38:22.057587 11430 net.cpp:434] pool9_mbox_conf_flat <- pool9_mbox_conf_perm
I0701 07:38:22.057592 11430 net.cpp:408] pool9_mbox_conf_flat -> pool9_mbox_conf_flat
I0701 07:38:22.057605 11430 net.cpp:150] Setting up pool9_mbox_conf_flat
I0701 07:38:22.057610 11430 net.cpp:157] Top shape: 5 1372 (6860)
I0701 07:38:22.057615 11430 net.cpp:165] Memory required for data: 1300597200
I0701 07:38:22.057619 11430 layer_factory.hpp:77] Creating layer pool9_mbox_priorbox
I0701 07:38:22.057626 11430 net.cpp:100] Creating Layer pool9_mbox_priorbox
I0701 07:38:22.057631 11430 net.cpp:434] pool9_mbox_priorbox <- pool9_pool9_0_split_3
I0701 07:38:22.057636 11430 net.cpp:434] pool9_mbox_priorbox <- data_data_0_split_10
I0701 07:38:22.057641 11430 net.cpp:408] pool9_mbox_priorbox -> pool9_mbox_priorbox
I0701 07:38:22.057654 11430 net.cpp:150] Setting up pool9_mbox_priorbox
I0701 07:38:22.057659 11430 net.cpp:157] Top shape: 1 2 2744 (5488)
I0701 07:38:22.057664 11430 net.cpp:165] Memory required for data: 1300619152
I0701 07:38:22.057669 11430 layer_factory.hpp:77] Creating layer conv10_1_mbox_loc
I0701 07:38:22.057677 11430 net.cpp:100] Creating Layer conv10_1_mbox_loc
I0701 07:38:22.057682 11430 net.cpp:434] conv10_1_mbox_loc <- conv10_1_conv10_1_relu_0_split_1
I0701 07:38:22.057688 11430 net.cpp:408] conv10_1_mbox_loc -> conv10_1_mbox_loc
I0701 07:38:22.059258 11430 net.cpp:150] Setting up conv10_1_mbox_loc
I0701 07:38:22.059276 11430 net.cpp:157] Top shape: 5 56 5 5 (7000)
I0701 07:38:22.059311 11430 net.cpp:165] Memory required for data: 1300647152
I0701 07:38:22.059340 11430 layer_factory.hpp:77] Creating layer conv10_1_mbox_loc_bn
I0701 07:38:22.059350 11430 net.cpp:100] Creating Layer conv10_1_mbox_loc_bn
I0701 07:38:22.059356 11430 net.cpp:434] conv10_1_mbox_loc_bn <- conv10_1_mbox_loc
I0701 07:38:22.059363 11430 net.cpp:395] conv10_1_mbox_loc_bn -> conv10_1_mbox_loc (in-place)
I0701 07:38:22.059480 11430 net.cpp:150] Setting up conv10_1_mbox_loc_bn
I0701 07:38:22.059487 11430 net.cpp:157] Top shape: 5 56 5 5 (7000)
I0701 07:38:22.059492 11430 net.cpp:165] Memory required for data: 1300675152
I0701 07:38:22.059499 11430 layer_factory.hpp:77] Creating layer conv10_1_mbox_loc_scale
I0701 07:38:22.059506 11430 net.cpp:100] Creating Layer conv10_1_mbox_loc_scale
I0701 07:38:22.059511 11430 net.cpp:434] conv10_1_mbox_loc_scale <- conv10_1_mbox_loc
I0701 07:38:22.059517 11430 net.cpp:395] conv10_1_mbox_loc_scale -> conv10_1_mbox_loc (in-place)
I0701 07:38:22.059540 11430 layer_factory.hpp:77] Creating layer conv10_1_mbox_loc_scale
I0701 07:38:22.059607 11430 net.cpp:150] Setting up conv10_1_mbox_loc_scale
I0701 07:38:22.059612 11430 net.cpp:157] Top shape: 5 56 5 5 (7000)
I0701 07:38:22.059617 11430 net.cpp:165] Memory required for data: 1300703152
I0701 07:38:22.059641 11430 layer_factory.hpp:77] Creating layer conv10_1_mbox_loc_perm
I0701 07:38:22.059648 11430 net.cpp:100] Creating Layer conv10_1_mbox_loc_perm
I0701 07:38:22.059654 11430 net.cpp:434] conv10_1_mbox_loc_perm <- conv10_1_mbox_loc
I0701 07:38:22.059676 11430 net.cpp:408] conv10_1_mbox_loc_perm -> conv10_1_mbox_loc_perm
I0701 07:38:22.059718 11430 net.cpp:150] Setting up conv10_1_mbox_loc_perm
I0701 07:38:22.059724 11430 net.cpp:157] Top shape: 5 5 5 56 (7000)
I0701 07:38:22.059729 11430 net.cpp:165] Memory required for data: 1300731152
I0701 07:38:22.059734 11430 layer_factory.hpp:77] Creating layer conv10_1_mbox_loc_flat
I0701 07:38:22.059741 11430 net.cpp:100] Creating Layer conv10_1_mbox_loc_flat
I0701 07:38:22.059746 11430 net.cpp:434] conv10_1_mbox_loc_flat <- conv10_1_mbox_loc_perm
I0701 07:38:22.059751 11430 net.cpp:408] conv10_1_mbox_loc_flat -> conv10_1_mbox_loc_flat
I0701 07:38:22.059763 11430 net.cpp:150] Setting up conv10_1_mbox_loc_flat
I0701 07:38:22.059769 11430 net.cpp:157] Top shape: 5 1400 (7000)
I0701 07:38:22.059774 11430 net.cpp:165] Memory required for data: 1300759152
I0701 07:38:22.059778 11430 layer_factory.hpp:77] Creating layer conv10_1_mbox_conf
I0701 07:38:22.059785 11430 net.cpp:100] Creating Layer conv10_1_mbox_conf
I0701 07:38:22.059790 11430 net.cpp:434] conv10_1_mbox_conf <- conv10_1_conv10_1_relu_0_split_2
I0701 07:38:22.059796 11430 net.cpp:408] conv10_1_mbox_conf -> conv10_1_mbox_conf
I0701 07:38:22.060158 11430 net.cpp:150] Setting up conv10_1_mbox_conf
I0701 07:38:22.060163 11430 net.cpp:157] Top shape: 5 28 5 5 (3500)
I0701 07:38:22.060168 11430 net.cpp:165] Memory required for data: 1300773152
I0701 07:38:22.060173 11430 layer_factory.hpp:77] Creating layer conv10_1_mbox_conf_bn
I0701 07:38:22.060180 11430 net.cpp:100] Creating Layer conv10_1_mbox_conf_bn
I0701 07:38:22.060185 11430 net.cpp:434] conv10_1_mbox_conf_bn <- conv10_1_mbox_conf
I0701 07:38:22.060191 11430 net.cpp:395] conv10_1_mbox_conf_bn -> conv10_1_mbox_conf (in-place)
I0701 07:38:22.060271 11430 net.cpp:150] Setting up conv10_1_mbox_conf_bn
I0701 07:38:22.060276 11430 net.cpp:157] Top shape: 5 28 5 5 (3500)
I0701 07:38:22.060281 11430 net.cpp:165] Memory required for data: 1300787152
I0701 07:38:22.060287 11430 layer_factory.hpp:77] Creating layer conv10_1_mbox_conf_scale
I0701 07:38:22.060293 11430 net.cpp:100] Creating Layer conv10_1_mbox_conf_scale
I0701 07:38:22.060298 11430 net.cpp:434] conv10_1_mbox_conf_scale <- conv10_1_mbox_conf
I0701 07:38:22.060304 11430 net.cpp:395] conv10_1_mbox_conf_scale -> conv10_1_mbox_conf (in-place)
I0701 07:38:22.060325 11430 layer_factory.hpp:77] Creating layer conv10_1_mbox_conf_scale
I0701 07:38:22.060374 11430 net.cpp:150] Setting up conv10_1_mbox_conf_scale
I0701 07:38:22.060379 11430 net.cpp:157] Top shape: 5 28 5 5 (3500)
I0701 07:38:22.060384 11430 net.cpp:165] Memory required for data: 1300801152
I0701 07:38:22.060390 11430 layer_factory.hpp:77] Creating layer conv10_1_mbox_conf_perm
I0701 07:38:22.060396 11430 net.cpp:100] Creating Layer conv10_1_mbox_conf_perm
I0701 07:38:22.060401 11430 net.cpp:434] conv10_1_mbox_conf_perm <- conv10_1_mbox_conf
I0701 07:38:22.060407 11430 net.cpp:408] conv10_1_mbox_conf_perm -> conv10_1_mbox_conf_perm
I0701 07:38:22.060447 11430 net.cpp:150] Setting up conv10_1_mbox_conf_perm
I0701 07:38:22.060488 11430 net.cpp:157] Top shape: 5 5 5 28 (3500)
I0701 07:38:22.060494 11430 net.cpp:165] Memory required for data: 1300815152
I0701 07:38:22.060498 11430 layer_factory.hpp:77] Creating layer conv10_1_mbox_conf_flat
I0701 07:38:22.060505 11430 net.cpp:100] Creating Layer conv10_1_mbox_conf_flat
I0701 07:38:22.060526 11430 net.cpp:434] conv10_1_mbox_conf_flat <- conv10_1_mbox_conf_perm
I0701 07:38:22.060532 11430 net.cpp:408] conv10_1_mbox_conf_flat -> conv10_1_mbox_conf_flat
I0701 07:38:22.060546 11430 net.cpp:150] Setting up conv10_1_mbox_conf_flat
I0701 07:38:22.060551 11430 net.cpp:157] Top shape: 5 700 (3500)
I0701 07:38:22.060555 11430 net.cpp:165] Memory required for data: 1300829152
I0701 07:38:22.060573 11430 layer_factory.hpp:77] Creating layer conv10_1_mbox_priorbox
I0701 07:38:22.060580 11430 net.cpp:100] Creating Layer conv10_1_mbox_priorbox
I0701 07:38:22.060585 11430 net.cpp:434] conv10_1_mbox_priorbox <- conv10_1_conv10_1_relu_0_split_3
I0701 07:38:22.060590 11430 net.cpp:434] conv10_1_mbox_priorbox <- data_data_0_split_11
I0701 07:38:22.060621 11430 net.cpp:408] conv10_1_mbox_priorbox -> conv10_1_mbox_priorbox
I0701 07:38:22.060654 11430 net.cpp:150] Setting up conv10_1_mbox_priorbox
I0701 07:38:22.060659 11430 net.cpp:157] Top shape: 1 2 1400 (2800)
I0701 07:38:22.060665 11430 net.cpp:165] Memory required for data: 1300840352
I0701 07:38:22.060669 11430 layer_factory.hpp:77] Creating layer pool10_mbox_loc
I0701 07:38:22.060676 11430 net.cpp:100] Creating Layer pool10_mbox_loc
I0701 07:38:22.060681 11430 net.cpp:434] pool10_mbox_loc <- pool10_pool10_0_split_1
I0701 07:38:22.060688 11430 net.cpp:408] pool10_mbox_loc -> pool10_mbox_loc
I0701 07:38:22.061326 11430 net.cpp:150] Setting up pool10_mbox_loc
I0701 07:38:22.061331 11430 net.cpp:157] Top shape: 5 56 4 4 (4480)
I0701 07:38:22.061355 11430 net.cpp:165] Memory required for data: 1300858272
I0701 07:38:22.061360 11430 layer_factory.hpp:77] Creating layer pool10_mbox_loc_bn
I0701 07:38:22.061367 11430 net.cpp:100] Creating Layer pool10_mbox_loc_bn
I0701 07:38:22.061372 11430 net.cpp:434] pool10_mbox_loc_bn <- pool10_mbox_loc
I0701 07:38:22.061378 11430 net.cpp:395] pool10_mbox_loc_bn -> pool10_mbox_loc (in-place)
I0701 07:38:22.061471 11430 net.cpp:150] Setting up pool10_mbox_loc_bn
I0701 07:38:22.061489 11430 net.cpp:157] Top shape: 5 56 4 4 (4480)
I0701 07:38:22.061513 11430 net.cpp:165] Memory required for data: 1300876192
I0701 07:38:22.061519 11430 layer_factory.hpp:77] Creating layer pool10_mbox_loc_scale
…
I0701 07:38:22.361924 11430 net.cpp:157] Top shape: 1 56 10 10 (5600)
I0701 07:38:22.361938 11430 net.cpp:165] Memory required for data: 260756608
I0701 07:38:22.361951 11430 layer_factory.hpp:77] Creating layer pool8_mbox_loc_perm
I0701 07:38:22.361963 11430 net.cpp:100] Creating Layer pool8_mbox_loc_perm
I0701 07:38:22.361972 11430 net.cpp:434] pool8_mbox_loc_perm <- pool8_mbox_loc
I0701 07:38:22.361989 11430 net.cpp:408] pool8_mbox_loc_perm -> pool8_mbox_loc_perm
I0701 07:38:22.362078 11430 net.cpp:150] Setting up pool8_mbox_loc_perm
I0701 07:38:22.362088 11430 net.cpp:157] Top shape: 1 10 10 56 (5600)
I0701 07:38:22.362102 11430 net.cpp:165] Memory required for data: 260779008
I0701 07:38:22.362110 11430 layer_factory.hpp:77] Creating layer pool8_mbox_loc_flat
I0701 07:38:22.362128 11430 net.cpp:100] Creating Layer pool8_mbox_loc_flat
I0701 07:38:22.362138 11430 net.cpp:434] pool8_mbox_loc_flat <- pool8_mbox_loc_perm
I0701 07:38:22.362151 11430 net.cpp:408] pool8_mbox_loc_flat -> pool8_mbox_loc_flat
I0701 07:38:22.362177 11430 net.cpp:150] Setting up pool8_mbox_loc_flat
I0701 07:38:22.362185 11430 net.cpp:157] Top shape: 1 5600 (5600)
I0701 07:38:22.362195 11430 net.cpp:165] Memory required for data: 260801408
I0701 07:38:22.362203 11430 layer_factory.hpp:77] Creating layer pool8_mbox_conf
I0701 07:38:22.362222 11430 net.cpp:100] Creating Layer pool8_mbox_conf
I0701 07:38:22.362232 11430 net.cpp:434] pool8_mbox_conf <- pool8_pool8_0_split_2
I0701 07:38:22.362243 11430 net.cpp:408] pool8_mbox_conf -> pool8_mbox_conf
I0701 07:38:22.362476 11430 net.cpp:150] Setting up pool8_mbox_conf
I0701 07:38:22.362486 11430 net.cpp:157] Top shape: 1 28 10 10 (2800)
I0701 07:38:22.362498 11430 net.cpp:165] Memory required for data: 260812608
I0701 07:38:22.362509 11430 layer_factory.hpp:77] Creating layer pool8_mbox_conf_bn
I0701 07:38:22.362522 11430 net.cpp:100] Creating Layer pool8_mbox_conf_bn
I0701 07:38:22.362533 11430 net.cpp:434] pool8_mbox_conf_bn <- pool8_mbox_conf
I0701 07:38:22.362545 11430 net.cpp:395] pool8_mbox_conf_bn -> pool8_mbox_conf (in-place)
I0701 07:38:22.362710 11430 net.cpp:150] Setting up pool8_mbox_conf_bn
I0701 07:38:22.362720 11430 net.cpp:157] Top shape: 1 28 10 10 (2800)
I0701 07:38:22.362733 11430 net.cpp:165] Memory required for data: 260823808
I0701 07:38:22.362748 11430 layer_factory.hpp:77] Creating layer pool8_mbox_conf_scale
I0701 07:38:22.362776 11430 net.cpp:100] Creating Layer pool8_mbox_conf_scale
I0701 07:38:22.362788 11430 net.cpp:434] pool8_mbox_conf_scale <- pool8_mbox_conf
I0701 07:38:22.362802 11430 net.cpp:395] pool8_mbox_conf_scale -> pool8_mbox_conf (in-place)
I0701 07:38:22.362849 11430 layer_factory.hpp:77] Creating layer pool8_mbox_conf_scale
I0701 07:38:22.362951 11430 net.cpp:150] Setting up pool8_mbox_conf_scale
I0701 07:38:22.362960 11430 net.cpp:157] Top shape: 1 28 10 10 (2800)
I0701 07:38:22.362974 11430 net.cpp:165] Memory required for data: 260835008
I0701 07:38:22.362987 11430 layer_factory.hpp:77] Creating layer pool8_mbox_conf_perm
I0701 07:38:22.363001 11430 net.cpp:100] Creating Layer pool8_mbox_conf_perm
I0701 07:38:22.363010 11430 net.cpp:434] pool8_mbox_conf_perm <- pool8_mbox_conf
I0701 07:38:22.363029 11430 net.cpp:408] pool8_mbox_conf_perm -> pool8_mbox_conf_perm
I0701 07:38:22.363108 11430 net.cpp:150] Setting up pool8_mbox_conf_perm
I0701 07:38:22.363117 11430 net.cpp:157] Top shape: 1 10 10 28 (2800)
I0701 07:38:22.363129 11430 net.cpp:165] Memory required for data: 260846208
I0701 07:38:22.363138 11430 layer_factory.hpp:77] Creating layer pool8_mbox_conf_flat
I0701 07:38:22.363154 11430 net.cpp:100] Creating Layer pool8_mbox_conf_flat
I0701 07:38:22.363166 11430 net.cpp:434] pool8_mbox_conf_flat <- pool8_mbox_conf_perm
I0701 07:38:22.363178 11430 net.cpp:408] pool8_mbox_conf_flat -> pool8_mbox_conf_flat
I0701 07:38:22.363205 11430 net.cpp:150] Setting up pool8_mbox_conf_flat
I0701 07:38:22.363214 11430 net.cpp:157] Top shape: 1 2800 (2800)
I0701 07:38:22.363227 11430 net.cpp:165] Memory required for data: 260857408
I0701 07:38:22.363236 11430 layer_factory.hpp:77] Creating layer pool8_mbox_priorbox
I0701 07:38:22.363274 11430 net.cpp:100] Creating Layer pool8_mbox_priorbox
I0701 07:38:22.363286 11430 net.cpp:434] pool8_mbox_priorbox <- pool8_pool8_0_split_3
I0701 07:38:22.363298 11430 net.cpp:434] pool8_mbox_priorbox <- data_data_0_split_8
I0701 07:38:22.363312 11430 net.cpp:408] pool8_mbox_priorbox -> pool8_mbox_priorbox
I0701 07:38:22.363359 11430 net.cpp:150] Setting up pool8_mbox_priorbox
I0701 07:38:22.363368 11430 net.cpp:157] Top shape: 1 2 5600 (11200)
I0701 07:38:22.363381 11430 net.cpp:165] Memory required for data: 260902208
I0701 07:38:22.363391 11430 layer_factory.hpp:77] Creating layer conv9_1_mbox_loc
I0701 07:38:22.363427 11430 net.cpp:100] Creating Layer conv9_1_mbox_loc
I0701 07:38:22.363438 11430 net.cpp:434] conv9_1_mbox_loc <- conv9_1_conv9_1_relu_0_split_1
I0701 07:38:22.363451 11430 net.cpp:408] conv9_1_mbox_loc -> conv9_1_mbox_loc
I0701 07:38:22.363946 11430 net.cpp:150] Setting up conv9_1_mbox_loc
I0701 07:38:22.363957 11430 net.cpp:157] Top shape: 1 56 8 8 (3584)
I0701 07:38:22.363970 11430 net.cpp:165] Memory required for data: 260916544
I0701 07:38:22.364003 11430 layer_factory.hpp:77] Creating layer conv9_1_mbox_loc_bn
I0701 07:38:22.364018 11430 net.cpp:100] Creating Layer conv9_1_mbox_loc_bn
I0701 07:38:22.364030 11430 net.cpp:434] conv9_1_mbox_loc_bn <- conv9_1_mbox_loc
I0701 07:38:22.364059 11430 net.cpp:395] conv9_1_mbox_loc_bn -> conv9_1_mbox_loc (in-place)
I0701 07:38:22.364233 11430 net.cpp:150] Setting up conv9_1_mbox_loc_bn
I0701 07:38:22.364243 11430 net.cpp:157] Top shape: 1 56 8 8 (3584)
I0701 07:38:22.364257 11430 net.cpp:165] Memory required for data: 260930880
I0701 07:38:22.364274 11430 layer_factory.hpp:77] Creating layer conv9_1_mbox_loc_scale
I0701 07:38:22.364288 11430 net.cpp:100] Creating Layer conv9_1_mbox_loc_scale
I0701 07:38:22.364298 11430 net.cpp:434] conv9_1_mbox_loc_scale <- conv9_1_mbox_loc
I0701 07:38:22.364313 11430 net.cpp:395] conv9_1_mbox_loc_scale -> conv9_1_mbox_loc (in-place)
I0701 07:38:22.364375 11430 layer_factory.hpp:77] Creating layer conv9_1_mbox_loc_scale
I0701 07:38:22.364549 11430 net.cpp:150] Setting up conv9_1_mbox_loc_scale
I0701 07:38:22.364559 11430 net.cpp:157] Top shape: 1 56 8 8 (3584)
I0701 07:38:22.364571 11430 net.cpp:165] Memory required for data: 260945216
I0701 07:38:22.364620 11430 layer_factory.hpp:77] Creating layer conv9_1_mbox_loc_perm
I0701 07:38:22.364634 11430 net.cpp:100] Creating Layer conv9_1_mbox_loc_perm
I0701 07:38:22.364645 11430 net.cpp:434] conv9_1_mbox_loc_perm <- conv9_1_mbox_loc
I0701 07:38:22.364665 11430 net.cpp:408] conv9_1_mbox_loc_perm -> conv9_1_mbox_loc_perm
I0701 07:38:22.364754 11430 net.cpp:150] Setting up conv9_1_mbox_loc_perm
I0701 07:38:22.364764 11430 net.cpp:157] Top shape: 1 8 8 56 (3584)
I0701 07:38:22.364776 11430 net.cpp:165] Memory required for data: 260959552
I0701 07:38:22.364785 11430 layer_factory.hpp:77] Creating layer conv9_1_mbox_loc_flat
I0701 07:38:22.364802 11430 net.cpp:100] Creating Layer conv9_1_mbox_loc_flat
I0701 07:38:22.364813 11430 net.cpp:434] conv9_1_mbox_loc_flat <- conv9_1_mbox_loc_perm
I0701 07:38:22.364825 11430 net.cpp:408] conv9_1_mbox_loc_flat -> conv9_1_mbox_loc_flat
I0701 07:38:22.364849 11430 net.cpp:150] Setting up conv9_1_mbox_loc_flat
I0701 07:38:22.364857 11430 net.cpp:157] Top shape: 1 3584 (3584)
I0701 07:38:22.364867 11430 net.cpp:165] Memory required for data: 260973888
I0701 07:38:22.364876 11430 layer_factory.hpp:77] Creating layer conv9_1_mbox_conf
I0701 07:38:22.364892 11430 net.cpp:100] Creating Layer conv9_1_mbox_conf
I0701 07:38:22.364902 11430 net.cpp:434] conv9_1_mbox_conf <- conv9_1_conv9_1_relu_0_split_2
I0701 07:38:22.364913 11430 net.cpp:408] conv9_1_mbox_conf -> conv9_1_mbox_conf
I0701 07:38:22.365207 11430 net.cpp:150] Setting up conv9_1_mbox_conf
I0701 07:38:22.365217 11430 net.cpp:157] Top shape: 1 28 8 8 (1792)
I0701 07:38:22.365229 11430 net.cpp:165] Memory required for data: 260981056
I0701 07:38:22.365247 11430 layer_factory.hpp:77] Creating layer conv9_1_mbox_conf_bn
I0701 07:38:22.365260 11430 net.cpp:100] Creating Layer conv9_1_mbox_conf_bn
I0701 07:38:22.365293 11430 net.cpp:434] conv9_1_mbox_conf_bn <- conv9_1_mbox_conf
I0701 07:38:22.365321 11430 net.cpp:395] conv9_1_mbox_conf_bn -> conv9_1_mbox_conf (in-place)
I0701 07:38:22.365535 11430 net.cpp:150] Setting up conv9_1_mbox_conf_bn
I0701 07:38:22.365545 11430 net.cpp:157] Top shape: 1 28 8 8 (1792)
I0701 07:38:22.365556 11430 net.cpp:165] Memory required for data: 260988224
I0701 07:38:22.365571 11430 layer_factory.hpp:77] Creating layer conv9_1_mbox_conf_scale
I0701 07:38:22.365583 11430 net.cpp:100] Creating Layer conv9_1_mbox_conf_scale
I0701 07:38:22.365593 11430 net.cpp:434] conv9_1_mbox_conf_scale <- conv9_1_mbox_conf
I0701 07:38:22.365607 11430 net.cpp:395] conv9_1_mbox_conf_scale -> conv9_1_mbox_conf (in-place)
I0701 07:38:22.365653 11430 layer_factory.hpp:77] Creating layer conv9_1_mbox_conf_scale
I0701 07:38:22.365741 11430 net.cpp:150] Setting up conv9_1_mbox_conf_scale
I0701 07:38:22.365749 11430 net.cpp:157] Top shape: 1 28 8 8 (1792)
I0701 07:38:22.365761 11430 net.cpp:165] Memory required for data: 260995392
I0701 07:38:22.365772 11430 layer_factory.hpp:77] Creating layer conv9_1_mbox_conf_perm
I0701 07:38:22.365792 11430 net.cpp:100] Creating Layer conv9_1_mbox_conf_perm
I0701 07:38:22.365801 11430 net.cpp:434] conv9_1_mbox_conf_perm <- conv9_1_mbox_conf
I0701 07:38:22.365815 11430 net.cpp:408] conv9_1_mbox_conf_perm -> conv9_1_mbox_conf_perm
I0701 07:38:22.365900 11430 net.cpp:150] Setting up conv9_1_mbox_conf_perm
I0701 07:38:22.365909 11430 net.cpp:157] Top shape: 1 8 8 28 (1792)
I0701 07:38:22.365921 11430 net.cpp:165] Memory required for data: 261002560
I0701 07:38:22.365931 11430 layer_factory.hpp:77] Creating layer conv9_1_mbox_conf_flat
I0701 07:38:22.365942 11430 net.cpp:100] Creating Layer conv9_1_mbox_conf_flat
I0701 07:38:22.365952 11430 net.cpp:434] conv9_1_mbox_conf_flat <- conv9_1_mbox_conf_perm
I0701 07:38:22.365964 11430 net.cpp:408] conv9_1_mbox_conf_flat -> conv9_1_mbox_conf_flat
I0701 07:38:22.365994 11430 net.cpp:150] Setting up conv9_1_mbox_conf_flat
I0701 07:38:22.366003 11430 net.cpp:157] Top shape: 1 1792 (1792)
I0701 07:38:22.366015 11430 net.cpp:165] Memory required for data: 261009728
I0701 07:38:22.366024 11430 layer_factory.hpp:77] Creating layer conv9_1_mbox_priorbox
I0701 07:38:22.366050 11430 net.cpp:100] Creating Layer conv9_1_mbox_priorbox
I0701 07:38:22.366060 11430 net.cpp:434] conv9_1_mbox_priorbox <- conv9_1_conv9_1_relu_0_split_3
I0701 07:38:22.366070 11430 net.cpp:434] conv9_1_mbox_priorbox <- data_data_0_split_9
I0701 07:38:22.366083 11430 net.cpp:408] conv9_1_mbox_priorbox -> conv9_1_mbox_priorbox
I0701 07:38:22.366112 11430 net.cpp:150] Setting up conv9_1_mbox_priorbox
I0701 07:38:22.366122 11430 net.cpp:157] Top shape: 1 2 3584 (7168)
I0701 07:38:22.366132 11430 net.cpp:165] Memory required for data: 261038400
I0701 07:38:22.366142 11430 layer_factory.hpp:77] Creating layer pool9_mbox_loc
I0701 07:38:22.366161 11430 net.cpp:100] Creating Layer pool9_mbox_loc
I0701 07:38:22.366171 11430 net.cpp:434] pool9_mbox_loc <- pool9_pool9_0_split_1
I0701 07:38:22.366184 11430 net.cpp:408] pool9_mbox_loc -> pool9_mbox_loc
I0701 07:38:22.366616 11430 net.cpp:150] Setting up pool9_mbox_loc
I0701 07:38:22.366626 11430 net.cpp:157] Top shape: 1 56 7 7 (2744)
I0701 07:38:22.366636 11430 net.cpp:165] Memory required for data: 261049376
I0701 07:38:22.366648 11430 layer_factory.hpp:77] Creating layer pool9_mbox_loc_bn
I0701 07:38:22.366662 11430 net.cpp:100] Creating Layer pool9_mbox_loc_bn
I0701 07:38:22.366672 11430 net.cpp:434] pool9_mbox_loc_bn <- pool9_mbox_loc
I0701 07:38:22.366684 11430 net.cpp:395] pool9_mbox_loc_bn -> pool9_mbox_loc (in-place)
I0701 07:38:22.367462 11430 net.cpp:150] Setting up pool9_mbox_loc_bn
I0701 07:38:22.367476 11430 net.cpp:157] Top shape: 1 56 7 7 (2744)
I0701 07:38:22.367488 11430 net.cpp:165] Memory required for data: 261060352
I0701 07:38:22.367522 11430 layer_factory.hpp:77] Creating layer pool9_mbox_loc_scale
I0701 07:38:22.367542 11430 net.cpp:100] Creating Layer pool9_mbox_loc_scale
I0701 07:38:22.367553 11430 net.cpp:434] pool9_mbox_loc_scale <- pool9_mbox_loc
I0701 07:38:22.367568 11430 net.cpp:395] pool9_mbox_loc_scale -> pool9_mbox_loc (in-place)
I0701 07:38:22.367621 11430 layer_factory.hpp:77] Creating layer pool9_mbox_loc_scale
I0701 07:38:22.367740 11430 net.cpp:150] Setting up pool9_mbox_loc_scale
I0701 07:38:22.367750 11430 net.cpp:157] Top shape: 1 56 7 7 (2744)
I0701 07:38:22.367763 11430 net.cpp:165] Memory required for data: 261071328
I0701 07:38:22.367775 11430 layer_factory.hpp:77] Creating layer pool9_mbox_loc_perm
I0701 07:38:22.367789 11430 net.cpp:100] Creating Layer pool9_mbox_loc_perm
I0701 07:38:22.367799 11430 net.cpp:434] pool9_mbox_loc_perm <- pool9_mbox_loc
I0701 07:38:22.367811 11430 net.cpp:408] pool9_mbox_loc_perm -> pool9_mbox_loc_perm
I0701 07:38:22.367902 11430 net.cpp:150] Setting up pool9_mbox_loc_perm
I0701 07:38:22.367910 11430 net.cpp:157] Top shape: 1 7 7 56 (2744)
I0701 07:38:22.367924 11430 net.cpp:165] Memory required for data: 261082304
I0701 07:38:22.367933 11430 layer_factory.hpp:77] Creating layer pool9_mbox_loc_flat
I0701 07:38:22.367945 11430 net.cpp:100] Creating Layer pool9_mbox_loc_flat
I0701 07:38:22.367955 11430 net.cpp:434] pool9_mbox_loc_flat <- pool9_mbox_loc_perm
I0701 07:38:22.367967 11430 net.cpp:408] pool9_mbox_loc_flat -> pool9_mbox_loc_flat
I0701 07:38:22.367998 11430 net.cpp:150] Setting up pool9_mbox_loc_flat
I0701 07:38:22.368006 11430 net.cpp:157] Top shape: 1 2744 (2744)
I0701 07:38:22.368017 11430 net.cpp:165] Memory required for data: 261093280
I0701 07:38:22.368028 11430 layer_factory.hpp:77] Creating layer pool9_mbox_conf
I0701 07:38:22.368041 11430 net.cpp:100] Creating Layer pool9_mbox_conf
I0701 07:38:22.368052 11430 net.cpp:434] pool9_mbox_conf <- pool9_pool9_0_split_2
I0701 07:38:22.368065 11430 net.cpp:408] pool9_mbox_conf -> pool9_mbox_conf
I0701 07:38:22.368407 11430 net.cpp:150] Setting up pool9_mbox_conf
I0701 07:38:22.368417 11430 net.cpp:157] Top shape: 1 28 7 7 (1372)
I0701 07:38:22.368428 11430 net.cpp:165] Memory required for data: 261098768
I0701 07:38:22.368440 11430 layer_factory.hpp:77] Creating layer pool9_mbox_conf_bn
I0701 07:38:22.368497 11430 net.cpp:100] Creating Layer pool9_mbox_conf_bn
I0701 07:38:22.368510 11430 net.cpp:434] pool9_mbox_conf_bn <- pool9_mbox_conf
I0701 07:38:22.368542 11430 net.cpp:395] pool9_mbox_conf_bn -> pool9_mbox_conf (in-place)
I0701 07:38:22.368877 11430 net.cpp:150] Setting up pool9_mbox_conf_bn
I0701 07:38:22.368887 11430 net.cpp:157] Top shape: 1 28 7 7 (1372)
I0701 07:38:22.368901 11430 net.cpp:165] Memory required for data: 261104256
I0701 07:38:22.368916 11430 layer_factory.hpp:77] Creating layer pool9_mbox_conf_scale
I0701 07:38:22.368934 11430 net.cpp:100] Creating Layer pool9_mbox_conf_scale
I0701 07:38:22.368944 11430 net.cpp:434] pool9_mbox_conf_scale <- pool9_mbox_conf
I0701 07:38:22.368957 11430 net.cpp:395] pool9_mbox_conf_scale -> pool9_mbox_conf (in-place)
I0701 07:38:22.369001 11430 layer_factory.hpp:77] Creating layer pool9_mbox_conf_scale
I0701 07:38:22.369102 11430 net.cpp:150] Setting up pool9_mbox_conf_scale
I0701 07:38:22.369112 11430 net.cpp:157] Top shape: 1 28 7 7 (1372)
I0701 07:38:22.369123 11430 net.cpp:165] Memory required for data: 261109744
I0701 07:38:22.369135 11430 layer_factory.hpp:77] Creating layer pool9_mbox_conf_perm
I0701 07:38:22.369153 11430 net.cpp:100] Creating Layer pool9_mbox_conf_perm
I0701 07:38:22.369163 11430 net.cpp:434] pool9_mbox_conf_perm <- pool9_mbox_conf
I0701 07:38:22.369175 11430 net.cpp:408] pool9_mbox_conf_perm -> pool9_mbox_conf_perm
I0701 07:38:22.369261 11430 net.cpp:150] Setting up pool9_mbox_conf_perm
I0701 07:38:22.369271 11430 net.cpp:157] Top shape: 1 7 7 28 (1372)
I0701 07:38:22.369282 11430 net.cpp:165] Memory required for data: 261115232
I0701 07:38:22.369292 11430 layer_factory.hpp:77] Creating layer pool9_mbox_conf_flat
I0701 07:38:22.369303 11430 net.cpp:100] Creating Layer pool9_mbox_conf_flat
I0701 07:38:22.369313 11430 net.cpp:434] pool9_mbox_conf_flat <- pool9_mbox_conf_perm
I0701 07:38:22.369324 11430 net.cpp:408] pool9_mbox_conf_flat -> pool9_mbox_conf_flat
I0701 07:38:22.369354 11430 net.cpp:150] Setting up pool9_mbox_conf_flat
I0701 07:38:22.369362 11430 net.cpp:157] Top shape: 1 1372 (1372)
I0701 07:38:22.369374 11430 net.cpp:165] Memory required for data: 261120720
I0701 07:38:22.369382 11430 layer_factory.hpp:77] Creating layer pool9_mbox_priorbox
I0701 07:38:22.369395 11430 net.cpp:100] Creating Layer pool9_mbox_priorbox
I0701 07:38:22.369405 11430 net.cpp:434] pool9_mbox_priorbox <- pool9_pool9_0_split_3
I0701 07:38:22.369414 11430 net.cpp:434] pool9_mbox_priorbox <- data_data_0_split_10
I0701 07:38:22.369427 11430 net.cpp:408] pool9_mbox_priorbox -> pool9_mbox_priorbox
I0701 07:38:22.369459 11430 net.cpp:150] Setting up pool9_mbox_priorbox
I0701 07:38:22.369468 11430 net.cpp:157] Top shape: 1 2 2744 (5488)
I0701 07:38:22.369480 11430 net.cpp:165] Memory required for data: 261142672
I0701 07:38:22.369488 11430 layer_factory.hpp:77] Creating layer conv10_1_mbox_loc
I0701 07:38:22.369503 11430 net.cpp:100] Creating Layer conv10_1_mbox_loc
I0701 07:38:22.369513 11430 net.cpp:434] conv10_1_mbox_loc <- conv10_1_conv10_1_relu_0_split_1
I0701 07:38:22.369526 11430 net.cpp:408] conv10_1_mbox_loc -> conv10_1_mbox_loc
I0701 07:38:22.370302 11430 net.cpp:150] Setting up conv10_1_mbox_loc
I0701 07:38:22.370312 11430 net.cpp:157] Top shape: 1 56 5 5 (1400)
I0701 07:38:22.370323 11430 net.cpp:165] Memory required for data: 261148272
I0701 07:38:22.370337 11430 layer_factory.hpp:77] Creating layer conv10_1_mbox_loc_bn
I0701 07:38:22.370353 11430 net.cpp:100] Creating Layer conv10_1_mbox_loc_bn
I0701 07:38:22.370364 11430 net.cpp:434] conv10_1_mbox_loc_bn <- conv10_1_mbox_loc
I0701 07:38:22.370378 11430 net.cpp:395] conv10_1_mbox_loc_bn -> conv10_1_mbox_loc (in-place)
I0701 07:38:22.370538 11430 net.cpp:150] Setting up conv10_1_mbox_loc_bn
I0701 07:38:22.370548 11430 net.cpp:157] Top shape: 1 56 5 5 (1400)
I0701 07:38:22.370559 11430 net.cpp:165] Memory required for data: 261153872
I0701 07:38:22.370574 11430 layer_factory.hpp:77] Creating layer conv10_1_mbox_loc_scale
I0701 07:38:22.370592 11430 net.cpp:100] Creating Layer conv10_1_mbox_loc_scale
I0701 07:38:22.370602 11430 net.cpp:434] conv10_1_mbox_loc_scale <- conv10_1_mbox_loc
I0701 07:38:22.370617 11430 net.cpp:395] conv10_1_mbox_loc_scale -> conv10_1_mbox_loc (in-place)
I0701 07:38:22.370676 11430 layer_factory.hpp:77] Creating layer conv10_1_mbox_loc_scale
I0701 07:38:22.370774 11430 net.cpp:150] Setting up conv10_1_mbox_loc_scale
I0701 07:38:22.370783 11430 net.cpp:157] Top shape: 1 56 5 5 (1400)
I0701 07:38:22.370796 11430 net.cpp:165] Memory required for data: 261159472
I0701 07:38:22.370810 11430 layer_factory.hpp:77] Creating layer conv10_1_mbox_loc_perm
I0701 07:38:22.370821 11430 net.cpp:100] Creating Layer conv10_1_mbox_loc_perm
I0701 07:38:22.370831 11430 net.cpp:434] conv10_1_mbox_loc_perm <- conv10_1_mbox_loc
I0701 07:38:22.370844 11430 net.cpp:408] conv10_1_mbox_loc_perm -> conv10_1_mbox_loc_perm
I0701 07:38:22.370930 11430 net.cpp:150] Setting up conv10_1_mbox_loc_perm
I0701 07:38:22.370939 11430 net.cpp:157] Top shape: 1 5 5 56 (1400)
I0701 07:38:22.370951 11430 net.cpp:165] Memory required for data: 261165072
I0701 07:38:22.370959 11430 layer_factory.hpp:77] Creating layer conv10_1_mbox_loc_flat
I0701 07:38:22.370971 11430 net.cpp:100] Creating Layer conv10_1_mbox_loc_flat
I0701 07:38:22.370980 11430 net.cpp:434] conv10_1_mbox_loc_flat <- conv10_1_mbox_loc_perm
I0701 07:38:22.370996 11430 net.cpp:408] conv10_1_mbox_loc_flat -> conv10_1_mbox_loc_flat
I0701 07:38:22.371021 11430 net.cpp:150] Setting up conv10_1_mbox_loc_flat
I0701 07:38:22.371030 11430 net.cpp:157] Top shape: 1 1400 (1400)
I0701 07:38:22.371042 11430 net.cpp:165] Memory required for data: 261170672
I0701 07:38:22.371050 11430 layer_factory.hpp:77] Creating layer conv10_1_mbox_conf
I0701 07:38:22.371063 11430 net.cpp:100] Creating Layer conv10_1_mbox_conf
I0701 07:38:22.371073 11430 net.cpp:434] conv10_1_mbox_conf <- conv10_1_conv10_1_relu_0_split_2
I0701 07:38:22.371089 11430 net.cpp:408] conv10_1_mbox_conf -> conv10_1_mbox_conf
I0701 07:38:22.371589 11430 net.cpp:150] Setting up conv10_1_mbox_conf
I0701 07:38:22.371600 11430 net.cpp:157] Top shape: 1 28 5 5 (700)
I0701 07:38:22.371613 11430 net.cpp:165] Memory required for data: 261173472
I0701 07:38:22.371639 11430 layer_factory.hpp:77] Creating layer conv10_1_mbox_conf_bn
I0701 07:38:22.371656 11430 net.cpp:100] Creating Layer conv10_1_mbox_conf_bn
I0701 07:38:22.371685 11430 net.cpp:434] conv10_1_mbox_conf_bn <- conv10_1_mbox_conf
I0701 07:38:22.371699 11430 net.cpp:395] conv10_1_mbox_conf_bn -> conv10_1_mbox_conf (in-place)
I0701 07:38:22.371883 11430 net.cpp:150] Setting up conv10_1_mbox_conf_bn
I0701 07:38:22.371892 11430 net.cpp:157] Top shape: 1 28 5 5 (700)
I0701 07:38:22.371904 11430 net.cpp:165] Memory required for data: 261176272
I0701 07:38:22.371922 11430 layer_factory.hpp:77] Creating layer conv10_1_mbox_conf_scale
I0701 07:38:22.371939 11430 net.cpp:100] Creating Layer conv10_1_mbox_conf_scale
I0701 07:38:22.371950 11430 net.cpp:434] conv10_1_mbox_conf_scale <- conv10_1_mbox_conf
I0701 07:38:22.371963 11430 net.cpp:395] conv10_1_mbox_conf_scale -> conv10_1_mbox_conf (in-place)
I0701 07:38:22.372005 11430 layer_factory.hpp:77] Creating layer conv10_1_mbox_conf_scale
I0701 07:38:22.372104 11430 net.cpp:150] Setting up conv10_1_mbox_conf_scale
I0701 07:38:22.372114 11430 net.cpp:157] Top shape: 1 28 5 5 (700)
I0701 07:38:22.372125 11430 net.cpp:165] Memory required for data: 261179072
I0701 07:38:22.372138 11430 layer_factory.hpp:77] Creating layer conv10_1_mbox_conf_perm
I0701 07:38:22.372151 11430 net.cpp:100] Creating Layer conv10_1_mbox_conf_perm
I0701 07:38:22.372160 11430 net.cpp:434] conv10_1_mbox_conf_perm <- conv10_1_mbox_conf
I0701 07:38:22.372174 11430 net.cpp:408] conv10_1_mbox_conf_perm -> conv10_1_mbox_conf_perm
I0701 07:38:22.372298 11430 net.cpp:150] Setting up conv10_1_mbox_conf_perm
I0701 07:38:22.372320 11430 net.cpp:157] Top shape: 1 5 5 28 (700)
I0701 07:38:22.372332 11430 net.cpp:165] Memory required for data: 261181872
I0701 07:38:22.372342 11430 layer_factory.hpp:77] Creating layer conv10_1_mbox_conf_flat
I0701 07:38:22.372357 11430 net.cpp:100] Creating Layer conv10_1_mbox_conf_flat
I0701 07:38:22.372366 11430 net.cpp:434] conv10_1_mbox_conf_flat <- conv10_1_mbox_conf_perm
I0701 07:38:22.372396 11430 net.cpp:408] conv10_1_mbox_conf_flat -> conv10_1_mbox_conf_flat
I0701 07:38:22.372424 11430 net.cpp:150] Setting up conv10_1_mbox_conf_flat
I0701 07:38:22.372433 11430 net.cpp:157] Top shape: 1 700 (700)
I0701 07:38:22.372445 11430 net.cpp:165] Memory required for data: 261184672
I0701 07:38:22.372478 11430 layer_factory.hpp:77] Creating layer conv10_1_mbox_priorbox
I0701 07:38:22.372493 11430 net.cpp:100] Creating Layer conv10_1_mbox_priorbox
I0701 07:38:22.372516 11430 net.cpp:434] conv10_1_mbox_priorbox <- conv10_1_conv10_1_relu_0_split_3
I0701 07:38:22.372529 11430 net.cpp:434] conv10_1_mbox_priorbox <- data_data_0_split_11
I0701 07:38:22.372546 11430 net.cpp:408] conv10_1_mbox_priorbox -> conv10_1_mbox_priorbox
I0701 07:38:22.372576 11430 net.cpp:150] Setting up conv10_1_mbox_priorbox
I0701 07:38:22.372586 11430 net.cpp:157] Top shape: 1 2 1400 (2800)
I0701 07:38:22.372598 11430 net.cpp:165] Memory required for data: 261195872
I0701 07:38:22.372607 11430 layer_factory.hpp:77] Creating layer pool10_mbox_loc
I0701 07:38:22.372622 11430 net.cpp:100] Creating Layer pool10_mbox_loc
I0701 07:38:22.372644 11430 net.cpp:434] pool10_mbox_loc <- pool10_pool10_0_split_1
I0701 07:38:22.372663 11430 net.cpp:408] pool10_mbox_loc -> pool10_mbox_loc
I0701 07:38:22.373404 11430 net.cpp:150] Setting up pool10_mbox_loc
I0701 07:38:22.373414 11430 net.cpp:157] Top shape: 1 56 4 4 (896)
I0701 07:38:22.373425 11430 net.cpp:165] Memory required for data: 261199456
I0701 07:38:22.373435 11430 layer_factory.hpp:77] Creating layer pool10_mbox_loc_bn
I0701 07:38:22.373452 11430 net.cpp:100] Creating Layer pool10_mbox_loc_bn
I0701 07:38:22.373462 11430 net.cpp:434] pool10_mbox_loc_bn <- pool10_mbox_loc
I0701 07:38:22.373474 11430 net.cpp:395] pool10_mbox_loc_bn -> pool10_mbox_loc (in-place)
I0701 07:38:22.373648 11430 net.cpp:150] Setting up pool10_mbox_loc_bn
I0701 07:38:22.373657 11430 net.cpp:157] Top shape: 1 56 4 4 (896)
I0701 07:38:22.373670 11430 net.cpp:165] Memory required for data: 261203040
I0701 07:38:22.373685 11430 layer_factory.hpp:77] Creating layer pool10_mbox_loc_scale
I0701 07:38:22.373703 11430 net.cpp:100] Creating Layer pool10_mbox_loc_scale
I0701 07:38:22.373713 11430 net.cpp:434] pool10_mbox_loc_scale <- pool10_mbox_loc
I0701 07:38:22.373724 11430 net.cpp:395] pool10_mbox_loc_scale -> pool10_mbox_loc (in-place)
I0701 07:38:22.373766 11430 layer_factory.hpp:77] Creating layer pool10_mbox_loc_scale
I0701 07:38:22.373935 11430 net.cpp:150] Setting up pool10_mbox_loc_scale
I0701 07:38:22.373945 11430 net.cpp:157] Top shape: 1 56 4 4 (896)
I0701 07:38:22.373975 11430 net.cpp:165] Memory required for data: 261206624
I0701 07:38:22.373987 11430 layer_factory.hpp:77] Creating layer pool10_mbox_loc_perm
I0701 07:38:22.374001 11430 net.cpp:100] Creating Layer pool10_mbox_loc_perm
I0701 07:38:22.374011 11430 net.cpp:434] pool10_mbox_loc_perm <- pool10_mbox_loc
I0701 07:38:22.374023 11430 net.cpp:408] pool10_mbox_loc_perm -> pool10_mbox_loc_perm
I0701 07:38:22.374121 11430 net.cpp:150] Setting up pool10_mbox_loc_perm
I0701 07:38:22.374130 11430 net.cpp:157] Top shape: 1 4 4 56 (896)
I0701 07:38:22.374142 11430 net.cpp:165] Memory required for data: 261210208
I0701 07:38:22.374150 11430 layer_factory.hpp:77] Creating layer pool10_mbox_loc_flat
I0701 07:38:22.374162 11430 net.cpp:100] Creating Layer pool10_mbox_loc_flat
I0701 07:38:22.374171 11430 net.cpp:434] pool10_mbox_loc_flat <- pool10_mbox_loc_perm
I0701 07:38:22.374187 11430 net.cpp:408] pool10_mbox_loc_flat -> pool10_mbox_loc_flat
I0701 07:38:22.374213 11430 net.cpp:150] Setting up pool10_mbox_loc_flat
I0701 07:38:22.374222 11430 net.cpp:157] Top shape: 1 896 (896)
I0701 07:38:22.374233 11430 net.cpp:165] Memory required for data: 261213792
I0701 07:38:22.374243 11430 layer_factory.hpp:77] Creating layer pool10_mbox_conf
I0701 07:38:22.374255 11430 net.cpp:100] Creating Layer pool10_mbox_conf
I0701 07:38:22.374265 11430 net.cpp:434] pool10_mbox_conf <- pool10_pool10_0_split_2
I0701 07:38:22.374281 11430 net.cpp:408] pool10_mbox_conf -> pool10_mbox_conf
I0701 07:38:22.374819 11430 net.cpp:150] Setting up pool10_mbox_conf
I0701 07:38:22.374830 11430 net.cpp:157] Top shape: 1 28 4 4 (448)
I0701 07:38:22.374841 11430 net.cpp:165] Memory required for data: 261215584
I0701 07:38:22.374855 11430 layer_factory.hpp:77] Creating layer pool10_mbox_conf_bn
I0701 07:38:22.374872 11430 net.cpp:100] Creating Layer pool10_mbox_conf_bn
I0701 07:38:22.374882 11430 net.cpp:434] pool10_mbox_conf_bn <- pool10_mbox_conf
I0701 07:38:22.374897 11430 net.cpp:395] pool10_mbox_conf_bn -> pool10_mbox_conf (in-place)
I0701 07:38:22.375909 11430 net.cpp:150] Setting up pool10_mbox_conf_bn
I0701 07:38:22.375924 11430 net.cpp:157] Top shape: 1 28 4 4 (448)
I0701 07:38:22.375958 11430 net.cpp:165] Memory required for data: 261217376
I0701 07:38:22.375993 11430 layer_factory.hpp:77] Creating layer pool10_mbox_conf_scale
I0701 07:38:22.376011 11430 net.cpp:100] Creating Layer pool10_mbox_conf_scale
I0701 07:38:22.376034 11430 net.cpp:434] pool10_mbox_conf_scale <- pool10_mbox_conf
I0701 07:38:22.376070 11430 net.cpp:395] pool10_mbox_conf_scale -> pool10_mbox_conf (in-place)
I0701 07:38:22.376116 11430 layer_factory.hpp:77] Creating layer pool10_mbox_conf_scale
I0701 07:38:22.376224 11430 net.cpp:150] Setting up pool10_mbox_conf_scale
I0701 07:38:22.376233 11430 net.cpp:157] Top shape: 1 28 4 4 (448)
I0701 07:38:22.376246 11430 net.cpp:165] Memory required for data: 261219168
I0701 07:38:22.376260 11430 layer_factory.hpp:77] Creating layer pool10_mbox_conf_perm
I0701 07:38:22.376277 11430 net.cpp:100] Creating Layer pool10_mbox_conf_perm
I0701 07:38:22.376288 11430 net.cpp:434] pool10_mbox_conf_perm <- pool10_mbox_conf
I0701 07:38:22.376300 11430 net.cpp:408] pool10_mbox_conf_perm -> pool10_mbox_conf_perm
I0701 07:38:22.376390 11430 net.cpp:150] Setting up pool10_mbox_conf_perm
I0701 07:38:22.376400 11430 net.cpp:157] Top shape: 1 4 4 28 (448)
I0701 07:38:22.376415 11430 net.cpp:165] Memory required for data: 261220960
I0701 07:38:22.376422 11430 layer_factory.hpp:77] Creating layer pool10_mbox_conf_flat
I0701 07:38:22.376439 11430 net.cpp:100] Creating Layer pool10_mbox_conf_flat
I0701 07:38:22.376477 11430 net.cpp:434] pool10_mbox_conf_flat <- pool10_mbox_conf_perm
I0701 07:38:22.376490 11430 net.cpp:408] pool10_mbox_conf_flat -> pool10_mbox_conf_flat
I0701 07:38:22.376540 11430 net.cpp:150] Setting up pool10_mbox_conf_flat
I0701 07:38:22.376549 11430 net.cpp:157] Top shape: 1 448 (448)
I0701 07:38:22.376560 11430 net.cpp:165] Memory required for data: 261222752
I0701 07:38:22.376569 11430 layer_factory.hpp:77] Creating layer pool10_mbox_priorbox
I0701 07:38:22.376582 11430 net.cpp:100] Creating Layer pool10_mbox_priorbox
I0701 07:38:22.376592 11430 net.cpp:434] pool10_mbox_priorbox <- pool10_pool10_0_split_3
I0701 07:38:22.376605 11430 net.cpp:434] pool10_mbox_priorbox <- data_data_0_split_12
I0701 07:38:22.376619 11430 net.cpp:408] pool10_mbox_priorbox -> pool10_mbox_priorbox
I0701 07:38:22.376654 11430 net.cpp:150] Setting up pool10_mbox_priorbox
I0701 07:38:22.376663 11430 net.cpp:157] Top shape: 1 2 896 (1792)
I0701 07:38:22.376675 11430 net.cpp:165] Memory required for data: 261229920
I0701 07:38:22.376684 11430 layer_factory.hpp:77] Creating layer conv11_1_mbox_loc
I0701 07:38:22.376699 11430 net.cpp:100] Creating Layer conv11_1_mbox_loc
I0701 07:38:22.376710 11430 net.cpp:434] conv11_1_mbox_loc <- conv11_1_conv11_1_relu_0_split_1
I0701 07:38:22.376725 11430 net.cpp:408] conv11_1_mbox_loc -> conv11_1_mbox_loc
I0701 07:38:22.378064 11430 net.cpp:150] Setting up conv11_1_mbox_loc
I0701 07:38:22.378077 11430 net.cpp:157] Top shape: 1 56 2 2 (224)
I0701 07:38:22.378088 11430 net.cpp:165] Memory required for data: 261230816
I0701 07:38:22.378099 11430 layer_factory.hpp:77] Creating layer conv11_1_mbox_loc_bn
I0701 07:38:22.378114 11430 net.cpp:100] Creating Layer conv11_1_mbox_loc_bn
I0701 07:38:22.378125 11430 net.cpp:434] conv11_1_mbox_loc_bn <- conv11_1_mbox_loc
I0701 07:38:22.378166 11430 net.cpp:395] conv11_1_mbox_loc_bn -> conv11_1_mbox_loc (in-place)
I0701 07:38:22.378396 11430 net.cpp:150] Setting up conv11_1_mbox_loc_bn
I0701 07:38:22.378425 11430 net.cpp:157] Top shape: 1 56 2 2 (224)
I0701 07:38:22.378437 11430 net.cpp:165] Memory required for data: 261231712
I0701 07:38:22.378453 11430 layer_factory.hpp:77] Creating layer conv11_1_mbox_loc_scale
I0701 07:38:22.378471 11430 net.cpp:100] Creating Layer conv11_1_mbox_loc_scale
I0701 07:38:22.378481 11430 net.cpp:434] conv11_1_mbox_loc_scale <- conv11_1_mbox_loc
I0701 07:38:22.378499 11430 net.cpp:395] conv11_1_mbox_loc_scale -> conv11_1_mbox_loc (in-place)
I0701 07:38:22.378541 11430 layer_factory.hpp:77] Creating layer conv11_1_mbox_loc_scale
I0701 07:38:22.378638 11430 net.cpp:150] Setting up conv11_1_mbox_loc_scale
I0701 07:38:22.378646 11430 net.cpp:157] Top shape: 1 56 2 2 (224)
I0701 07:38:22.378659 11430 net.cpp:165] Memory required for data: 261232608
I0701 07:38:22.378670 11430 layer_factory.hpp:77] Creating layer conv11_1_mbox_loc_perm
I0701 07:38:22.378687 11430 net.cpp:100] Creating Layer conv11_1_mbox_loc_perm
I0701 07:38:22.378697 11430 net.cpp:434] conv11_1_mbox_loc_perm <- conv11_1_mbox_loc
I0701 07:38:22.378710 11430 net.cpp:408] conv11_1_mbox_loc_perm -> conv11_1_mbox_loc_perm
I0701 07:38:22.378791 11430 net.cpp:150] Setting up conv11_1_mbox_loc_perm
I0701 07:38:22.378800 11430 net.cpp:157] Top shape: 1 2 2 56 (224)
I0701 07:38:22.378813 11430 net.cpp:165] Memory required for data: 261233504
I0701 07:38:22.378823 11430 layer_factory.hpp:77] Creating layer conv11_1_mbox_loc_flat
I0701 07:38:22.378834 11430 net.cpp:100] Creating Layer conv11_1_mbox_loc_flat
I0701 07:38:22.378844 11430 net.cpp:434] conv11_1_mbox_loc_flat <- conv11_1_mbox_loc_perm
I0701 07:38:22.378855 11430 net.cpp:408] conv11_1_mbox_loc_flat -> conv11_1_mbox_loc_flat
I0701 07:38:22.378885 11430 net.cpp:150] Setting up conv11_1_mbox_loc_flat
I0701 07:38:22.378893 11430 net.cpp:157] Top shape: 1 224 (224)
I0701 07:38:22.378904 11430 net.cpp:165] Memory required for data: 261234400
I0701 07:38:22.378912 11430 layer_factory.hpp:77] Creating layer conv11_1_mbox_conf
I0701 07:38:22.378926 11430 net.cpp:100] Creating Layer conv11_1_mbox_conf
I0701 07:38:22.378935 11430 net.cpp:434] conv11_1_mbox_conf <- conv11_1_conv11_1_relu_0_split_2
I0701 07:38:22.378948 11430 net.cpp:408] conv11_1_mbox_conf -> conv11_1_mbox_conf
I0701 07:38:22.379806 11430 net.cpp:150] Setting up conv11_1_mbox_conf
I0701 07:38:22.379817 11430 net.cpp:157] Top shape: 1 28 2 2 (112)
I0701 07:38:22.379827 11430 net.cpp:165] Memory required for data: 261234848
I0701 07:38:22.379837 11430 layer_factory.hpp:77] Creating layer conv11_1_mbox_conf_bn
I0701 07:38:22.379854 11430 net.cpp:100] Creating Layer conv11_1_mbox_conf_bn
I0701 07:38:22.379865 11430 net.cpp:434] conv11_1_mbox_conf_bn <- conv11_1_mbox_conf
I0701 07:38:22.379877 11430 net.cpp:395] conv11_1_mbox_conf_bn -> conv11_1_mbox_conf (in-place)
I0701 07:38:22.380044 11430 net.cpp:150] Setting up conv11_1_mbox_conf_bn
I0701 07:38:22.380054 11430 net.cpp:157] Top shape: 1 28 2 2 (112)
I0701 07:38:22.380065 11430 net.cpp:165] Memory required for data: 261235296
I0701 07:38:22.380082 11430 layer_factory.hpp:77] Creating layer conv11_1_mbox_conf_scale
I0701 07:38:22.380096 11430 net.cpp:100] Creating Layer conv11_1_mbox_conf_scale
I0701 07:38:22.380106 11430 net.cpp:434] conv11_1_mbox_conf_scale <- conv11_1_mbox_conf
I0701 07:38:22.380125 11430 net.cpp:395] conv11_1_mbox_conf_scale -> conv11_1_mbox_conf (in-place)
I0701 07:38:22.380168 11430 layer_factory.hpp:77] Creating layer conv11_1_mbox_conf_scale
I0701 07:38:22.380281 11430 net.cpp:150] Setting up conv11_1_mbox_conf_scale
I0701 07:38:22.380291 11430 net.cpp:157] Top shape: 1 28 2 2 (112)
I0701 07:38:22.380303 11430 net.cpp:165] Memory required for data: 261235744
I0701 07:38:22.380318 11430 layer_factory.hpp:77] Creating layer conv11_1_mbox_conf_perm
I0701 07:38:22.380331 11430 net.cpp:100] Creating Layer conv11_1_mbox_conf_perm
I0701 07:38:22.380342 11430 net.cpp:434] conv11_1_mbox_conf_perm <- conv11_1_mbox_conf
I0701 07:38:22.380354 11430 net.cpp:408] conv11_1_mbox_conf_perm -> conv11_1_mbox_conf_perm
I0701 07:38:22.380502 11430 net.cpp:150] Setting up conv11_1_mbox_conf_perm
I0701 07:38:22.380527 11430 net.cpp:157] Top shape: 1 2 2 28 (112)
I0701 07:38:22.380537 11430 net.cpp:165] Memory required for data: 261236192
I0701 07:38:22.380548 11430 layer_factory.hpp:77] Creating layer conv11_1_mbox_conf_flat
I0701 07:38:22.380559 11430 net.cpp:100] Creating Layer conv11_1_mbox_conf_flat
I0701 07:38:22.380573 11430 net.cpp:434] conv11_1_mbox_conf_flat <- conv11_1_mbox_conf_perm
I0701 07:38:22.380584 11430 net.cpp:408] conv11_1_mbox_conf_flat -> conv11_1_mbox_conf_flat
I0701 07:38:22.380615 11430 net.cpp:150] Setting up conv11_1_mbox_conf_flat
I0701 07:38:22.380625 11430 net.cpp:157] Top shape: 1 112 (112)
I0701 07:38:22.380636 11430 net.cpp:165] Memory required for data: 261236640
I0701 07:38:22.380651 11430 layer_factory.hpp:77] Creating layer conv11_1_mbox_priorbox
I0701 07:38:22.380664 11430 net.cpp:100] Creating Layer conv11_1_mbox_priorbox
I0701 07:38:22.380674 11430 net.cpp:434] conv11_1_mbox_priorbox <- conv11_1_conv11_1_relu_0_split_3
I0701 07:38:22.380685 11430 net.cpp:434] conv11_1_mbox_priorbox <- data_data_0_split_13
I0701 07:38:22.380698 11430 net.cpp:408] conv11_1_mbox_priorbox -> conv11_1_mbox_priorbox
I0701 07:38:22.380733 11430 net.cpp:150] Setting up conv11_1_mbox_priorbox
I0701 07:38:22.380743 11430 net.cpp:157] Top shape: 1 2 224 (448)
I0701 07:38:22.380753 11430 net.cpp:165] Memory required for data: 261238432
I0701 07:38:22.380762 11430 layer_factory.hpp:77] Creating layer pool11_mbox_loc
I0701 07:38:22.380776 11430 net.cpp:100] Creating Layer pool11_mbox_loc
I0701 07:38:22.380787 11430 net.cpp:434] pool11_mbox_loc <- pool11_pool11_0_split_0
I0701 07:38:22.380801 11430 net.cpp:408] pool11_mbox_loc -> pool11_mbox_loc
I0701 07:38:22.382753 11430 net.cpp:150] Setting up pool11_mbox_loc
I0701 07:38:22.382768 11430 net.cpp:157] Top shape: 1 56 1 1 (56)
I0701 07:38:22.382781 11430 net.cpp:165] Memory required for data: 261238656
I0701 07:38:22.382793 11430 layer_factory.hpp:77] Creating layer pool11_mbox_loc_bn
I0701 07:38:22.382809 11430 net.cpp:100] Creating Layer pool11_mbox_loc_bn
I0701 07:38:22.382820 11430 net.cpp:434] pool11_mbox_loc_bn <- pool11_mbox_loc
I0701 07:38:22.382833 11430 net.cpp:395] pool11_mbox_loc_bn -> pool11_mbox_loc (in-place)
I0701 07:38:22.383010 11430 net.cpp:150] Setting up pool11_mbox_loc_bn
I0701 07:38:22.383020 11430 net.cpp:157] Top shape: 1 56 1 1 (56)
I0701 07:38:22.383031 11430 net.cpp:165] Memory required for data: 261238880
I0701 07:38:22.383047 11430 layer_factory.hpp:77] Creating layer pool11_mbox_loc_scale
I0701 07:38:22.383061 11430 net.cpp:100] Creating Layer pool11_mbox_loc_scale
I0701 07:38:22.383071 11430 net.cpp:434] pool11_mbox_loc_scale <- pool11_mbox_loc
I0701 07:38:22.383083 11430 net.cpp:395] pool11_mbox_loc_scale -> pool11_mbox_loc (in-place)
I0701 07:38:22.383126 11430 layer_factory.hpp:77] Creating layer pool11_mbox_loc_scale
I0701 07:38:22.383210 11430 net.cpp:150] Setting up pool11_mbox_loc_scale
I0701 07:38:22.383219 11430 net.cpp:157] Top shape: 1 56 1 1 (56)
I0701 07:38:22.383229 11430 net.cpp:165] Memory required for data: 261239104
I0701 07:38:22.383242 11430 layer_factory.hpp:77] Creating layer pool11_mbox_loc_perm
I0701 07:38:22.383255 11430 net.cpp:100] Creating Layer pool11_mbox_loc_perm
I0701 07:38:22.383265 11430 net.cpp:434] pool11_mbox_loc_perm <- pool11_mbox_loc
I0701 07:38:22.383282 11430 net.cpp:408] pool11_mbox_loc_perm -> pool11_mbox_loc_perm
I0701 07:38:22.383368 11430 net.cpp:150] Setting up pool11_mbox_loc_perm
I0701 07:38:22.383378 11430 net.cpp:157] Top shape: 1 1 1 56 (56)
I0701 07:38:22.383388 11430 net.cpp:165] Memory required for data: 261239328
I0701 07:38:22.383397 11430 layer_factory.hpp:77] Creating layer pool11_mbox_loc_flat
I0701 07:38:22.383414 11430 net.cpp:100] Creating Layer pool11_mbox_loc_flat
I0701 07:38:22.383422 11430 net.cpp:434] pool11_mbox_loc_flat <- pool11_mbox_loc_perm
I0701 07:38:22.383435 11430 net.cpp:408] pool11_mbox_loc_flat -> pool11_mbox_loc_flat
I0701 07:38:22.383463 11430 net.cpp:150] Setting up pool11_mbox_loc_flat
I0701 07:38:22.383487 11430 net.cpp:157] Top shape: 1 56 (56)
I0701 07:38:22.383500 11430 net.cpp:165] Memory required for data: 261239552
I0701 07:38:22.383509 11430 layer_factory.hpp:77] Creating layer pool11_mbox_conf
I0701 07:38:22.383529 11430 net.cpp:100] Creating Layer pool11_mbox_conf
I0701 07:38:22.383539 11430 net.cpp:434] pool11_mbox_conf <- pool11_pool11_0_split_1
I0701 07:38:22.383551 11430 net.cpp:408] pool11_mbox_conf -> pool11_mbox_conf
I0701 07:38:22.384373 11430 net.cpp:150] Setting up pool11_mbox_conf
I0701 07:38:22.384384 11430 net.cpp:157] Top shape: 1 28 1 1 (28)
I0701 07:38:22.384397 11430 net.cpp:165] Memory required for data: 261239664
I0701 07:38:22.384407 11430 layer_factory.hpp:77] Creating layer pool11_mbox_conf_bn
I0701 07:38:22.384421 11430 net.cpp:100] Creating Layer pool11_mbox_conf_bn
I0701 07:38:22.384433 11430 net.cpp:434] pool11_mbox_conf_bn <- pool11_mbox_conf
I0701 07:38:22.384445 11430 net.cpp:395] pool11_mbox_conf_bn -> pool11_mbox_conf (in-place)
I0701 07:38:22.384675 11430 net.cpp:150] Setting up pool11_mbox_conf_bn
I0701 07:38:22.384685 11430 net.cpp:157] Top shape: 1 28 1 1 (28)
I0701 07:38:22.384696 11430 net.cpp:165] Memory required for data: 261239776
I0701 07:38:22.384712 11430 layer_factory.hpp:77] Creating layer pool11_mbox_conf_scale
I0701 07:38:22.384727 11430 net.cpp:100] Creating Layer pool11_mbox_conf_scale
I0701 07:38:22.384738 11430 net.cpp:434] pool11_mbox_conf_scale <- pool11_mbox_conf
I0701 07:38:22.384752 11430 net.cpp:395] pool11_mbox_conf_scale -> pool11_mbox_conf (in-place)
I0701 07:38:22.384792 11430 layer_factory.hpp:77] Creating layer pool11_mbox_conf_scale
I0701 07:38:22.384864 11430 net.cpp:150] Setting up pool11_mbox_conf_scale
I0701 07:38:22.384873 11430 net.cpp:157] Top shape: 1 28 1 1 (28)
I0701 07:38:22.384883 11430 net.cpp:165] Memory required for data: 261239888
I0701 07:38:22.384896 11430 layer_factory.hpp:77] Creating layer pool11_mbox_conf_perm
I0701 07:38:22.384914 11430 net.cpp:100] Creating Layer pool11_mbox_conf_perm
I0701 07:38:22.384924 11430 net.cpp:434] pool11_mbox_conf_perm <- pool11_mbox_conf
I0701 07:38:22.384938 11430 net.cpp:408] pool11_mbox_conf_perm -> pool11_mbox_conf_perm
I0701 07:38:22.385028 11430 net.cpp:150] Setting up pool11_mbox_conf_perm
I0701 07:38:22.385038 11430 net.cpp:157] Top shape: 1 1 1 28 (28)
I0701 07:38:22.385051 11430 net.cpp:165] Memory required for data: 261240000
I0701 07:38:22.385061 11430 layer_factory.hpp:77] Creating layer pool11_mbox_conf_flat
I0701 07:38:22.385073 11430 net.cpp:100] Creating Layer pool11_mbox_conf_flat
I0701 07:38:22.385083 11430 net.cpp:434] pool11_mbox_conf_flat <- pool11_mbox_conf_perm
I0701 07:38:22.385095 11430 net.cpp:408] pool11_mbox_conf_flat -> pool11_mbox_conf_flat
I0701 07:38:22.385123 11430 net.cpp:150] Setting up pool11_mbox_conf_flat
I0701 07:38:22.385131 11430 net.cpp:157] Top shape: 1 28 (28)
I0701 07:38:22.385157 11430 net.cpp:165] Memory required for data: 261240112
I0701 07:38:22.385165 11430 layer_factory.hpp:77] Creating layer pool11_mbox_priorbox
I0701 07:38:22.385181 11430 net.cpp:100] Creating Layer pool11_mbox_priorbox
I0701 07:38:22.385191 11430 net.cpp:434] pool11_mbox_priorbox <- pool11_pool11_0_split_2
I0701 07:38:22.385202 11430 net.cpp:434] pool11_mbox_priorbox <- data_data_0_split_14
I0701 07:38:22.385215 11430 net.cpp:408] pool11_mbox_priorbox -> pool11_mbox_priorbox
I0701 07:38:22.385244 11430 net.cpp:150] Setting up pool11_mbox_priorbox
I0701 07:38:22.385253 11430 net.cpp:157] Top shape: 1 2 56 (112)
I0701 07:38:22.385267 11430 net.cpp:165] Memory required for data: 261240560
I0701 07:38:22.385274 11430 layer_factory.hpp:77] Creating layer mbox_loc
I0701 07:38:22.385294 11430 net.cpp:100] Creating Layer mbox_loc
I0701 07:38:22.385304 11430 net.cpp:434] mbox_loc <- conv4_3_norm_mbox_loc_flat
I0701 07:38:22.385320 11430 net.cpp:434] mbox_loc <- fc7_mbox_loc_flat
I0701 07:38:22.385334 11430 net.cpp:434] mbox_loc <- conv6_1_mbox_loc_flat
I0701 07:38:22.385344 11430 net.cpp:434] mbox_loc <- pool6_mbox_loc_flat
I0701 07:38:22.385372 11430 net.cpp:434] mbox_loc <- conv7_1_mbox_loc_flat
I0701 07:38:22.385383 11430 net.cpp:434] mbox_loc <- pool7_mbox_loc_flat
I0701 07:38:22.385393 11430 net.cpp:434] mbox_loc <- conv8_1_mbox_loc_flat
I0701 07:38:22.385426 11430 net.cpp:434] mbox_loc <- pool8_mbox_loc_flat
I0701 07:38:22.385437 11430 net.cpp:434] mbox_loc <- conv9_1_mbox_loc_flat
I0701 07:38:22.385466 11430 net.cpp:434] mbox_loc <- pool9_mbox_loc_flat
I0701 07:38:22.385478 11430 net.cpp:434] mbox_loc <- conv10_1_mbox_loc_flat
I0701 07:38:22.385488 11430 net.cpp:434] mbox_loc <- pool10_mbox_loc_flat
I0701 07:38:22.385499 11430 net.cpp:434] mbox_loc <- conv11_1_mbox_loc_flat
I0701 07:38:22.385509 11430 net.cpp:434] mbox_loc <- pool11_mbox_loc_flat
I0701 07:38:22.385522 11430 net.cpp:408] mbox_loc -> mbox_loc
I0701 07:38:22.385556 11430 net.cpp:150] Setting up mbox_loc
I0701 07:38:22.385565 11430 net.cpp:157] Top shape: 1 161768 (161768)
I0701 07:38:22.385578 11430 net.cpp:165] Memory required for data: 261887632
I0701 07:38:22.385587 11430 layer_factory.hpp:77] Creating layer mbox_conf
I0701 07:38:22.385600 11430 net.cpp:100] Creating Layer mbox_conf
I0701 07:38:22.385612 11430 net.cpp:434] mbox_conf <- conv4_3_norm_mbox_conf_flat
I0701 07:38:22.385625 11430 net.cpp:434] mbox_conf <- fc7_mbox_conf_flat
I0701 07:38:22.385637 11430 net.cpp:434] mbox_conf <- conv6_1_mbox_conf_flat
I0701 07:38:22.385649 11430 net.cpp:434] mbox_conf <- pool6_mbox_conf_flat
I0701 07:38:22.385659 11430 net.cpp:434] mbox_conf <- conv7_1_mbox_conf_flat
I0701 07:38:22.385670 11430 net.cpp:434] mbox_conf <- pool7_mbox_conf_flat
I0701 07:38:22.385681 11430 net.cpp:434] mbox_conf <- conv8_1_mbox_conf_flat
I0701 07:38:22.385691 11430 net.cpp:434] mbox_conf <- pool8_mbox_conf_flat
I0701 07:38:22.385701 11430 net.cpp:434] mbox_conf <- conv9_1_mbox_conf_flat
I0701 07:38:22.385711 11430 net.cpp:434] mbox_conf <- pool9_mbox_conf_flat
I0701 07:38:22.385721 11430 net.cpp:434] mbox_conf <- conv10_1_mbox_conf_flat
I0701 07:38:22.385731 11430 net.cpp:434] mbox_conf <- pool10_mbox_conf_flat
I0701 07:38:22.385740 11430 net.cpp:434] mbox_conf <- conv11_1_mbox_conf_flat
I0701 07:38:22.385752 11430 net.cpp:434] mbox_conf <- pool11_mbox_conf_flat
I0701 07:38:22.385766 11430 net.cpp:408] mbox_conf -> mbox_conf
I0701 07:38:22.385797 11430 net.cpp:150] Setting up mbox_conf
I0701 07:38:22.385805 11430 net.cpp:157] Top shape: 1 80884 (80884)
I0701 07:38:22.385818 11430 net.cpp:165] Memory required for data: 262211168
I0701 07:38:22.385826 11430 layer_factory.hpp:77] Creating layer mbox_priorbox
I0701 07:38:22.385838 11430 net.cpp:100] Creating Layer mbox_priorbox
I0701 07:38:22.385849 11430 net.cpp:434] mbox_priorbox <- conv4_3_norm_mbox_priorbox
I0701 07:38:22.385859 11430 net.cpp:434] mbox_priorbox <- fc7_mbox_priorbox
…
I0701 07:38:22.385931 11430 net.cpp:434] mbox_priorbox <- conv9_1_mbox_priorbox
I0701 07:38:22.385941 11430 net.cpp:434] mbox_priorbox <- pool9_mbox_priorbox
I0701 07:38:22.385951 11430 net.cpp:434] mbox_priorbox <- conv10_1_mbox_priorbox
I0701 07:38:22.385962 11430 net.cpp:434] mbox_priorbox <- pool10_mbox_priorbox
I0701 07:38:22.385972 11430 net.cpp:434] mbox_priorbox <- conv11_1_mbox_priorbox
I0701 07:38:22.385982 11430 net.cpp:434] mbox_priorbox <- pool11_mbox_priorbox
I0701 07:38:22.385999 11430 net.cpp:408] mbox_priorbox -> mbox_priorbox
I0701 07:38:22.386029 11430 net.cpp:150] Setting up mbox_priorbox
I0701 07:38:22.386036 11430 net.cpp:157] Top shape: 1 2 161768 (323536)
I0701 07:38:22.386049 11430 net.cpp:165] Memory required for data: 263505312
I0701 07:38:22.386058 11430 layer_factory.hpp:77] Creating layer mbox_conf_reshape
I0701 07:38:22.386088 11430 net.cpp:100] Creating Layer mbox_conf_reshape
I0701 07:38:22.386098 11430 net.cpp:434] mbox_conf_reshape <- mbox_conf
I0701 07:38:22.386111 11430 net.cpp:408] mbox_conf_reshape -> mbox_conf_reshape
I0701 07:38:22.386147 11430 net.cpp:150] Setting up mbox_conf_reshape
I0701 07:38:22.386155 11430 net.cpp:157] Top shape: 1 40442 2 (80884)
I0701 07:38:22.386168 11430 net.cpp:165] Memory required for data: 263828848
I0701 07:38:22.386178 11430 layer_factory.hpp:77] Creating layer mbox_conf_softmax
I0701 07:38:22.386195 11430 net.cpp:100] Creating Layer mbox_conf_softmax
I0701 07:38:22.386204 11430 net.cpp:434] mbox_conf_softmax <- mbox_conf_reshape
I0701 07:38:22.386215 11430 net.cpp:408] mbox_conf_softmax -> mbox_conf_softmax
I0701 07:38:22.386271 11430 net.cpp:150] Setting up mbox_conf_softmax
I0701 07:38:22.386281 11430 net.cpp:157] Top shape: 1 40442 2 (80884)
I0701 07:38:22.386315 11430 net.cpp:165] Memory required for data: 264152384
I0701 07:38:22.386340 11430 layer_factory.hpp:77] Creating layer mbox_conf_flatten
I0701 07:38:22.386358 11430 net.cpp:100] Creating Layer mbox_conf_flatten
I0701 07:38:22.386368 11430 net.cpp:434] mbox_conf_flatten <- mbox_conf_softmax
I0701 07:38:22.386379 11430 net.cpp:408] mbox_conf_flatten -> mbox_conf_flatten
I0701 07:38:22.386406 11430 net.cpp:150] Setting up mbox_conf_flatten
I0701 07:38:22.386431 11430 net.cpp:157] Top shape: 1 80884 (80884)
I0701 07:38:22.386443 11430 net.cpp:165] Memory required for data: 264475920
I0701 07:38:22.386452 11430 layer_factory.hpp:77] Creating layer detection_out
I0701 07:38:22.386485 11430 net.cpp:100] Creating Layer detection_out
I0701 07:38:22.386494 11430 net.cpp:434] detection_out <- mbox_loc
I0701 07:38:22.386504 11430 net.cpp:434] detection_out <- mbox_conf_flatten
I0701 07:38:22.386514 11430 net.cpp:434] detection_out <- mbox_priorbox
I0701 07:38:22.386529 11430 net.cpp:408] detection_out -> detection_out
I0701 07:38:22.386628 11430 net.cpp:150] Setting up detection_out
I0701 07:38:22.386638 11430 net.cpp:157] Top shape: 1 1 1 7 (7)
I0701 07:38:22.386651 11430 net.cpp:165] Memory required for data: 264475948
I0701 07:38:22.386658 11430 layer_factory.hpp:77] Creating layer detection_eval
I0701 07:38:22.386672 11430 net.cpp:100] Creating Layer detection_eval
I0701 07:38:22.386682 11430 net.cpp:434] detection_eval <- detection_out
I0701 07:38:22.386693 11430 net.cpp:434] detection_eval <- label
I0701 07:38:22.386704 11430 net.cpp:408] detection_eval -> detection_eval
I0701 07:38:22.386739 11430 net.cpp:150] Setting up detection_eval
I0701 07:38:22.386747 11430 net.cpp:157] Top shape: 1 1 2 5 (10)
I0701 07:38:22.386759 11430 net.cpp:165] Memory required for data: 264475988
I0701 07:38:22.386768 11430 net.cpp:228] detection_eval does not need backward computation.
I0701 07:38:22.386778 11430 net.cpp:228] detection_out does not need backward computation.
I0701 07:38:22.386787 11430 net.cpp:228] mbox_conf_flatten does not need backward computation.
I0701 07:38:22.386798 11430 net.cpp:228] mbox_conf_softmax does not need backward computation.
…
